submission/checkpoint_Dueling_Noisy.pth (torch, 735621 bytes, 29 tensors)

seq.0.weight f4 [265, 510]
00000000: 635c a9bc 5ff4 3e3c e35c 50bd ec7a 05bd
00000010: ea2c 10bd a4c7 c9bb 43c4 babc 0b81 c53c
00000020: 50c4 80bb d764 dfbb 22f1 c0bb 9309 a2bc
00000030: 61f0 6bbd ce3d f0bc c4f1 1dbd 1d69 933c
00000040: 47c2 ecbc c939 8d3c f3eb f5bc 1b43 22bd
00000050: 6159 fe3c 014e 753c 6c50 d8bc 68b9 073d
00000060: 9589 e7bc 40dd 273d ec1c 53bc ca2c 52bd
00000070: 115d e4bc 64ea 02bd 056a 163d 92a1 053c
00000080: 386d 46bd 1afc a6bc 2803 65bd 5205 9ebc
00000090: fb06 59bd b4b4 db3c 60dd a13c 2b85 803b
000000a0: 9868 523d f776 2abd 6d24 4dbc 0f59 29bd
000000b0: 8ffa 71bd ecde fd3c be0d 883c dd76 db3b
000000c0: 7be0 a0bc a0bd a8bc ddcc a63d 3052 8c3c
000000d0: 5b0c 913b c004 c43b e7af 01bb 2079 2c3d
000000e0: e6c3 a239 d75b 5bbd 606a fbbc e40c 2cbd
000000f0: ec58 723d 157f 04bc c786 4fbd 6c2d 5b3c
00000100: d587 b8bb 6e4f f1bb 5cf1 b33c ba8d 3dbb
00000110: 500a e13c 69a2 dd3c 6640 05bd 7d79 88bc
00000120: 5630 f4b7 fa46 163d 46a5 6c3c d90d 233d
00000130: 2941 143d 56f7 22bd f87a 853b 2ced 36bd
00000140: 3fef 0fbd 2a64 253d 896e 933c f2ec 34bd
00000150: c8e2 88bc 3dac b7bc c6f2 b43c a080 16bd
00000160: 367f 8b3c d0dc 32bd c652 313d 9a74 4c3d
00000170: a321 c0bb aea2 873c 0284 83bd cf7b 93bd
00000180: ed49 413d 5192 11bb a67c 0dbd c601 2cbd
00000190: 0f23 8b3d 4ec3 413d 73e7 87bd a498 36bc
000001a0: cae3 78bd 4faf 0fbd 9a1c e13c 8840 63bd
000001b0: f0e5 1fbb 2675 09bc 9e93 543c ec75 093d
000001c0: 5c9b 99bd c292 243d 5598 103c a3f1 f3bd
000001d0: 39e4 243d 9363 febb 80b3 d33b fa2b 5abb
000001e0: 50e3 3d3d 6f6f 233a 85de 2bbd f8a5 ab3c
000001f0: bbae 8ebd adc8 7bbb 17f0 873c 8ad1 0ebd
00000200: 78cd 7dbc 907b 69bd 07b9 843d 03f6 f33c
00000210: d4bd 86bd 90ed 14bb 6dab ffba 3b78 813a
00000220: 19d7 833b b926 acbc acd3 123c 46f3 193c
00000230: 2381 c73d 6567 353d bf85 93bb 50e0 51bb
00000240: 6d23 98bd ab10 01bb eaa9 393d 7576 c0bc
00000250: 714d b4bc 4b85 61bd 36ad b5ba 182d a1bc
00000260: 3a98 67bd e0ee c63c aab8 35bc e290 3ebc
00000270: 71f7 193d bd1f 82bd 9460 19bc bd74 1ebd
00000280: 4822 013d 16bd 533d 228e b6bd ea9a 1cbd
00000290: 5e3a 17bd e774 ed3c 1b5d b0ba a4b4 fabb
000002a0: 443f 23bd 2dff d3bc 6781 af3d 9a40 7c3d
000002b0: 7953 b6bc da5e 833c d323 92bd 13ca 11bc
000002c0: 85e9 aabc c72e 9bbb 4809 113d ac9c 66bd
000002d0: d6e6 763d bb45 b53d d7fa ffbc a884 4a3c
000002e0: 25f2 49bc dc69 063b f6be c4bc ab34 97bc
000002f0: 8677 15bd a4eb ebb9 3642 673d f02d 113e
00000300: 6484 b1bd a06d 013b 891f 82bd 5b1d 9abd
00000310: 8019 3ebd c8cd cf3c 8e2a d8bc 5c51 b4bc
00000320: 2782 923c d5e5 003e 6968 a6bd e607 f9bc
00000330: e818 6abd 34f2 f43a 576b 15bd d5a2 d03c
00000340: 202c 833c 5997 84bc 1869 853c 9928 a73d
00000350: ef61 2dbd c0a9 25bc 97fd eebc 9e95 233a
00000360: 03ef 83bd 8965 0abd 4875 123d 9b24 73bd
00000370: 68a7 f43c 2689 eb3d 2fb5 d1bc 0054 a43a
00000380: b161 8cbd d008 253d 575d 7cbd d4d6 e2bc
00000390: 6a6a 73bc d9af f3bc d464 9b3c ffe8 8d3d
000003a0: eb9a 93bc 9074 223d ca08 8cbb ab75 b2bc
000003b0: 9496 8cbc 2a67 4fbd debd 99bc e95c 3bbc
000003c0: 228d 123d b65b 303d e34e eebc 00aa 9438
000003d0: 0ecb 09bc 7c38 8bbb b04a 683a b12f 72bd
000003e0: 80fc 1f3a 1992 0ebd 705a aebc b8ec 783c
000003f0: b715 0f3d 9c13 54bc 3a83 65bd fcc0 203d
-0.020673936 0.011654942 -0.050869834 -0.03258793 -0.035199083 -0.006157832 -0.022798663 0.024109384
-0.0039296523 -0.006817441 -0.0058881203 -0.019779956 -0.05760229 -0.029326346 -0.038560644 0.017994458
-0.028901232 0.017239468 -0.030019736 -0.039614778 0.031048479 0.014972211 -0.026405536 0.0331358
-0.028263846 0.040982485 -0.0128853135 -0.051312245 -0.027876409 -0.031961814 0.0367222 0.008156197
-0.048444003 -0.020383883 -0.055911213 -0.019289646 -0.052985173 0.026819564 0.01975888 0.003922125
0.05136928 -0.04161736 -0.012520892 -0.0413447 -0.059076842 0.030990086 0.016608115 0.006697519
-0.01963829 -0.020598233 0.08144543 0.017129034 0.0044265217 0.0059820116 -0.0019788684 0.0421077
0.00031045004 -0.053554382 -0.030690372 -0.04200448 0.059166834 -0.008086939 -0.050665643 0.013377529
-0.005631427 -0.007364205 0.021965675 -0.0028923587 0.027470738 0.027054982 -0.03253212 -0.016659493
-2.9109575e-05 0.036688782 0.014443701 0.039808128 0.036194954 -0.03978666 0.004073497 -0.04465978
-0.035140272 0.040378727 0.017997043 -0.04417128 -0.0167097 -0.022420997 0.02208842 -0.03674376
0.017028432 -0.043667614 0.04329183 0.049915887 -0.005863385 0.016557064 -0.06421663 -0.07201349
0.04718964 -0.0022212456 -0.034542702 -0.04199388 0.06793796 0.047305398 -0.06635942 -0.011144791
-0.06076411 -0.035079297 0.027479459 -0.055481464 -0.0024398528 -0.008389747 0.012974648 0.033559725
-0.075003356 0.04017902 0.008825381 -0.11911323 0.040256713 -0.007763335 0.006460607 -0.0033290372
0.04635936 0.00062345614 -0.041960258 0.020953164 -0.06966921 -0.0038419173 0.016593976 -0.0348678
-0.015490882 -0.057002604 0.06480604 0.029780393 -0.065791756 -0.0022724606 -0.0019506045 0.000987775
0.0040234444 -0.021014558 0.008961599 0.00939638 0.09741428 0.044288058 -0.0045020278 -0.003202457
-0.07428632 -0.0019693773 0.04532806 -0.023493985 -0.022009583 -0.05505876 -0.0013860825 -0.019674823
-0.05654166 0.024283826 -0.011091391 -0.011631222 0.037589494 -0.0635371 -0.009361405 -0.03868555
0.031526834 0.051694 -0.089138284 -0.038233675 -0.036920898 0.028986407 -0.0013455482 -0.0076509286
-0.039855257 -0.025878513 0.085696034 0.061585046 -0.0222566 0.01603644 -0.07135739 -0.008898276
-0.020863304 -0.004735801 0.035409242 -0.056301758 0.060278736 0.08851191 -0.03124754 0.012360729
-0.012325798 0.0020509874 -0.024016839 -0.018457731 -0.03649094 -0.0004499826 0.056459628 0.1417768
-0.0866783 0.001974918 -0.06353671 -0.0752513 -0.046411037 0.025366679 -0.02638748 -0.022011451
0.017884327 0.12587674 -0.081253834 -0.030399274 -0.05715266 0.0018687905 -0.03647932 0.02546827
0.016012251 -0.01618545 0.016285464 0.0816204 -0.042329725 -0.010111272 -0.029173655 0.0006240251
-0.06442072 -0.033788238 0.03575638 -0.05936108 0.029864982 0.11500768 -0.02559909 0.0012537241
-0.06854571 0.040291607 -0.061612453 -0.027690329 -0.014856914 -0.029746937 0.018968977 0.06929206
-0.018018207 0.039661944 -0.0042735087 -0.021784624 -0.017161645 -0.050635494 -0.018767294 -0.011435726
0.035779126 0.043056212 -0.02909035 7.088855e-05 -0.008410228 -0.004248677 0.0008861227 -0.059127513
0.0006102994 -0.0348073 -0.021283358 0.015193157 0.03493282 -0.012944128 -0.05603335 0.039246544

seq.0.bias f4 [265]
00000000: 7db7 ec3b 2626 2dbd 4deb 67bd 4bc5 28bd
00000010: b993 5cbd 2a86 aabc 4be8 d23c 79e6 8bbc
00000020: 0592 58bd de23 62bd e268 d6bb bd20 adbc
00000030: 03fb aebc 62e5 013c f36a 3f3c 4f76 d1bc
00000040: f146 4cbd 32c3 4dbb 836f efbc 9bb1 013c
00000050: 318d 35bb 3ba7 b8bc 4530 42bc e32e 26bb
00000060: dc59 49bd ab23 c2bc 787e 3c3c b830 99bc
00000070: f3de 573c 8d68 3bbd 14c9 963c 1fe0 c4bc
00000080: 8399 d33c 0bd8 25bd 6b39 f13c d63b d23a
00000090: ffca 013d 69e0 a43c e5af 4fbd cd95 47bd
000000a0: 1087 bb3c 166c 32bc dd5d d3bc 82d5 27bd
000000b0: a5cb f6bc febb d83c 1bb0 dabc 12dc 5abd
000000c0: a880 083d 6367 d7bc 45c2 53bd da79 ea3c
000000d0: 462a 0cbd 34c1 ab3b c977 223b 2cbe 18bd
000000e0: 47f4 6cbc 2e83 f3bc 7a70 4dbd d9ae 99bc
000000f0: d0a5 04bd 12cf ccbc db16 42bd b108 54bd
00000100: c102 7bbc 0ed0 59bd de75 cc3a 50d9 953c
00000110: 8364 a2bc 9cbd 54bc 2a0a fcbc c0a2 3fbd
00000120: 0938 4bbd 3925 01bd 74a3 0fbc eb23 e7bb
00000130: a91c 29bd 4446 b7bc 4b8d c53c 0742 5ebd
00000140: 68fe e8bc b8c3 18bc 84c6 6dbc 0ee2 05bd
00000150: 93a1 55bc 8011 0d3d ee9d 3abd 8faf ce3c
00000160: 9bf3 86bb 5b3a 13bd 59ad 8e3c fc9e 953c
00000170: 90b1 49bc d546 2b3d 4844 2bbd 44f0 ed3c
00000180: 3104 b73c 4737 b33c 1bde 2f3c 95c9 a7bc
00000190: ecf0 88bd 7cc8 19bc a46e 4b3c a8cc 00bd
000001a0: 29f0 d63c d35c 99ba 82f4 28bd 5060 83bc
000001b0: 130e 323c 5e9c 933c 6e73 22bd c039 13bd
000001c0: ee36 c83b a1fc 343b e68d 78bd 75f5 65bd
000001d0: 8d0b 64bd 0b55 c2bc 9207 b0ba ab1d 8bbc
000001e0: ae29 99bc 8327 0fbd 7e7c 33bd e30f ff3c
000001f0: dbda ebbc a36f 25bd 5493 14bd 54ac db3c
00000200: 61e5 003d 1404 eb3c 8507 dd3c 6869 25bd
00000210: 55d7 18bd 63f7 9f3c 2cd3 80bc 74b1 acbc
00000220: f3d9 2c3d fb5c b6bc cd92 0bbd 54d1 963c
00000230: 40d3 38bc 236f d0bc 38eb 44bc 0f8c 333c
00000240: 31a5 d53c 1173 37bb 0692 7cbb 7dfa 6fbc
00000250: 385c 283b 431a 8c3c 6e62 8abb c091 36bd
00000260: 5687 9dbc b2db cabc 585e 95bb ce6f c83a
00000270: 001b 1abd 820d a63c 4c99 3cbc bb1f 01bd
00000280: 5f14 b7bb f01a 8a3c 5d94 0b3c 6058 67bd
00000290: 37d7 cf3c 576a 30bd b732 ffbc 6f39 57bc
000002a0: 7e93 f9ba 0f9e 9cbc 119c a43c 3457 3c3c
000002b0: 468e 6e3c 571c 0cbd 5346 66bd 194c 133d
000002c0: 798b 34bd 58c3 d33c b5c7 61bd 8ddb 3a3c
000002d0: 3c10 14bc 6e0d 05bd f3c9 87bd 895a 84bb
000002e0: 850a 05bd 70e9 10bd b6a9 2abd 44d9 9bbc
000002f0: 7913 ca3c b97c 25bd eef6 21bd 5182 3cbc
00000300: ff55 e1bc e6f5 c3bc 4792 35bc 40d4 21b5
00000310: d96a 64bd 46a0 2fbb 14ef 20bd 9413 4cbd
00000320: 0b54 e23c f8cb cdbb 454e 6f3c 6f2a fb3c
00000330: 56b8 7fbd e8cd 37bb 5c44 e23c 6fa8 06bc
00000340: 6637 193b 76e7 1d3d 375b e73c d2e0 3dbd
00000350: f1c5 c8bb 67fd 0cbd ab81 d1bb a891 42bc
00000360: f21e 303b 4b32 84ba 64c5 1abc 6e77 2dbd
00000370: cb15 c0bc d8dc 86bc 843b 70bd 3ee4 273b
00000380: 05a7 fdbb d04e 9cbc dadb 943b 39c8 0fbc
00000390: 78cf 97bc 63a1 73bd be95 bd3c 0191 09bc
000003a0: 27c1 0e3d 1e71 19bd d2b1 753c 35ac c5bc
000003b0: 1e3f 203d 6d91 04bd 26bb 3a3c 1898 94bb
000003c0: b031 81bb 114a f7bb 913e 30bd 91bc 8ebc
000003d0: d3b7 43bd ab0c 13bd df6a 123c bdb4 06bd
000003e0: fbe7 34bb e27e 49bd b771 cb3c ecb8 0dbd
000003f0: 093d a93c 5017 ce3b b68c ecbc b76d 04bc
0.007224022 -0.04227271 -0.056620885 -0.04120378 -0.053851817 -0.020815928 0.025745532 -0.017077671
-0.05287363 -0.055209987 -0.0065432647 -0.021133775 -0.021359926 0.007928224 0.0116832135 -0.02556911
-0.049872342 -0.0031396863 -0.029227978 0.00791588 -0.0027702565 -0.02254068 -0.011852329 -0.0025357537
-0.049157962 -0.023698648 0.011504762 -0.018699989 0.013175714 -0.045754004 0.018406428 -0.02403265
0.025830036 -0.040489238 0.029446324 0.0016039561 0.031687733 0.020126538 -0.050704855 -0.048726846
0.022891551 -0.0108900275 -0.025801593 -0.0409751 -0.030126402 0.02645683 -0.026695302 -0.05343253
0.03332582 -0.026294416 -0.05169894 0.028622556 -0.034220003 0.0052415375 0.0024790636 -0.037290737
-0.014462537 -0.029725637 -0.050156094 -0.018760132 -0.032384694 -0.025001083 -0.047385078 -0.0517661
-0.015320481 -0.053176932 0.0015599092 0.0182921 -0.019823318 -0.0129846595 -0.030766565 -0.04678607
-0.049613986 -0.03152964 -0.008766998 -0.0070538423 -0.041287098 -0.022372372 0.024115225 -0.054262187
-0.028441623 -0.009324007 -0.014512662 -0.032686286 -0.013039011 0.034440517 -0.04556077 0.025230197
-0.0041183955 -0.035944324 0.017416643 0.018264286 -0.012310401 0.041815598 -0.041813165 0.029045232
0.022340866 0.021876944 0.010734106 -0.020481864 -0.06686577 -0.009386178 0.0124165155 -0.031445175
0.026237564 -0.0011700637 -0.041248806 -0.016037136 0.010867613 0.018018898 -0.039660864 -0.035943747
0.0061100638 0.00276164 -0.0606822 -0.05614229 -0.05567508 -0.023722192 -0.001342999 -0.01698192
-0.018696632 -0.03494979 -0.043819897 0.031135505 -0.028790882 -0.04038967 -0.036273316 0.02681557
0.031468753 0.028688468 0.026981125 -0.040383726 -0.03731473 0.019527143 -0.015725695 -0.02108071
0.04220004 -0.022261133 -0.034075547 0.018410362 -0.011280835 -0.02544362 -0.012018971 0.010958686
0.026079746 -0.002799217 -0.0038539185 -0.014647123 0.0025689732 0.017102366 -0.0042231595 -0.04457259
-0.019229572 -0.024762962 -0.004558366 0.001529211 -0.037623405 0.020270113 -0.011511158 -0.0315244
-0.005587145 0.016858548 0.008519259 -0.056480765 0.025371177 -0.043070164 -0.031152112 -0.013136252
-0.0019041148 -0.019118337 0.02009395 0.0114954 0.014560288 -0.034206714 -0.05621941 0.035961244
-0.044078324 0.025849983 -0.055122096 0.011404884 -0.009037074 -0.03248351 -0.06630316 -0.004039113
-0.032480735 -0.035378873 -0.041665755 -0.019024499 0.024667488 -0.040402148 -0.03954213 -0.011505679
-0.027506826 -0.023920964 -0.0110822385 -6.028604e-07 -0.05576596 -0.0026798411 -0.039290503 -0.04982336
0.027627965 -0.0062804185 0.014606063 0.030659882 -0.062431656 -0.0028046314 0.027620487 -0.008218869
0.0023378967 0.038550816 0.028241737 -0.046356983 -0.006127112 -0.03442135 -0.0063936315 -0.0118755475
0.0026873914 -0.0010085789 -0.009446476 -0.042350225 -0.023447892 -0.016462728 -0.05865051 0.002561822
-0.0077408575 -0.01908055 0.00454281 -0.008775764 -0.018531546 -0.059480082 0.023142692 -0.008396388
0.034852173 -0.037461393 0.014996009 -0.024129966 0.039122693 -0.03236525 0.011397159 -0.0045347326
-0.003942691 -0.007546671 -0.043028418 -0.0174239 -0.04778273 -0.035900753 0.008936613 -0.03288721
-0.0027604091 -0.04919327 0.024834497 -0.034600183 0.020658987 0.0062894 -0.02887569 -0.008082799

seq.2.weight f4 [100, 265]
00000000: fa1a 823d 9817 163b b5e0 8cbd d734 2abc
00000010: 1a0a 13bc dfe7 153b d30f 49bd bd64 bfbd
00000020: 8f04 423c eb00 df3c b727 febc 67ba 82bd
00000030: 1d75 3e3d b8bf d93c a8bc 14bc 4ed9 a13c
00000040: 52b2 3dbd cde0 7f3c 6870 86bd 2271 a5bc
00000050: 17c6 58bc a7d6 0fbe 2cd8 4b3d 822a 27bd
00000060: 3f0a 513d 6034 653d b1d3 45bd 3658 95ba
00000070: dfce 5abc 25c9 173d c557 ebbc 2a9b 293d
00000080: 6bdb 053d d45d e0bc fbc5 4a3d f6ab cfbd
00000090: fd8b 02bc 8cd7 3abd d567 7d3d 878b e93b
000000a0: 9154 a7bc ffbc 80bd f2a1 03bd 4d62 2f3d
000000b0: 186e 15bd f3e7 423b aefb 21bd d1b4 2ebd
000000c0: ae51 8bbc d74d 2dbd e7ae cc3c eb6d 97bd
000000d0: 302d 8a3c d26c bbbd 2372 113d 81bb 76bd
000000e0: 54b4 71bd 0c5b 0cbe 1a08 d83c b01e 47bc
000000f0: a37f 65bd daab 2abe 374f 1fbd b6db 7abd
00000100: cf57 d0bd b9ed 62bd 3401 4fbd a5d2 75bc
00000110: b3a1 083c a260 fdbd 4cc5 93bd 4d88 36bd
00000120: 4109 563d c574 80bd 61b7 b2bc d353 0a3e
00000130: e93e 85bd aba6 1ebd e84e 80bd 3c4c 30bd
00000140: 9eba a5bc 982b c5bb b90f 893c 0338 27bd
00000150: 39f6 853c c53d 50bd e148 bebb 46d4 87bd
00000160: 11ac 963c 4e94 44bd ce4b 813b 7c8c 3dbd
00000170: b358 213d ddf6 f33c 2f68 993b 0a0f e2bc
00000180: ed4f 3fbd 7090 b93c 6814 cc3a 3e33 c5bc
00000190: cc93 29bc 6342 01bd ab78 a9bc 1283 06bd
000001a0: 3d40 823d 3d3a 58bc c3d8 ad3c 58b9 953b
000001b0: d5e7 0a3d d2f4 81bd 67fa be3c 0f59 12bd
000001c0: 536d 0a3d 2d69 25bd 2e49 dcbc 28db 343c
000001d0: 0965 bbba 9c8f 9cbc 0df5 9b3c 68ea 9ebb
000001e0: 3a8b 4fbb 74b0 23bc 76ac 59bd a30c ab3b
000001f0: db1e a13d 1fa6 403d 48ab bbba 5a0c b6bb
00000200: 9e7b 033c 02b4 163d ce2c d43d 99b4 823c
00000210: b3ce 02bd 9309 253c e496 10bc 0376 4e3d
00000220: 02d4 74bb ad1a f7bc b970 11be 3189 7bbd
00000230: c5aa 1c3d f8a6 81bd ff4b bcbc 6558 e9bc
00000240: 121c 77bc 5d0e 5abd 5e09 f4bc 720a 9f3c
00000250: 3d71 87bc c3d1 98bc 91af 83bc d840 9fbd
00000260: dc75 f8bc 0244 05be 1eae 1cbe 748f 14bb
00000270: c9d4 2a3d 5705 79bd b61c 29bd c955 933c
00000280: c045 62bd 374a 603d eb57 c4bd 7817 75bd
00000290: 5e2b 3fbb 7db0 4fbd 18c3 1dbd 2fe4 ddba
000002a0: 4205 5d3d 84d5 7ebd d119 9a3d 581a 8bbc
000002b0: 8f20 ffbc 85ce c23c e972 7dbc 7474 18bd
000002c0: 5de0 29be e169 20be 3352 34bd 5b2a 38bd
000002d0: 9f70 393d d832 bcbb 9ec8 2f3d c13d 28be
000002e0: 9486 233d 11d6 00be e74a 573d d4e0 00bd
000002f0: 5006 3ebd 8084 8aba c6bd 7cbb 7a0f 233d
00000300: 05f8 ebbc ab47 703d 7338 25bd e999 a1bc
00000310: a723 873c 1260 f63c 6058 613d 2302 e8bd
00000320: 5151 07bd 5e5d 09bd dfe3 dabc f866 a83d
00000330: ddc4 55bd 2e73 91bd 8348 eb3b 40be 26bd
00000340: 7742 4cbd 2732 023d 8549 c5bc f065 93bc
00000350: 762f c73a ee15 953c ecf3 333d 3cb3 47bd
00000360: 47f2 fcbc ff0b 17bd 5046 3dbd 0e9a ad3c
00000370: 43d3 e7bc fcd1 6dbd ce53 883c 742a 34be
00000380: 2389 b63d 913a 123c 02c7 973b 24cb 3abb
00000390: 0ddd 80bc f3e4 8a3b 4580 3cbd 7b5f b83c
000003a0: 3eaf 3fbd 5f6e cc3c 4da0 a63d 4a47 56bc
000003b0: d409 10bd c5ab 13be b65f babd a0b5 b2bb
000003c0: 5fa4 abbd 3973 f4bb 505b 85bd 746e 0ebd
000003d0: 1f0a 76bd bae3 00bd cb1c 08bd 18f0 faba
000003e0: b1a2 b0bc 4ba9 09bd 873a 873c a336 0fbd
000003f0: 12da 12bd dc7e 2fbd 817c 32bd ee60 19bd
0.063528016 0.0022902247 -0.06878797 -0.010388575 -0.008974576 0.0022873802 -0.049087357 -0.09345386
0.011841907 0.027222117 -0.031024797 -0.0638321 0.046498407 0.026580676 -0.009078182 0.01975694
-0.046312638 0.0156175615 -0.065644085 -0.020195547 -0.013230822 -0.14046727 0.049766704 -0.040812023
0.051035162 0.05595815 -0.048297588 -0.0011394087 -0.013354986 0.03705706 -0.028728375 0.04140774
0.032679956 -0.02738849 0.049505215 -0.10140221 -0.007967946 -0.045615718 0.0618666 0.0071272287
-0.020426067 -0.06286048 -0.032136865 0.042818356 -0.036481947 0.0029740303 -0.03954666 -0.04265291
-0.017006721 -0.042310562 0.024985744 -0.07394012 0.01686725 -0.09151615 0.03550924 -0.06023741
-0.059009865 -0.13706607 0.02637105 -0.012153313 -0.056029927 -0.16667119 -0.038893905 -0.06124469
-0.10172998 -0.05540249 -0.050538257 -0.015003835 0.008339333 -0.12371947 -0.07215366 -0.04456358
0.05225492 -0.06272272 -0.021815958 0.13508539 -0.0650614 -0.038733166 -0.0626505 -0.043041453
-0.020230588 -0.0060171597 0.01673113 -0.0408249 0.01635276 -0.050840158 -0.0058070277 -0.06632285
0.018392595 -0.047992997 0.003945804 -0.046276554 0.03939123 0.0297808 0.004681609 -0.027595062
-0.046707083 0.022651881 0.0015570046 -0.024072286 -0.010350179 -0.031557452 -0.020687422 -0.032839842
0.06359909 -0.013197479 0.021221524 0.004569214 0.0339125 -0.06345524 0.02331276 -0.035729464
0.033795666 -0.040383507 -0.026890364 0.011038579 -0.0014297079 -0.019111447 0.019037748 -0.0048497207
-0.003166868 -0.0099908 -0.053142987 0.0052200123 0.07867213 0.047033425 -0.0014318014 -0.0055556716
0.008025078 0.036792763 0.10360108 0.015955256 -0.031935405 0.010073083 -0.008825038 0.050405513
-0.0037357812 -0.030164087 -0.14203157 -0.061410133 0.038248796 -0.06330675 -0.022985457 -0.028484533
-0.015082376 -0.053236354 -0.029789623 0.01941416 -0.016533488 -0.01865471 -0.016074928 -0.0777604
-0.030329637 -0.13014224 -0.15300795 -0.0022668513 0.041706834 -0.060796108 -0.041287147 0.017985241
-0.0552423 0.054758277 -0.095870815 -0.059836835 -0.0029170136 -0.05070542 -0.038516134 -0.0016928966
0.053960092 -0.062215343 0.07524455 -0.016980335 -0.031143455 0.023780117 -0.015469291 -0.037220433
-0.16589494 -0.1566539 -0.044023704 -0.04496227 0.04527342 -0.0057433657 0.042915933 -0.16429807
0.039923266 -0.1258166 0.052561667 -0.031464413 -0.04639274 -0.0010568053 -0.0038565262 0.03980968
-0.028804788 0.058662098 -0.040337037 -0.01972671 0.016496493 0.030075107 0.05501592 -0.113285325
-0.033036534 -0.033536308 -0.026719986 0.08222765 -0.052189697 -0.07102047 0.007180275 -0.04070878
-0.049868073 0.03178611 -0.024082908 -0.017992944 0.001519664 0.018198933 0.043933794 -0.048754916
-0.030877246 -0.036876675 -0.046209633 0.021191623 -0.02829898 -0.058061585 0.016641524 -0.1759432
0.089128755 0.008925096 0.004631878 -0.002850243 -0.015730405 0.0042387187 -0.046020765 0.022506466
-0.046797983 0.024954973 0.08136044 -0.01307852 -0.035165623 -0.14420994 -0.09100287 -0.0054537803
-0.08380961 -0.0074600247 -0.06511557 -0.034773305 -0.060068246 -0.031467177 -0.033230584 -0.001914504
-0.021561952 -0.033608716 0.0165074 -0.034964215 -0.0358525 -0.042845592 -0.043575767 -0.037445955

seq.2.bias f4 [100]
00000000: a6f2 8abc 277a ffbc 44db 97bc 6e07 e43d
00000010: 059d edbc e3ed f73c 4b97 6abd 6466 af3c
00000020: 0155 363d 2725 ae3d 8aad 88bd 3d97 8f3c
00000030: 7912 7bbd 8f7f cfbb 8c49 20bd 3d4b 4fbd
00000040: 6282 eabc 0697 13bd 5b43 8a3d ccc0 e9bc
00000050: 101d c63c e059 b9bd 9370 0b3d 69d2 4dbc
00000060: c276 c1bd 276f edbc b92b 45bc 2f50 8bbd
00000070: 547f 1a3d 3e4a c1bd 0f8a 9ebc 6c1e d4bd
00000080: 2558 32bd a59e c2bd 5079 033e 2cc0 28bd
00000090: 0270 12bc f1e2 8ebd 7f5b b9bb c783 d0bd
000000a0: 3de2 ad3b 9f1b 5dbc 436e 5cbd d9fe 183c
000000b0: ffc0 2d3c 5de1 15bd 2e43 b9bd 09ce ca3c
000000c0: ad1d 66bd dbcb 8fbd 3908 50bc efdc 60bd
000000d0: 17d7 a2bd 5718 ebbc 73a2 713c 4bb3 81bb
000000e0: 1334 7c3c 0768 92bc db79 e9bb abfa 073d
000000f0: 2c5a 523d 8fcd 14bd 910e c73c f480 233c
00000100: 12c8 833b 290f 0c3d 3cd4 8cbd 9aab 9c3d
00000110: 3813 06bd 65fa 07bb e237 46bd 3030 28bd
00000120: e0a0 a43d c96a 51bc 1f46 5dbd f20a 11bc
00000130: 9045 0fbd 8758 84bd 0083 9fbd e844 35bc
00000140: 1ae6 b3bd 4670 58bb 2bf8 f23c a78b cb3c
00000150: b95a adbb 5a59 5dbd 9359 05bc 1441 98bd
00000160: 822b babd 3070 b1bd f892 d4bd 567c 89bd
00000170: 193b 9ebd 3c8c 613d bd5c 993c 5008 dcba
00000180: 9a68 193d 6d20 a9bd ea65 5a3b da83 d03c
-0.016961407 -0.031186176 -0.018537171 0.111342296 -0.029005537 0.0302648 -0.05727319 0.021411128
0.04451466 0.0850318 -0.06673725 0.01752817 -0.061296914 -0.006332345 -0.03913264 -0.050608862
-0.028626624 -0.0360327 0.06751128 -0.028534316 0.02418378 -0.090503454 0.034042906 -0.012562373
-0.094464794 -0.028983666 -0.01203435 -0.06802403 0.037719086 -0.09437989 -0.01935294 -0.10357365
-0.043541092 -0.09502915 0.12839246 -0.041198894 -0.008937838 -0.069768794 -0.005656659 -0.101813845
0.0053065107 -0.013495355 -0.05381609 0.009338104 0.010605096 -0.036591876 -0.09046017 0.024756448
-0.056180645 -0.07021304 -0.012697273 -0.0548982 -0.079511814 -0.02869813 0.014748204 -0.003958141
0.015393275 -0.01787187 -0.007125122 0.03319804 0.051355526 -0.03632885 0.024298938 0.009979475
0.004021653 0.034194145 -0.06876418 0.07649918 -0.032733172 -0.0020748612 -0.048393138 -0.04106158
0.08038497 -0.012781807 -0.05402195 -0.008852707 -0.03497845 -0.06462198 -0.07788658 -0.011063792
-0.08784123 -0.0033025905 0.029659351 0.024846865 -0.005290356 -0.05404029 -0.008139032 -0.07434288
-0.0909033 -0.08663976 -0.103795946 -0.06713168 -0.07726116 0.05506538 0.018720979 -0.0016787145
0.03745327 -0.08258138 0.0033324906 0.025453497

seq.4.weight f4 [100, 100]
00000000: fc43 a3bc cffb cbbc bb50 0b3d 93ef 31be
00000010: 4d0a 373d 8f18 483d 1284 7dbd bc59 99bd
00000020: 0a75 a63d 84ec 3eba 99c2 c4bd 2fc8 1b3d
00000030: aaaa bbbc 4e5c 01bd bda5 dc3d 7ab7 033d
00000040: cbbd c23d 6ca9 143a 0fed cbbc 64c2 8ebd
00000050: f2c5 89bd bb16 b7bd 972a 103d 3a52 063d
00000060: 4ce7 f63c 9ada 2a3e bf32 d43d 0dc2 e43c
00000070: 03c6 ac3d 4466 99bd 84b6 02bd 4cfd 8cbd
00000080: efb3 c03c 8725 dfbc 6647 783b bdce 8c3d
00000090: e715 863d 1152 a9bc d47f df3d 78a7 063d
000000a0: f696 0b3e df3e ae3c 68e6 803d 35bd d03d
000000b0: 75e3 963d 100d 20bd ba64 0abd 116d dcbc
000000c0: 144e 89bc d52b e5bd 449d 1d3c 3cfd 1fbe
000000d0: 4c5c e8bd 0253 2dba dab9 d3bc 3cd8 81bd
000000e0: 195d c33d bd1a ef3d fdfb c03d 7f93 30bd
000000f0: dd40 aebd 8cc8 723d 850c 74bc 591c e6bc
00000100: 7c71 60bd e51a 5cbc c067 d7bb 2655 c2bc
00000110: 1d1a 0b3d c76e 1d3c d091 7ebd 5e14 273e
00000120: d9a7 72bd 01e4 e9bc 250f aabc 8a9b 67bc
00000130: 4bca e2bd d6e3 5e3d d11a 8a3c d43a 813d
00000140: f05e 523d e263 d03d 9c21 163d 5853 90bd
00000150: 2f2d 7e3d 2d9f f13d 593b 10bd 5eb6 84bd
00000160: 324a 643d b2d1 6a3d b6a5 10bd 1824 603d
00000170: e088 afbd 867f 213e 9cf9 853d 66cb e03d
00000180: a48c 40bd 8742 68bd 306c d33d f695 cc3d
00000190: 5a17 d33d 8092 713d 5d18 5c3d b527 333d
000001a0: 62f8 b73d 1017 65bd ba0f bc3d b5b9 193e
000001b0: 6620 bfbb b366 72bc 718d b5bd 441a 093d
000001c0: 0b90 f1bc 7151 e23d 0d74 9a3d db13 b83d
000001d0: a36b 4b3d 85ec bfba e48c 7bbc c996 6a3c
000001e0: e237 913d 6616 373d 5a64 00be e576 543d
000001f0: 61c7 94bd 8dbf 093c f848 efbc 24b7 3dbd
00000200: f16b a53b d80d 42bd 7e55 bb3b f99b 76b9
00000210: 5544 903d 1a5d 4abd f9bf 21be f85c 85bd
00000220: 6384 85bd 0096 93bd a401 c7bd 7312 7cbc
00000230: e8b4 df3d 60bd 8f3d 4d6c 9d3d 6016 c6b6
00000240: a834 d6bd 1b9e a2bc ab6f c23c 9bba cebd
00000250: 589d 24bd 5347 e7bd c6d4 613d 8159 2aba
00000260: 2513 e23c cd29 a7bc 33c0 22bd 6bb4 81bd
00000270: b384 993c 8605 57bd 4512 8b3d 2d76 553d
00000280: 4ce7 15be 9e08 d5bc 163c ddbd 2499 1b3d
00000290: 1f72 d6bc 8f0b 32be 08a7 6abd 643c 2c3d
000002a0: 9517 233d fa7b 913d fee0 ad3d 1538 7b3d
000002b0: 0e43 46bd dcb6 10bd 3e22 903d 6a34 febb
000002c0: c89e 193c 9674 593d f736 58ba c1bd 963b
000002d0: 0773 b03d 5fa0 c4bb 5feb a6bd 5940 373c
000002e0: c761 883d 8b34 dfbd bd6b 933d 2ceb 7a3d
000002f0: a431 debc b0eb cebc 84a2 96bd c81d 14be
00000300: 439d 923d aed2 cabd 5dec a2bc 1642 31bd
00000310: 718d 95bd 5f97 f2bd 5d4d e03d 42fe 5cbd
00000320: d649 d8bd 8ff3 d03c e8e4 d43d d0e9 c5ba
00000330: 831a b03d d621 823d 4ea8 853d b14c fc3d
00000340: a891 90bb a81c 37bd 1a36 483d b84d 33bb
00000350: 48fc 6d3d 1798 35bb 5d0b 3d3d e113 1a3d
00000360: 90a0 dbbc 15bd ca3d 141d a6bd 4b7b b9bc
00000370: 4352 1abd 1589 c4bd a021 aabb 9398 d43c
00000380: 32c8 af3d d7c4 9fbd 1550 fb3c 33a6 a33d
00000390: af73 313d c7a4 b43b 6fa9 cdbd 55c4 a63d
000003a0: d781 26bd 5a96 5abd 89a5 b83d e058 41be
000003b0: b3e9 56bd 6944 313d c91b cebc 8470 0fbb
000003c0: 966f 9a3c 1a7b 3e3b e3c6 3a3d 76d3 97bd
000003d0: cf85 45bc 0d10 03bd 8166 bdbc fc04 7b3d
000003e0: a1da 933d 07bf c0bb 5ebf f83d a1e6 92bd
000003f0: cc69 173b 8e01 5fbd f150 9a3c 9054 b43c
-0.019929878 -0.024900345 0.034012537 -0.17376547 0.044687558 0.048851546 -0.06189353 -0.074878186
0.08127792 -0.00072831684 -0.09607429 0.038032707 -0.022908527 -0.03158217 0.107737996 0.0321574
0.095088564 0.0005670998 -0.024893312 -0.06970671 -0.06727208 -0.08939882 0.035196867 0.03279326
0.030139588 0.16684952 0.103612415 0.027924562 0.08436205 -0.07490209 -0.03191234 -0.0688425
0.023523299 -0.027239574 0.0037884354 0.0687537 0.06547146 -0.020669015 0.10913053 0.032874554
0.13631806 0.021270214 0.062939465 0.101923384 0.07367603 -0.039074957 -0.033787467 -0.026907476
-0.016760863 -0.11190001 0.009620015 -0.15623945 -0.11345729 -0.00066117954 -0.025845457 -0.063400716
0.09539241 0.11675022 0.09423063 -0.043109413 -0.085084654 0.059273288 -0.014895563 -0.02808969
-0.054795727 -0.0134341465 -0.0065736473 -0.023722243 0.03396045 0.009608931 -0.062150776 0.16316363
-0.059242103 -0.028551104 -0.020759175 -0.0141362045 -0.110737406 0.0544165 0.01685849 0.06310049
0.05136007 0.10175301 0.036653146 -0.070471466 0.06205481 0.117979385 -0.03521285 -0.06480096
0.05573482 0.057328887 -0.035314284 0.05472192 -0.08571029 0.15771303 0.0654175 0.10976295
-0.047009125 -0.05670407 0.103233695 0.0998954 0.10307188 0.058977604 0.053734172 0.04373904
0.08982922 -0.055930197 0.09182687 0.15012248 -0.0058327196 -0.014794993 -0.088648684 0.033472314
-0.02948763 0.1105069 0.07541666 0.08988162 0.049663197 -0.0014642632 -0.015353415 0.014318177
0.07090737 0.044699095 -0.12538281 0.0518712 -0.07264591 0.008407486 -0.029209599 -0.046317235
0.005048268 -0.047376484 0.0057169786 -0.00023518493 0.07044283 -0.049405195 -0.15795888 -0.06511873
-0.065193914 -0.072063446 -0.0971711 -0.015385258 0.10923177 0.07018542 0.07686672 -5.9034646e-06
-0.10459262 -0.019850781 0.023734888 -0.10094186 -0.040189117 -0.11292901 0.055134557 -0.00064983225
0.02759702 -0.020405674 -0.039734077 -0.0633324 0.018740034 -0.052495502 0.06790594 0.052114654
-0.14639014 -0.026005086 -0.10802476 0.037987843 -0.026177464 -0.17387222 -0.0572882 0.04204978
0.03981741 0.07103725 0.084901795 0.06133278 -0.048403792 -0.03533064 0.07037781 -0.007757713
0.009376235 0.0530897 -0.00082479365 0.004600257 0.0861569 -0.006000563 -0.08150362 0.011184775
0.066592745 -0.10898694 0.07198284 0.061259434 -0.02712328 -0.025258869 -0.07355216 -0.14464486
0.071589015 -0.09903465 -0.019888097 -0.043275915 -0.073023684 -0.11845278 0.10952256 -0.053953417
-0.10560958 0.025506763 0.10395223 -0.0015099589 0.08598807 0.0635411 0.06526242 0.12319315
-0.004411895 -0.044705063 0.04887972 -0.0027359556 0.058101922 -0.002770906 0.046153415 0.037616614
-0.02680996 0.09899346 -0.08111015 -0.022641798 -0.037676107 -0.09596459 -0.0051919967 0.02595166
0.08583106 -0.07801216 0.030677835 0.07990684 0.043323215 0.005512807 -0.100420825 0.08142916
-0.04065117 -0.053366043 0.09015948 -0.1888156 -0.052468967 0.04327813 -0.025159733 -0.0021887133
0.018852036 0.0029065073 0.04559983 -0.0741338 -0.012055828 -0.03199773 -0.023120167 0.06128405
0.072194345 -0.0058821472 0.121458754 -0.07172895 0.0023103831 -0.054444842 0.018837424 0.022012979

seq.4.bias f4 [100]
00000000: 0e73 6d3d eb78 e33d 247a 35bd ea2a 233e
00000010: 7f66 9f3d c903 9b3b 0fe6 adbd 8855 073e
00000020: 7f9d 33bd 5b5d 92ba 1682 c9bc 1228 97bd
00000030: e618 d03d e87e 0e3b cadd 163b 5533 d13d
00000040: 7776 94bd b8b2 8f3d 0366 bcbd 3abd 6ebc
00000050: bba7 a43d 6e89 c93d 2a9b 313e fbff a6bc
00000060: c679 eb3d b182 003c 16d7 03bd 119f 853c
00000070: c951 393d 54d4 bf3d 4a7f 653d 8ed5 f8bc
00000080: c957 f6bd 8f68 063d 30c1 cc3d 3da8 263d
00000090: 3362 ddbd e7a8 0bbe 7a3f 863d c47d aa3d
000000a0: 825e ecbd cb2c 323d 1915 b7bc 9093 b83d
000000b0: 5c0b 163d 4c58 c33d ff5e 91bd d825 373d
000000c0: bb5e 5d3d 6170 693d 42bd 79bc a95f 51bd
000000d0: 3e43 1fbc c1c8 bebd 123b bc3c c764 98bc
000000e0: ef1c 3abe 9ff9 773c 7e09 a6bc e135 d83d
000000f0: f4d0 8bbd b1c1 273b 4146 f73d 9cc2 d8ba
00000100: d688 7bbd d464 d1bd 7fb2 25be e1a0 c53c
00000110: 2c2a 71bd 703e fbbd 0c05 22bc e705 a63c
00000120: 759e 03be d074 c03c 37b7 8f3d 356c 143d
00000130: c311 823d 6aed cdbd 2c7f ddbd bc34 2d3d
00000140: f72a e63c 7cf8 3b3c a370 c6bd cc76 6abd
00000150: e424 023d f9a9 16bd 585f d63c 0746 8cbc
00000160: f3fb dabd 4055 8c3d ed50 9fbd d4b1 9cbd
00000170: 7a61 1c3e a822 f13c c88c bd3c c074 06be
00000180: 8fc3 a2bd 3e44 4dbd 8d9e 4abd 1a61 ba3c
0.057971053 0.11107048 -0.044305936 0.15934339 0.077832215 0.004730676 -0.08491146 0.13216221
-0.04385137 -0.0011166738 -0.024598163 -0.0738069 0.10160999 0.0021743122 0.002302038 0.10214869
-0.07249158 0.0701651 -0.09199145 -0.014571482 0.080398045 0.09840666 0.17344347 -0.020385733
0.11497836 0.007843659 -0.032187544 0.0163112 0.045244012 0.0936667 0.056029595 -0.030375268
-0.120284624 0.03281456 0.09997785 0.04068779 -0.10809746 -0.1363865 0.06555076 0.08324769
-0.115414634 0.04349975 -0.022348927 0.0901252 0.036631927 0.09538326 -0.07098197 0.044713825
0.05404542 0.05699194 -0.0152428765 -0.05111662 -0.009720622 -0.093156345 0.022977386 -0.018602742
-0.181751 0.015135198 -0.020268198 0.105571516 -0.06826964 0.0025597627 0.12073947 -0.001653749
-0.061409794 -0.102243096 -0.16181372 0.024124565 -0.05887811 -0.122677684 -0.009888899 0.020266486
-0.12853415 0.0234932 0.07017367 0.036236007 0.06351044 -0.10055049 -0.10815272 0.04228662
0.02809666 0.0114728175 -0.096894525 -0.0572422 0.031773463 -0.036783192 0.02616851 -0.017123235
-0.10692587 0.06852198 -0.07779107 -0.076511055 0.1527156 0.02943547 0.023138419 -0.13130474
-0.07947456 -0.05011391 -0.049467612 0.02275138

seq.6.weight f4 [50, 100]
00000000: 6d02 db3c 4cfe 20bd 3e66 033e 68d2 f83b
00000010: 9703 9f3d 12e5 83bd ff2e e5bc ecd7 cf3a
00000020: b5b6 dfbc 14b1 35bd 3204 633c 3d29 413d
00000030: 5eb7 dd3d fc18 ae3c c222 07bb 8a90 8f3d
00000040: 3e79 083c c16e 9f3d 22c9 abbd 83e3 c7bc
00000050: 8dde 17be 3522 76bd 6a6a df3d 92d8 b83b
00000060: fb4d 093e b66f a63d 8959 963d f373 6b3d
00000070: d51e 783d 98cb 41bc e2d3 d53d c99b af3d
00000080: ba52 433d f71d 213d dc57 11be 56ba 94bd
00000090: 9cd5 c93d 42c1 c83d 8107 013d a316 91bd
000000a0: 6ac6 40bb 874d 4cbd 2b8a 03bd b018 98bd
000000b0: 6e57 923d a167 933c 27aa 9c3d 762c d2bd
000000c0: a562 233d b189 3dbd 6ee9 d63d e6f2 73bd
000000d0: e9d8 dd3c 7a43 38bc 345f a43d 0e35 15bc
000000e0: 31ba 5f3c fa95 f83c a3ea baba fda8 24bd
000000f0: ab0a 063e 83bf 03be a0e9 7abc 5f20 9fbd
00000100: e525 ae3c e09d 8cb9 987a babd 2bbc 093c
00000110: 5fd8 d9bc c59f 53bd 589b 8c3d 22dc 0d3d
00000120: 823f 593d 2957 79bd efa9 d0bd b8eb 51bd
00000130: 4af5 75bd 5ffc bfbc 28f6 60bd 976a 7d3d
00000140: e70b d5bc 1736 4bbd 8f0b da3d 2abb 363d
00000150: f071 833d f387 683d 2628 d43d e172 cdbc
00000160: e8fc c03d e283 b2bd 74f6 9b3c 27e4 8d3d
00000170: 8e02 103d 3797 a7bb f0a0 5c3d 0175 813d
00000180: 4d76 acbd 06d2 9b3d 17a4 e2bd 6ac6 8a3c
00000190: ae17 a23d 2d61 c43c 1a38 7a3d b2a7 8bbc
000001a0: f6d6 9ebd 9e9e e63d 00fb 39bd 0b1a 1abd
000001b0: 06a8 75bd b05d 303e 99e7 eebd bc7e b1bc
000001c0: f486 a3bb fa5e cb3d 9a7e a13c c8ee be3d
000001d0: c631 4fbb 4079 8cbc 830a 7cbd c714 b13d
000001e0: 053c 613c 7d74 5cbd 5f38 c63d 1a36 c73d
000001f0: d737 763d 39d8 493d 4de8 98bd 089c cb3d
00000200: c10b ccbb ced6 7cbd c7af fa3d 628d 13be
00000210: fd47 8fbd 8563 ab3d 66dc 343d cfd0 63bd
00000220: 0dde 753c 38a3 353d 4876 71bd 1eec 883d
00000230: 37fa af3d 4035 a0bd 1364 1cbd 7fbf d03d
00000240: 6073 e83d e18c b2bb 8a98 353b 5b9b 773d
00000250: 5542 4f3e 421b d2bd b3ac 89bd 71d0 bd3d
00000260: 03b9 153e 9c51 f73d e5ff 083e 1087 7bbd
00000270: d74e bfbc 8db9 ce3d fd41 88bd ccce f63d
00000280: 81bb 083d f317 49bd e905 c0bd 8b83 89bd
00000290: 33ce bd3b 234b 23bd a6e0 383d 9c75 ef3d
000002a0: f681 bd3b 8d68 e83d 5f3b 823d edbe b63d
000002b0: 6130 95bd dab2 073d 03cc a53d 7a38 ed3d
000002c0: f10b b0bd d97a a23c 35d4 563c a0ec 903d
000002d0: c745 ca3c 9f65 85bd 4bc7 b83b c654 173d
000002e0: 150a 9f3d 45cd b53c 68d0 983d 90be f63d
000002f0: 758e d23c aaca b0bd 6dfe 363d fb9e d03d
00000300: 7a04 f6bc 6388 443d 857c ca3c adbf 043c
00000310: 4373 853d 44f6 dd3d b22b e83d 5fc2 1f3e
00000320: d261 ab3d fd7b 8b3d a711 2fbd c795 d23d
00000330: ee0e 4e3c 7aff b73d 0e4d f7bd d31c 1a3d
00000340: 593a bd3d 8a7c 9d3d 8f1a 4ebd 6a9d 4fbd
00000350: 643d 943d d8d9 bdbd 94c6 7d3d e112 343e
00000360: 18e4 d83b 9787 a63d a3ef 77bd a282 2c3d
00000370: 3fe6 e53c bfce 5fbd f4c6 28b9 9e50 cfbc
00000380: 59c3 64bd 7358 0f3d b978 04be 329a 16be
00000390: 1025 7f3d 41cc 523d 8315 5ebd 6c98 9fbd
000003a0: a763 95bd e8b4 043e 5463 22bd 6914 93bd
000003b0: 8f43 963d ba74 3cbd 2279 09bd 7048 a73d
000003c0: b934 bcbd 0291 b6bc 2880 003c f903 8d3c
000003d0: 8dec 9f3c ce10 c33c d878 1abd 465e 92bb
000003e0: f375 6d3d f1b9 e73d 722f d5bd 361b 5e3d
000003f0: 0f8a a5bc 4514 60bc 5313 27bd bad3 783c
0.026734555 -0.039305016 0.12831971 0.0075934418 0.077643566 -0.06440176 -0.027976511 0.0015857196
-0.027308801 -0.044358328 0.013855981 0.04715847 0.1082599 0.021252148 -0.0020620083 0.070099905
0.008329688 0.077847965 -0.083879724 -0.024400478 -0.1483099 -0.060091216 0.10908969 0.0056410516
0.13408653 0.08126776 0.07341296 0.057483625 0.06057628 -0.011828326 0.10440804 0.085746355
0.047686316 0.039335217 -0.14193672 -0.07262103 0.09855196 0.09802486 0.031501297 -0.07084396
-0.002941514 -0.049878623 -0.03211419 -0.07426584 0.07145582 0.01799375 0.076496415 -0.102623865
0.039888997 -0.04627389 0.10493742 -0.059557818 0.02708097 -0.011246556 0.08025971 -0.0091068875
0.013655231 0.030344952 -0.0014260601 -0.040200222 0.13090007 -0.12866025 -0.01531449 -0.07769846
0.021258304 -0.00026820507 -0.09105414 0.008406679 -0.026592432 -0.05166604 0.06865567 0.034633763
0.05303908 -0.060874138 -0.10188662 -0.05125019 -0.06004838 -0.02343577 -0.054922253 0.06186923
-0.026006652 -0.04961213 0.10646736 0.044612087 0.06418216 0.056770276 0.1035922 -0.025079193
0.09423238 -0.08716561 0.019038416 0.06928282 0.035158686 -0.0051144618 0.05386442 0.06321145
-0.084210016 0.07608418 -0.11066454 0.016940314 0.07914673 0.023972118 0.06108866 -0.017047737
-0.07755844 0.112607226 -0.045405388 -0.037622493 -0.059974693 0.17223239 -0.116652675 -0.021666877
-0.004990453 0.09930225 0.019713689 0.09322888 -0.003161536 -0.01714766 -0.061533462 0.08646541
0.01374722 -0.05382203 0.09678721 0.09727116 0.060111847 0.04927847 -0.07466183 0.0994187
-0.006226987 -0.06172829 0.12240558 -0.14409402 -0.069961525 0.08368591 0.0441555 -0.055619057
0.015006554 0.04434511 -0.058950692 0.06685661 0.085926466 -0.07822657 -0.038181376 0.10192775
0.11350131 -0.005448923 0.0027709329 0.060450893 0.20240147 -0.10259105 -0.06722393 0.09268273
0.14621358 0.12076113 0.13378866 -0.061408103 -0.023353023 0.10093985 -0.06653211 0.12051162
0.033381943 -0.049095105 -0.09376127 -0.06714543 0.005792403 -0.039866578 0.045136116 0.11692354
0.005783315 0.113480665 0.063589804 0.08923135 -0.07284618 0.03312955 0.08095553 0.11583038
-0.08596028 0.019833969 0.013112118 0.07076383 0.024691476 -0.06513523 0.005638992 0.03694608
0.07765595 0.022192607 0.07461625 0.12048066 0.025702694 -0.08632405 0.044676233 0.10186573
-0.030031431 0.04798163 0.024717579 0.00810234 0.06516125 0.10837987 0.11336459 0.1560149
0.08368267 0.06810758 -0.042741444 0.10282474 0.012576802 0.08984275 -0.12075244 0.037625145
0.092396446 0.076897696 -0.050318297 -0.05068723 0.07238272 -0.09270066 0.061956957 0.17585327
0.006618988 0.081313305 -0.06053127 0.04211677 0.028063891 -0.054640528 -0.00016095844 -0.025306996
-0.05585036 0.03499646 -0.12936677 -0.14707258 0.062291205 0.051464323 -0.054219734 -0.07792744
-0.07294398 0.12959635 -0.039645508 -0.07181627 0.073371045 -0.046009757 -0.033562787 0.08168113
-0.091897435 -0.022285942 0.007843055 0.017213808 0.019521976 0.023811724 -0.0377129 -0.0044668047
0.057973813 0.113147624 -0.1040944 0.05422517 -0.020207433 -0.013676708 -0.040789913 0.015187198

seq.6.bias f4 [50]
00000000: 4d8b 563d f065 b33d 1fed 393e 1997 df3d
00000010: af59 e3bd 246d 51bd e412 f93d 43b8 d9bd
00000020: 8847 cebd 0b80 53bd c378 1c3e e272 2a3c
00000030: 6bbd 84bb 85fc 9d3d e057 983c c741 aa3d
00000040: f112 b8bc 434b 873d 65b4 ff3d 1fa8 cf3d
00000050: 2a77 513d 1c27 0c3e 3790 123d f000 573c
00000060: cdc5 4d3d b9a7 fe3d fa5c 15bc b539 d43c
00000070: 9225 9bbd e66c 5bbd 89de ca3c aa95 a23d
00000080: 545e 73bd 340f a63d df1b 35bd 368f afbd
00000090: e970 f13c 06f2 783d fc23 b1bd 700a 823d
000000a0: 7a93 493e 85c9 123d 7e96 04bd 1f54 a13b
000000b0: 8544 0b3e 78c9 063e 7b5e 233d 0734 a53d
000000c0: 221d 6d3d 8a4f 0e3c
0.05237894 0.087596774 0.18156861 0.109174915 -0.1110109 -0.051129475 0.12161806 -0.10630848
-0.10072237 -0.051635783 0.15280442 0.010403367 -0.0040509007 0.0771418 0.01859659 0.08313327
-0.02246997 0.06606152 0.124855794 0.101394884 0.051139034 0.13686794 0.035782065 0.013122782
0.050237466 0.12434334 -0.009116406 0.025906423 -0.07575525 -0.05357065 0.024764316 0.079387024
-0.05941613 0.081083685 -0.044216033 -0.08572237 0.029472785 0.060777687 -0.086494416 0.06349647
0.19685164 0.035836715 -0.032370083 0.004923358 0.13600357 0.13162792 0.039885025 0.08066564
0.05788911 0.008685956

adv_1.0.weight f4 [20, 50]
00000000: d016 26be ccae 693d f2ba 643c dfa8 483d
00000010: e6c0 a3bd 6890 a9bd e042 68be 264d 99bd
00000020: edab 3f3e d3d0 1e3c fac1 a43d 01ac 19be
00000030: 05cf 713d 3ccf 6d3b f786 7fbd 92dc 7d3d
00000040: 9184 a33d 3bcb a1bc c60a 1dbe 5abc 41be
00000050: c8a1 38bd 7bb7 eb3d 947d 98bc 367e 3bbe
00000060: 19ff 463e 2413 783d f28a 67bd 38c8 fb3d
00000070: 3edc 39bd 12dc fc3d 96ab 653d 2922 79bd
00000080: 09fd 583d c1b9 1c3e a1bb 123d eb4f b93d
00000090: 0857 323d 9d67 01be dc0a fa3b ccc7 7b3d
000000a0: 0bf1 7b3d b6c2 283e c566 f83d 7fc2 20bd
000000b0: e6cc edbd c98f d6bd 701d c2bd 71fb 26be
000000c0: ef6b a03d fb46 813c d361 bc3d fb9a 09be
000000d0: ed71 c9bc 097e 87be 3c06 8f3d a298 903d
000000e0: 42e7 323e 1e99 113d 454a 753d 9bee edbc
000000f0: e90b 913d fa16 c9bc d773 c13d 8278 d53b
00000100: 5648 0bbd 6a2a 003e 9931 9c38 398b 56be
00000110: ffe9 7cbd f5e4 893e 595c 9dbd 5708 a439
00000120: 950d 4ebd 27d3 253d 4a1c 80be 5fd6 5bbe
00000130: 474b 91bd 052c 45be 418e 093e 109b ac3d
00000140: 2875 8cbe 3bba d3bd 8011 d03d b9ee 4bbe
00000150: 3d36 9f3d d5aa b9bd f843 6ebd 9b08 373e
00000160: 9897 a9bd 83cf 003e d040 8c3d bb40 83bc
00000170: d730 a03c db70 e93d e561 613e c98f 13be
00000180: cc95 cabc 5247 f13d b59c 5fbd eb96 3d3d
00000190: 6c3e 053e 51a8 21bd 98e5 993d 8513 433d
000001a0: 0fbd 8dbd 3eae 4d3c be66 7b3e b62a b83d
000001b0: afd8 f03d 0413 babd 9cf4 e73d 7d33 273c
000001c0: 6b1a de3c d53c 55be 65fe 96bd 1fb4 ea3b
000001d0: caf5 643d 04b6 093e e677 823c 23c8 23be
000001e0: 474b 29bd 143d d43d 82e6 1ebe 2cee 14bd
000001f0: 99cd 80bc e62d 8e3d 022c 023e ca07 c9bd
00000200: 78e3 febc 1168 fabd 778e 39bc a7b6 a1be
00000210: 47b1 c5bc 82e0 873d 1803 c23d f4c4 e03d
00000220: 4e28 0b3d 1011 7abe 6272 83bd 374c ffbd
00000230: 5732 d13d ee2f 3dbe 3f4a d2bc 1310 b63d
00000240: 4391 743d a720 1c3d a234 94bd f097 a73c
00000250: 51f3 f5bd a376 a33c 4747 f9bc 861f a83c
00000260: 56d8 423d 0d7b b13c 4656 5bbd 8e63 54bd
00000270: 95ef c8bd 063e cbbd 7ab9 0abe ec31 883d
00000280: 3add 82bc 4e54 7cbd ea6a e73c 39f8 953c
00000290: 4e18 d0bc 04b2 18be e1ad 253d 0057 f0bd
000002a0: 3b13 3c3d af58 1a3d b06d 713d 959a 17bd
000002b0: 980b 7ebd 1fcc e93d f1d8 79bd db9c efbb
000002c0: e019 4ebd a0f6 133e 62b9 eb3d 2dba 2fbd
000002d0: 2ae4 633d abf7 1f3e 8bea e63d 2a98 6fbd
000002e0: 2363 8e3d d7ad 48bd d663 6fbd 3eda 89bc
000002f0: bdef 893d bc83 0e3e 5caa b1bd 2993 efbd
00000300: 60f9 ac3d 75b6 3fbc ee9a 243e 93cb e8bd
00000310: bc0d 023d 119e 92bd 572f 8fbd 6919 e3bd
00000320: 0568 a93d 174e cabc 7cce e03d da59 f2bd
00000330: 407a 183e 9de7 9d38 11d3 00be b4e5 0039
00000340: 0b99 d4bd 99e8 11be 8788 b93d 5009 c53d
00000350: 8166 7ebd 55c3 063e ff34 20be 5f35 2d3d
00000360: 5d6a 3c3d 96a8 5bbe 469f bfbd 5e61 1f3e
00000370: 0bcf 11be c9ea 18bd 50fb 093e efd0 bb3d
00000380: 4ba1 d4bd d21f 4e3c b79d 2d3d 05e1 2e3e
00000390: 7ce3 d4bc b5ad 99bd c3bf f6bd 4db1 c1bc
000003a0: b6a5 bc3d d73c 433b 9e9c 56be d40e 013d
000003b0: c1b2 88bd e8d9 a7bc a465 17be 32a6 153e
000003c0: 8698 b3bc 1b09 ed3d d587 f63c 431c 323e
000003d0: b686 6aba bdce bcbd 2f44 d5bd db86 013e
000003e0: ef14 0b3e 649d 31bd 6f5b 113c 9871 2bbe
000003f0: 1764 dd3d 74d0 113e 6371 c4bd 1f39 6c3c
-0.1621964 0.057051465 0.013960587 0.048989173 -0.07995777 -0.082794964 -0.22681761 -0.07485418
0.18717928 0.009693342 0.080448106 -0.1500702 0.05903532 0.0036286851 -0.062384572 0.06197793
0.079842694 -0.019750228 -0.15336141 -0.18919507 -0.04507616 0.115096055 -0.018614568 -0.18309864
0.1943325 0.06056513 -0.056528993 0.12294048 -0.045376055 0.123466626 0.05607184 -0.060823593
0.052975688 0.15305234 0.035823468 0.09048446 0.04354003 -0.12637182 0.007630689 0.061469838
0.061509173 0.16480526 0.12128977 -0.039247986 -0.11611347 -0.104766436 -0.09478271 -0.16306855
0.07833087 0.015780916 0.09198346 -0.13438027 -0.024590457 -0.26463345 0.06983611 0.070603624
0.1747103 0.035546415 0.059885282 -0.02904444 0.0708235 -0.024547089 0.09445923 0.00651461
-0.03400453 0.1251618 7.447898e-05 -0.20951547 -0.061746594 0.26932493 -0.076836295 0.0003128673
-0.05030592 0.040484574 -0.25021583 -0.21468495 -0.07094436 -0.19255073 0.13433172 0.08428013
-0.27433133 -0.10338255 0.10159588 -0.19915284 0.07774017 -0.09065787 -0.05817029 0.17874376
-0.08280867 0.1257916 0.068482995 -0.016022077 0.019554539 0.113984786 0.2201 -0.14410318
-0.024729632 0.117811814 -0.054592807 0.046286505 0.13012093 -0.03946716 0.07514495 0.047626037
-0.06920826 0.01255375 0.24550912 0.089925215 0.11760079 -0.09085658 0.113259524 0.010205147
0.027112206 -0.20823987 -0.07372741 0.0071625854 0.055898465 0.1344834 0.015926313 -0.15994315
-0.041331556 0.10363212 -0.15517619 -0.03635995 -0.015723037 0.06942348 0.127121 -0.09815939
-0.031114325 -0.1222688 -0.01132547 -0.31584665 -0.024132384 0.06634618 0.09473246 0.10975066
0.033973984 -0.24420571 -0.06418301 -0.12465709 0.1021468 -0.18475315 -0.025670169 0.08889785
0.059708845 0.038117077 -0.072366014 0.020458192 -0.120092995 0.019954031 -0.030429495 0.020522844
0.047569595 0.02166512 -0.053549074 -0.051852755 -0.09811322 -0.099239394 -0.13547316 0.06650147
-0.01597463 -0.061603837 0.028249223 0.018306838 -0.025402214 -0.14911658 0.040449027 -0.11735344
0.045916777 0.03768223 0.058942497 -0.037012655 -0.062022775 0.11415886 -0.060997907 -0.0073124
-0.050317645 0.14449549 0.11509968 -0.04290216 0.055637516 0.15621822 0.11275204 -0.058494724
0.069525026 -0.04899391 -0.05844482 -0.016827699 0.067351796 0.1391744 -0.086750716 -0.116979904
0.08446002 -0.011701216 0.16074726 -0.11366954 0.03175138 -0.07159055 -0.06991451 -0.11088831
0.08271793 -0.02469544 0.10976884 -0.11833544 0.14890385 7.529485e-05 -0.12580515 0.00012292602
-0.10380753 -0.14248885 0.09059244 0.09620917 -0.062109474 0.13160451 -0.15645216 0.042287227
0.045999873 -0.21451029 -0.09356551 0.15564486 -0.14239137 -0.037333284 0.13474774 0.0917071
-0.10382327 0.012580829 0.042386737 0.17078026 -0.02598738 -0.07503835 -0.120482944 -0.023644114
0.09211294 0.0029790902 -0.20958182 0.03150828 -0.066747196 -0.020489648 -0.14784867 0.1461418
-0.021923315 0.11574002 0.030094067 0.17393593 -0.0008946465 -0.0921912 -0.104133956 0.126491
0.13582204 -0.04336299 0.008871897 -0.16742551 0.10810106 0.14239675 -0.09591939 0.014417916

adv_1.0.bias f4 [20]
00000000: 49e0 e5bd 99f2 593e 6c0f 143e dddf c8bc
00000010: fa53 6a3c 5cf5 823c 353c 0ebd f98e 483e
00000020: 656b 3d3e 0a1e 913e 2095 d6bd bb85 193c
00000030: dd17 c33d c0f0 263e 75c8 d3bd bf2e 293e
00000040: b548 523e 9d7f 3a3e 0fff f3bd cfa1 eb3d
-0.112244196 0.2128395 0.14459008 -0.024520809 0.014302248 0.015986137 -0.034725387 0.1958579
0.18497999 0.2834323 -0.10477662 0.009370263 0.09526036 0.16302776 -0.103409685 0.16521738
0.20535548 0.18212743 -0.11913883 0.11505472
