submission/checkpoint_Dueling_PER.pth (torch, 721973 bytes, 15 tensors)

seq.0.weight f4 [265, 510]
00000000: 3138 233e dcce d43b fc17 72bc ec7a 05bd
00000010: df36 88bd 8b0b 57bd afe4 3fbd 63a3 15bd
00000020: 50c4 80bb dbfb 8cbc d471 3cbd 1d43 3cbd
00000030: 7cb9 b7bc ce3d f0bc dbd7 80bd aea9 7abd
00000040: 0ddb 9a3a e04f 4d3c f3eb f5bc 3abb 40bd
00000050: 1050 bbbd 302c 84bc 9d85 dd3b 68b9 073d
00000060: d653 4bbd 24c7 21bd 9064 d83b 2011 bebd
00000070: 115d e4bc d4cb 1fbd 5527 02be 8b16 2cbd
00000080: 1685 92bb 1afc a6bc 070b 91bd 7f5c 43bd
00000090: 96f9 90bd 5aa8 2dbd 60dd a13c 44a4 a93a
000000a0: 6b82 f0bd 12d5 c8bd 95d3 033d 0f59 29bd
000000b0: 18f4 86bd 299c 59bd 80d5 ccbc a1b7 22bd
000000c0: 7be0 a0bc b7eb c0bc 6b32 ddbd d4c1 40bb
000000d0: e0b4 0cbe c004 c43b cf14 1abb 616a c9bd
000000e0: be7f 1ebd 0574 46be 606a fbbc c015 16bd
000000f0: e66d a53d dd13 143b 91ba 39be 6c2d 5b3c
00000100: 6a56 97bc 1e10 5fbd 30f4 e2bb 7069 3d3d
00000110: 500a e13c d9c7 013c b86e a1bd d6a1 05bd
00000120: d00d a9ba fa46 163d 5d10 cc3b c859 41bd
00000130: 19b0 3e3c 4f84 4dbd f87a 853b 67c6 4ebd
00000140: 8b45 9e3d 35db 53bb 6c8c 6abb f2ec 34bd
00000150: d979 0fbd 95e1 d1bd 8fdd 403b f942 e3bb
00000160: 367f 8b3c b6ca 54bd 9e34 853d 6838 e7bc
00000170: c2ca 1dbd aea2 873c c993 8ebd 8c5f aebd
00000180: d1ca 1a3d 9a20 6d3d a67c 0dbd 1e8e 8ebd
00000190: 5460 e33c 8e69 bcbc 348c a2bd a498 36bc
000001a0: ba5d 7cbd 81bb 9bbd 4b87 cbbb 9f3d b9bc
000001b0: f0e5 1fbb 35b3 08bd 1ee9 3b3d 70e4 17bd
000001c0: fac0 8dbd c292 243d f589 01bc 90e2 04be
000001d0: 951f 9b3c f882 c33c 80b3 d33b 9541 dfbc
000001e0: 7d6e 23be 9aab 66bd 60de b2bd f8a5 ab3c
000001f0: 0f25 46bd fcee 02be 0093 5f3c 11b9 45bc
00000200: 78cd 7dbc db6b 9cbd ea31 27be 5ca3 6dbd
00000210: 85ca 9abd 90ed 14bb 1405 673c 2812 92bd
00000220: e175 e2bb 03b5 523b acd3 123c b78c 27bc
00000230: 3848 53bd dfb3 51bd 6269 96bc 50e0 51bb
00000240: f5fc 5ebd c478 ecbd 2635 c1bc 312b 2aba
00000250: 714d b4bc c9d9 8fbd 8945 cbba bdb3 03be
00000260: a2fd 72bd e0ee c63c 8d34 8b3b 52cc c2bd
00000270: 421a d2bc 1faf e9bc 9460 19bc 2f82 67bd
00000280: 5d83 f6bc c093 f0bd cf60 d4bd ea9a 1cbd
00000290: a3c5 bebc 6848 323c c4d6 5fbd 3675 0a3d
000002a0: 443f 23bd f387 28bd e69f 89bc 7687 92bd
000002b0: fd95 8fbc da5e 833c 5600 68bd 1305 263d
000002c0: ed28 26bd 975e a8bb 4809 113d 661b 94bd
000002d0: 9315 31be 013e a7bd 3999 83bc a884 4a3c
000002e0: 13f7 323b 4ccf a43b db6e 64bd 2314 0fbc
000002f0: 8677 15bd 9475 6fbb f0a2 d73b 836e 83bd
00000300: 460d 99bd a06d 013b bd2a 77bd f51b 40bd
00000310: d126 8ebd 0dfd b23c 8e2a d8bc 0a55 febc
00000320: db46 20be b80b afbc ed91 94bd e607 f9bc
00000330: 9992 61bd fe57 a3bd 4a0f 4dbd d26f 943d
00000340: 202c 833c c21a d0bc 39f9 1ebe 4ac7 a4bc
00000350: 60d9 e5bc c0a9 25bc 7b34 f1bc 5bcb 343e
00000360: 0deb 9dbd 2e35 2abe 4875 123d f4a9 8abd
00000370: 3520 10be 301e 0c3d b283 1cbe 0054 a43a
00000380: c1c6 83bd 9e12 c53d f77c 9abd ad46 ccbd
00000390: 6a6a 73bc 49b1 efbc 7242 d3bd 9d78 ecbb
000003a0: b1cf 1abe 9074 223d a026 423a d617 8fbe
000003b0: b591 d7bc eb1e 35bd debd 99bc 700f 95bb
000003c0: 92a4 a9bd 4754 cd3b 74ce d1bc 00aa 9438
000003d0: 7da5 b8bb e876 70be 1cac 85bc ab01 7ebb
000003e0: 80fc 1f3a 9a2f a6bc 17a9 a8bd ad2f ee3d
000003f0: 2bee f23c 9c13 54bc bdae 64bd 079e 343e
0.15939404 0.006494386 -0.014776226 -0.03258793 -0.06651091 -0.052501243 -0.04684895 -0.03653277
-0.0039296523 -0.017209938 -0.046006992 -0.04596244 -0.022427313 -0.029326346 -0.06291171 -0.061196975
0.001181455 0.012531251 -0.030019736 -0.047053553 -0.0914613 -0.016134351 0.0067603127 0.0331358
-0.0496405 -0.039496556 0.006603785 -0.0928061 -0.027876409 -0.039012745 -0.12710316 -0.042013686
-0.0044714315 -0.020383883 -0.070821814 -0.047695633 -0.07078855 -0.04239688 0.01975888 0.0012942632
-0.11743625 -0.09806265 0.032184202 -0.0413447 -0.06589526 -0.05312744 -0.025004148 -0.039725903
-0.01963829 -0.023549898 -0.10800632 -0.0029412406 -0.13740873 0.0059820116 -0.0023510938 -0.09834743
-0.038696043 -0.19380195 -0.030690372 -0.036641836 0.08077602 0.0022594847 -0.18137576 0.013377529
-0.018473823 -0.05445873 -0.006926082 0.04624313 0.027470738 0.007921183 -0.07882446 -0.032625042
-0.0012897793 0.036688782 0.0062275366 -0.047204763 0.011638665 -0.050175007 0.004073497 -0.05048218
0.07728108 -0.0032326702 -0.0035789264 -0.04417128 -0.035028312 -0.102481045 0.0029428934 -0.006935474
0.017028432 -0.051951133 0.065041766 -0.028225139 -0.038523443 0.016557064 -0.069617815 -0.08514318
0.037791077 0.05789242 -0.034542702 -0.069607005 0.027755894 -0.022999551 -0.07936898 -0.011144791
-0.061612822 -0.07604123 -0.0062111965 -0.022612391 -0.0024398528 -0.03337403 0.045876615 -0.03708309
-0.06921573 0.04017902 -0.007906427 -0.12977052 0.018935958 0.023866162 0.006460607 -0.027252952
-0.15960117 -0.056315996 -0.08733821 0.020953164 -0.048375186 -0.12786478 0.013645887 -0.012068049
-0.015490882 -0.07637759 -0.16327634 -0.05801712 -0.07558159 -0.0022724606 0.014100332 -0.07132369
-0.006911025 0.0032151348 0.008961599 -0.01022642 -0.051582545 -0.05119693 -0.018360797 -0.003202457
-0.054440457 -0.11546472 -0.023584913 -0.00064914214 -0.022009583 -0.07023961 -0.0015508394 -0.12861533
-0.059323914 0.024283826 0.004248208 -0.09511627 -0.025647286 -0.028525887 -0.009361405 -0.056520637
-0.030091936 -0.11746931 -0.10370027 -0.038233675 -0.0232876 0.010881521 -0.054648176 0.033803187
-0.039855257 -0.041145276 -0.016799878 -0.071547434 -0.017527575 0.01603644 -0.056640945 0.040532183
-0.040566374 -0.005138229 0.035409242 -0.07231788 -0.17293386 -0.08166123 -0.016064273 0.012360729
0.0027307912 0.0050295945 -0.055769783 -0.008732828 -0.03649094 -0.0036538588 0.006580703 -0.06417563
-0.07473235 0.001974918 -0.060343493 -0.046901662 -0.069409974 0.02184918 -0.02638748 -0.03104641
-0.15652029 -0.021367893 -0.07254396 -0.030399274 -0.055071447 -0.079757676 -0.05006341 0.072478905
0.016012251 -0.025403384 -0.15524758 -0.02011456 -0.028057754 -0.010111272 -0.02944397 0.17655699
-0.07710848 -0.16621849 0.03575638 -0.06770697 -0.14074786 0.034208477 -0.15284613 0.0012537241
-0.06434394 0.096226916 -0.075433664 -0.09974418 -0.014856914 -0.02925934 -0.10315408 -0.0072165267
-0.1511829 0.039661944 0.0007406268 -0.27947873 -0.026314596 -0.04421894 -0.018767294 -0.0045489594
-0.082833424 0.00626615 -0.02561114 7.088855e-05 -0.005634962 -0.23482859 -0.01631742 -0.0038758318
0.0006102994 -0.02028637 -0.08235376 0.11630187 0.029654583 -0.012944128 -0.055830706 0.17638408

seq.0.bias f4 [265]
00000000: f564 02ba 6806 57bb 9d3d 54bd 384a 60bd
00000010: 0c14 72bd f036 8ebd 68af a53c bf29 36bd
00000020: d6ce 54bd 43d3 74bd 45f6 a8bc efac 57bd
00000030: 18f8 4ebd 12a4 30bb f8ad 5ebc c2aa 2fbd
00000040: 62b3 a6bd db28 bdbc 80d2 97bc 9721 3d3c
00000050: af14 d1bc dfcd 0abd 2ab2 85bc 8be9 1cbd
00000060: 42f0 2dbd 22e5 69bd 9a8a 1abd 8fc4 26bd
00000070: 07c1 0bbd 72ce 99bd d486 5bbc ea21 3bbd
00000080: b1fc 123b ba92 3dbd 4677 dc3c 877b 4dbc
00000090: c994 a9ba 2612 0f3d ec1c 95bd 8999 9cbd
000000a0: 7f95 c9bc bd17 4d3d 21cb 68bc bdc9 3bbd
000000b0: aa36 45bd 34b4 9b3a 313a f6bb bb0a 58bd
000000c0: 4612 b6ba 2f7b 44bd 1cfe 55bd af17 45b9
000000d0: fc2b 1fbd ea3f 69bc 2610 cfbc 7cf1 24bd
000000e0: e0bf 203c 798c 0dbd 922d 87bd 56dc 2bbd
000000f0: 6841 0abd 7c46 dcbc ce22 50bd 797d bdbd
00000100: 14f8 bd3c 99eb 7cbd 6c6b 05bd 51de 303c
00000110: b7cf 04bd c25b f1bc e4bf 9c3b c9db 5bbd
00000120: f5d0 22bd ea87 36bd 83ef 213c f91f babc
00000130: 16ac dfbc 1b9b 50bd c453 7f3b 792e a2bd
00000140: 7c9e fabc da21 1fbc 7681 e0bc 1d39 783b
00000150: a90b 9fbb 2809 e2bb 664b 16bd e174 6e3c
00000160: 4f4b ffbb 7eb4 83bd fe6a 9638 cdfc 2cbb
00000170: ebdc 82bc 0e4f e33a 1c39 12bd e3b6 6f3c
00000180: f75a 853c 5e73 3a3d e481 173b 6b59 49bd
00000190: b0ce f6bc 4248 063c 50e5 943c 9f68 50bd
000001a0: 3b4b 153d 05f8 483c 66bc 77bd 4e63 a2bc
000001b0: 38c1 523c dbac f0bb a09a 13bd 7aec 33bd
000001c0: b716 1cbc 5fb0 2dba 0aa8 a4bd ca2f 43bd
000001d0: afaf 05bd 44b4 cdbc 5b92 813b 59a3 b8bc
000001e0: d59a 5ebd 5b89 60bd 61e1 c5bd 0ded 953c
000001f0: c3c4 4ebd 5607 debc 3780 5cbd f95c 3dbd
00000200: 7876 853c ad6f 20bc 5e46 03bd 4797 02bd
00000210: e754 a4bd 30f0 be3b 84a8 2f3c 569b 12bd
00000220: 35bc ed3c 6f74 46bd 5965 61bd 74cf 7c3c
00000230: a151 5a3c b294 5fbd b370 fdbb 412f 203c
00000240: ff9a 9dbb 7a9b 8fbc 7863 3ebb 874f 64bd
00000250: 8a09 8e3d b2ce 013c eff4 28bc b1df 54bd
00000260: f314 34bd 4b67 42bc 6a12 91bc bb5a b5bb
00000270: 92eb 67bd 43f9 76bc 6e51 a5bb 0800 c3bc
00000280: 131a d6bc b956 263d 452b 1cbb fd40 b3bd
00000290: 2624 2abc bc56 82bd 2cc2 43bd f784 1abd
000002a0: 3eb9 e3bc 0a21 7d3c afc8 123c 071c a3bc
000002b0: 2c2b 413c 9ca7 fbbc 9980 74bd 5f6a 053a
000002c0: 876f 8dbd 63c6 993c f5d0 97bd 80c9 973c
000002d0: 4ef1 06bb a786 72bd f70f 26bd da00 a43c
000002e0: 4870 25bd 9d47 98bd 9c6f b2bd e1e9 09bd
000002f0: 28ed bfb8 a80d 5ebd 4abb 6bbd 0d84 133c
00000300: 7265 bbbc a54b c6bc 071a 5cbc 61d0 eb3b
00000310: 4bea 98bd fa61 273c 5b71 25bd 7e39 6cbd
00000320: 661e 313d ac00 e3bc 7233 923b 42b3 283c
00000330: 9f47 8dbd 28cb e5bc 922c cc3a debc 5fbd
00000340: 52be 58bb e3eb ad3c 715c 2c3d 4a7d 4abd
00000350: 2e78 27bd 869f 17bd 0279 dabb c298 bbbc
00000360: ce74 1e3c c99a 42bc bb51 05bd 3134 b0bd
00000370: 242e 13bd 797d 1abd 052c 46bd c9d8 103d
00000380: f403 943c f050 6fbd 23dd 57bd 408f ee3b
00000390: 515b ccbc 2e37 9bbd 384f 75bb 4442 54bd
000003a0: 8782 673d bd1a 3ebd 7d15 e2bb f8b1 49bd
000003b0: c2e6 053d 647e 45bd ba71 933c e1e7 42bc
000003c0: 707f 1bbd 0bcf 023c 4fe2 7fbd 948c f53b
000003d0: c5b4 95bd e11f 36bd 7179 c6bb 7238 c4bc
000003e0: df4f ebbc 697e 6fbd f209 39bc 9d5e 4ebd
000003f0: e76c 703c 4c4a f6bb cbd1 91bc 464d 6bbd
-0.000497415 -0.0032810215 -0.05181657 -0.05475828 -0.05910115 -0.06944072 0.020225242 -0.044473406
-0.051955067 -0.059771787 -0.020625243 -0.052655157 -0.05052957 -0.0026953262 -0.013591282 -0.042887457
-0.08139683 -0.02309077 -0.018532991 0.011543653 -0.025522558 -0.03388774 -0.016320307 -0.03830866
-0.042465456 -0.057103284 -0.037729837 -0.040714797 -0.034119632 -0.075100794 -0.013398845 -0.04568664
0.0022428448 -0.046282507 0.026912343 -0.012541658 -0.0012938018 0.034929417 -0.07280907 -0.07646472
-0.024607418 0.050071467 -0.014208586 -0.04584669 -0.048147835 0.0011879266 -0.007514261 -0.05274461
-0.0013890944 -0.04796904 -0.05224429 -0.00018796207 -0.038860306 -0.01423643 -0.025276255 -0.04026936
0.009811372 -0.034557793 -0.06600489 -0.041958176 -0.033753783 -0.026889078 -0.050814442 -0.09252448
0.023189582 -0.06174812 -0.03257315 0.010795192 -0.032424655 -0.029462699 0.0047836173 -0.0536764
-0.03975006 -0.04456321 0.009883764 -0.022720324 -0.027303737 -0.05092917 0.003895984 -0.0791902
-0.03059315 -0.009712661 -0.027405482 0.003787584 -0.004853685 -0.006898064 -0.036693 0.014554233
-0.00779096 -0.064309105 7.172486e-05 -0.0026395798 -0.015974483 0.0017342286 -0.035698995 0.014631006
0.016278727 0.04552018 0.0023118192 -0.04915754 -0.030127853 0.008195939 0.018175751 -0.050881024
0.0364487 0.012266164 -0.060482405 -0.019822743 0.01286345 -0.0073448247 -0.036036134 -0.043926693
-0.0095269 -0.00066257076 -0.080398634 -0.047652997 -0.032638248 -0.025110371 0.0039542145 -0.022538828
-0.054346878 -0.054818492 -0.09662128 0.018301511 -0.050480615 -0.027103107 -0.053833213 -0.046231244
0.016291842 -0.009792251 -0.03204953 -0.03188255 -0.08024006 0.0058269724 0.01072133 -0.03579267
0.029020408 -0.048450883 -0.055028293 0.01543032 0.013325126 -0.054585166 -0.007734382 0.009776891
-0.0048097367 -0.017530192 -0.0029050987 -0.055739906 0.06935413 0.007922815 -0.010312303 -0.05197114
-0.04396529 -0.011865447 -0.017708976 -0.0055344976 -0.05662114 -0.015074077 -0.0050451076 -0.023803726
-0.02613548 0.04061005 -0.0023829502 -0.0875263 -0.010384595 -0.063641995 -0.0477926 -0.03772446
-0.027798291 0.015449772 0.0089589795 -0.019910825 0.011790078 -0.03071957 -0.059692953 0.0005089398
-0.06906038 0.018771356 -0.07412902 0.0185287 -0.0020590606 -0.059210446 -0.04054257 0.020019937
-0.040390283 -0.07435534 -0.08712694 -0.03367031 -9.1517635e-05 -0.054212242 -0.05755166 0.009003651
-0.022875521 -0.024205992 -0.01343394 0.0071964716 -0.07466563 0.0102162305 -0.040391307 -0.057672016
0.04324188 -0.027710281 0.004461699 0.010296645 -0.06898426 -0.028050974 0.0015577248 -0.054623477
-0.0033072424 0.021230644 0.042080346 -0.04943589 -0.040886097 -0.037017368 -0.0066672573 -0.022899989
0.009671403 -0.011877724 -0.032548647 -0.08603705 -0.035932675 -0.037717316 -0.048381824 0.035362992
0.018068291 -0.058426797 -0.052701127 0.0072802603 -0.024945887 -0.07578884 -0.0037431251 -0.05182101
0.056520965 -0.04641222 -0.0068995343 -0.04924199 0.03269077 -0.04821624 0.017998565 -0.011896105
-0.03796333 0.007983933 -0.062471684 0.007493565 -0.0730987 -0.044463996 -0.0060569574 -0.023952696
-0.028724609 -0.058470163 -0.011293875 -0.0503832 0.014674402 -0.007516181 -0.017800232 -0.05744674

seq.2.weight f4 [100, 265]
00000000: 9650 253c 31b3 b2bc ef58 623c 5f0f 993c
00000010: 56b9 013d 024e 76bc cf86 40bd 0568 3dbd
00000020: 9147 193e afce ed3b eb07 21bd afaa 0abe
00000030: 8bba 553c 7f66 263d 389e e9bc b561 1f3e
00000040: 1d3a cabc b8d3 163d 83d0 95bc 7cfe f33c
00000050: be64 aa3b bea8 2e3d e053 3a3d 04e3 5dbc
00000060: 9d09 2abe 79a5 773d 04f9 31bd 13cb 293c
00000070: f497 b4bb aa70 393c f3bc a5bd 348e 4b3d
00000080: 4018 313d 6377 01bd bba7 663d 9f34 9cbd
00000090: 662e 4b3d 7b18 cdbd edb2 8c3d f4fa 15bc
000000a0: 1421 463d 94bb c93d da1b aebd a6fc 243e
000000b0: f5f7 b1bd 937f 3a3d 6f94 9a3d 88cc 3cbd
000000c0: 6e4f 03bd c0a5 23bb 9547 b23c 78b9 3a3d
000000d0: c1a8 913c 29b2 20be b19b 513d 5697 d43c
000000e0: 429d c03c fd6b 6d3a 76fb 1c3c c594 c1bc
000000f0: ef9b 4dbd 1e61 91bc e1d8 17bd 3f9b 19be
00000100: 3e32 41be aa0a c63d 3662 56bc 6108 b1bc
00000110: e0dc 30bc 93da 4abd b36b 1fbe bae7 3e3c
00000120: 4446 783d 2a8c bdbc 65c9 25be 87d9 b13d
00000130: 0b46 dabd 34bc 193d bc52 aabd 5074 6e3d
00000140: 9b2e 89bc d2ac 01be 8823 92bc e014 643c
00000150: 21cb 4b3d e611 2bbe d779 79bd e8e4 8abd
00000160: b942 633c 21b9 e6bd 4514 c83d 7c6f e9bc
00000170: ca06 4e3d 72a4 1a3d c97b 633e 6cc8 ffbc
00000180: dac2 17bd bbc7 103d e810 ac3b 5cc2 a9bd
00000190: 92db 123d 4352 863d 67d2 99bd 808a 583d
000001a0: 6e61 043d 236d b03d 0403 833d 58b9 953b
000001b0: c8a1 443d 5ec4 733d 74a8 b13c f03e fcbc
000001c0: e286 bbbc dc88 db3c 5138 b5bb c9de a4bd
000001d0: 31bc e8bd 7e49 613d 71b8 a73c 9ea4 58bc
000001e0: d803 dc3b 6b6c 213d cb5c 9abb 719e 2fbc
000001f0: a186 5c3b 6a6b 0c3e d659 b53c e304 aebd
00000200: aa19 2c3c fba7 da3c a6dc 423d 26dc c3bc
00000210: 35bb 863c 8270 68bd 1e0f b53d 995e 643d
00000220: 7df3 c2ba d142 01bd c633 03be f2d4 35bd
00000230: 8ed5 89bc dcd2 65bd d33a 8bbc e790 81bc
00000240: 2b3d 95bb edae 1f3d a77b e7bc f616 30be
00000250: fa54 273e 9bf7 933c 0567 473d 4bd7 44bd
00000260: f5fc 38bd 0354 3ebc 800b aabb 7010 9a3c
00000270: 060d 503d 3d9c 14bd 70e2 11be d549 433e
00000280: 3fb2 fabb c8cf 9b3b c74e f33d eb4c c6bd
00000290: 4feb 9fbd 3d39 003e d6b0 423b 64fc a3bd
000002a0: 5997 a13d e0db da3b 938c 0a3d 5225 bd3d
000002b0: c51b 88bd cedb 103d e760 603e ca00 cabd
000002c0: 7687 62be 0bc5 5bbd 5d3f 723d f022 73be
000002d0: 7174 3a3d d00d 0fbc 78b2 963e ebac 38be
000002e0: 276d 573d dfd2 a6bc 9e4e 2b3e 3751 5b3c
000002f0: f785 bebb b265 3f3c acfc 2d3d 769d 57bd
00000300: ee96 a9bc 4a30 8c3d 27c7 8ebd 58cd 383d
00000310: e00c 123d 822d 8e3d 9ce7 053e 5bf3 07be
00000320: c14d 11be 62cf 91bd ab8e 8abc d1cc 083e
00000330: 367a 5bbe c325 97bc fb0a 173d dd9b 49be
00000340: 7f3e 5c3c fda7 383d 9028 74be 1df8 643d
00000350: 884e 0d3c b9c7 483e e4d4 fd3c 9247 343b
00000360: 2035 a0bd c362 28bd d117 41bd b804 ca3b
00000370: 05bf 20be cdb6 81bd 70e9 0a3c 3e8a a7be
00000380: 5fd8 833d 165e e4bb 8160 2dbc e283 323d
00000390: dd9a 53bd 254d 1ebd 5d4b e53d 4d23 b23c
000003a0: de96 a93d 086d 843d 00a0 413c 1a20 31bb
000003b0: 2932 0fbe 0603 86bd a578 5cbe d4c7 1bbb
000003c0: 0dce 60bd 7ae5 09be 79f6 6ebd 3512 45bd
000003d0: c67b 1ebd 3226 fbbb 28ea 213c 52eb ea3d
000003e0: 1f76 bbbc 8aae 27bd e700 6b3d dc22 2a3c
000003f0: 3c28 7e3d 06cd 843d 23e8 463c 81e2 e1bd
0.010090014 -0.02181396 0.013815149 0.018684087 0.03167089 -0.015033247 -0.047003563 -0.04624178
0.14968707 0.0072573046 -0.03931419 -0.13541673 0.013044964 0.04062509 -0.028517827 0.15564616
-0.024685914 0.036823004 -0.018287903 0.029784434 0.0051999977 0.042641394 0.045490146 -0.013542894
-0.1660523 0.06046054 -0.04345037 0.010363358 -0.0055112783 0.011318365 -0.0809268 0.049696162
0.043236017 -0.031607997 0.056312304 -0.07627224 0.049604796 -0.10014435 0.06870065 -0.00915407
0.04837139 0.09850231 -0.08501406 0.16112003 -0.08689872 0.04553182 0.07547843 -0.046093494
-0.032058172 -0.002497062 0.021762649 0.045587033 0.017780663 -0.15692963 0.05117387 0.025951069
0.023512486 0.0009056924 0.009581437 -0.02363051 -0.050197538 -0.017746504 -0.037072066 -0.15000628
-0.18866822 0.09670003 -0.013084939 -0.02161044 -0.010794848 -0.049524855 -0.15568428 0.011651928
0.060613886 -0.023138124 -0.16190107 0.08684068 -0.10657891 0.037533 -0.083165616 0.058216393
-0.016745856 -0.12663582 -0.017839208 0.013920993 0.049754266 -0.16706046 -0.06090721 -0.06781942
0.013870888 -0.11265779 0.09769491 -0.028495543 0.050299443 0.037754484 0.22215189 -0.031223498
-0.03705106 0.035346728 0.005251039 -0.08289024 0.03585393 0.06558659 -0.07510834 0.05286646
0.03231948 0.08614566 0.063970596 0.004569214 0.04800585 0.059513442 0.02168677 -0.03079173
-0.022891466 0.026798658 -0.005530395 -0.080503054 -0.1136402 0.05500173 0.02047369 -0.013222842
0.0067143254 0.039410036 -0.004710769 -0.010718928 0.003364958 0.1371285 0.022137564 -0.08497026
0.010504166 0.026691427 0.047573708 -0.023908686 0.01644669 -0.05674792 0.08840774 0.055754278
-0.001487359 -0.03155786 -0.12812719 -0.044392534 -0.016825464 -0.056109294 -0.016995823 -0.015816165
-0.004554411 0.03898518 -0.028257204 -0.17196259 0.1634101 0.018062403 0.04868223 -0.048056882
-0.045163114 -0.01161671 -0.005189359 0.018806666 0.05079367 -0.036281813 -0.14246535 0.19071133
-0.007650643 0.004754994 0.1188026 -0.0968264 -0.078085534 0.12521835 0.0029707453 -0.08007124
0.078901954 0.006679043 0.03382547 0.09235634 -0.066459216 0.035365872 0.21911965 -0.09863432
-0.22121987 -0.05365471 0.05914246 -0.23743796 0.045521203 -0.0087313205 0.29433036 -0.18034713
0.05259433 -0.020364223 0.16729209 0.013386062 -0.0058143097 0.011681961 0.042477295 -0.0526404
-0.020701852 0.06845148 -0.06971579 0.045117706 0.03565681 0.06942274 0.13076633 -0.13276426
-0.14189817 -0.07119633 -0.016913733 0.13359381 -0.21433339 -0.018450623 0.036875706 -0.19688363
0.013442635 0.04508208 -0.23843598 0.05590068 0.00862468 0.19607438 0.030985303 0.002750848
-0.07822633 -0.04110981 -0.047141854 0.0061651133 -0.15697868 -0.063336946 0.008478507 -0.32722658
0.06437754 -0.0069692237 -0.01058209 0.043582805 -0.05166136 -0.03864779 0.11196015 0.021745348
0.08280729 0.064661086 0.011817932 -0.002702719 -0.13983978 -0.065435454 -0.21530397 -0.002377023
-0.054884005 -0.13466445 -0.058340523 -0.048113067 -0.03869226 -0.0076644653 0.009882487 0.11470665
-0.022883473 -0.040937938 0.057373907 0.010384288 0.06205009 0.064844176 0.012140307 -0.1102953

seq.2.bias f4 [100]
00000000: abab c4bd 0362 34bc cd1a a93d b5ba 673e
00000010: d5a1 e2bd 18b9 1d3e 690e 27be 1f33 babd
00000020: af77 4e3e f87b d2bd 53c4 e4bc 9673 3a3d
00000030: 6ac9 90bc 015b 9b3d 2d10 fdbd d121 84be
00000040: ca72 d1bc 2c5b 01be 5cf0 5dbd 8f7f 1cbe
00000050: 82d0 fbbd 8112 d5bd 7206 49ba 5677 c1bd
00000060: 12df c9bd dbc0 0d3e 0cd6 3ebd 5303 f9bd
00000070: 5ef6 9bbd d130 78bd 86b2 50be 1aef 30bd
00000080: 189b 02be 1eee 32be 6dc0 043e 105c 45bd
00000090: 66b6 05be 14d1 c0bd 2ee1 f1bd 85f0 c2bd
000000a0: 0af1 bbbd 9e25 b6bd 9466 4bbe d1ad edbd
000000b0: a868 b8bd 7566 31be b9b3 64be 88ce 63bc
000000c0: b3fd c6bd 2e53 a13c 8222 8e3d 94fe eb3d
000000d0: db18 efbd cac2 423e a3b7 f63d 1e7a cb3d
000000e0: 0e4d 10be 6efa dabd e6b8 bfbd 093b e4bd
000000f0: ab86 133e 4d85 b8bd e14d 9dbd 7218 573d
00000100: acfb f43d a9f8 de3c 2400 99bd 6aa8 06be
00000110: 2ab6 8abb 9f0e 43bc dbbc d8bd 7c88 8c3d
00000120: 6976 82bd 9ae9 44bc 0e71 ddbd 811a 803c
00000130: 8340 94bb ad1c 77bd f6d8 c3bd 4d6a be3d
00000140: c34b c63d 7bc6 0fbd 55bc 02be 728a 0e3e
00000150: 201e a3bd 7ec3 073d 45f4 143c 9763 2d3d
00000160: fd72 c0bd 3bfe 4f3c 2e29 abbd 55a0 20be
00000170: cb06 40be b595 8dbc eb8a 91bd 9c69 45bd
00000180: cf68 a53d 984e 09be 7231 66bd a91e 17bd
-0.096030556 -0.011009696 0.08257065 0.22629817 -0.11066023 0.15402639 -0.16314091 -0.09091782
0.20162843 -0.102775514 -0.027925646 0.045520388 -0.017674167 0.07585717 -0.12356601 -0.2580705
-0.025567431 -0.12632436 -0.054184303 -0.15283035 -0.12295629 -0.1040392 -0.0007668502 -0.0944659
-0.098570004 0.138431 -0.04659085 -0.12158837 -0.0761535 -0.06059343 -0.20380601 -0.043196775
-0.12754476 -0.17473647 0.1296403 -0.0481835 -0.1305786 -0.094148785 -0.11810528 -0.09518532
-0.09176834 -0.08893894 -0.19863349 -0.116054185 -0.090043366 -0.1732424 -0.22334184 -0.013904221
-0.09716358 0.019692983 0.069401756 0.11523166 -0.11674663 0.19019619 0.12046745 0.099354014
-0.14091894 -0.10692297 -0.093614385 -0.111440726 0.1440684 -0.090098 -0.0768087 0.052513547
0.11962065 0.02721818 -0.0747073 -0.13150182 -0.0042331414 -0.011905341 -0.10582896 0.0686197
-0.06370241 -0.012018586 -0.10812579 0.015637638 -0.004524292 -0.06033008 -0.095628664 0.09297619
0.09682419 -0.035101395 -0.12767155 0.1392 -0.0796473 0.03314542 0.0090914415 0.042331304
-0.09396932 0.012694891 -0.08357464 -0.15686162 -0.18752591 -0.0172833 -0.071065746 -0.04819642
0.08076631 -0.13408887 -0.0561995 -0.036894474

seq.4.weight f4 [100, 100]
00000000: c98e 98bd ce6f 7cbe 96c9 8e3e fd79 923c
00000010: e718 663e e0da 7fbe 4a74 8f3b 5f34 973d
00000020: 6de8 0a3c 76d4 073e ed57 a4bd 5f3a 7dbe
00000030: 9064 b2bd 1d55 223d 37c0 473e 457f d8bb
00000040: 9619 8a3d 6d64 1c3e dec2 8d3d 817e 4cbe
00000050: 3b55 963d 745b 353e d700 e33d a700 0bbc
00000060: 12be de3d 854d da3d 6c88 523d 44ce 8fbe
00000070: 3ade 42bd d18d ff3d af89 13bd e52a e9bd
00000080: dd11 82be 1c79 c0bb 7332 cb3c 45ac 87be
00000090: 2e36 ecbd 7f90 96be 1f5c e93d 88f5 c6bc
000000a0: acb1 ad3d 43e5 bc3d 8e70 643e f28d 593d
000000b0: af02 0d3e 359b 9dbe 1698 8b3d 5334 27be
000000c0: d1e7 cb3d 6cb5 3abd 113b a9be ce08 2fbe
000000d0: 1ff7 af3e c557 7e3d 11fd babc 1c3e 81be
000000e0: fe80 363e 51d3 1a3e 809c 0c3e 7653 1fbe
000000f0: 8070 2cbe 9048 783c b6ec 0cbe f6b6 3e3e
00000100: 3533 11be fd1c 5dbd 51c3 53be 88c7 df3c
00000110: 87f6 9e3d a760 d83d c71f 0ebe 3786 cf3c
00000120: 5352 b3be 0570 0a3e df1d 7abd 9060 46bd
00000130: 4cf2 86bd a552 983e 7a4e e5bd b96c 97bd
00000140: 1431 563e 7d68 8fbe 99b1 33be 616a 07bc
00000150: f775 30be 61f6 773e 407b 643d 1c3e 9abc
00000160: 3994 be3c 6b92 46bd ef08 a63c 541c e2bd
00000170: 4125 d43d a368 18bd 073b 43be 17da 9d3d
00000180: 03b5 413c 9cf0 503a 2664 e8bd 35b3 0ebd
00000190: eb93 923c 58da 17be 4071 953d 8025 913e
000001a0: 8152 653e bed2 5cbe 673f 9ebd 02ef ddbd
000001b0: c98a 443d 46b0 a53e 0a59 363e e684 743d
000001c0: 4c31 563e dad2 1e3e b9da 9a3e 962e 9cbe
000001d0: 6be9 9e3d fe90 843c 721f 1dbe 05e6 313e
000001e0: 6a9e 173d 216a e1bd 51c1 77bd dee2 f83c
000001f0: f6c2 18be 1370 fb3c 4320 c7ba f661 43bb
00000200: d488 9bbe 9574 e7bd fdea e53e 893d 843e
00000210: 7711 a93e cf58 713e d6a3 e8bb 322e 44be
00000220: d7f9 5cbe 0bd5 4abe 772a 41be 2ca2 9fbd
00000230: 26e2 1cbc 4b37 2a3d 4950 993e 464a bfbe
00000240: 4e93 a33d 57fd 38be 2001 d83e 7ddb 84bc
00000250: ecc3 b8bd f7d6 d53d 01b9 0dbe 47c4 d93d
00000260: 81b8 9ebe 3d7f fe3d d803 373d 58d1 89bd
00000270: 884c f23d 6af8 a6bd 9bb3 843d ebcd 39bd
00000280: 871e 173d 434b 28be 1ac0 f1bd eaa4 93bd
00000290: dd87 903b 9160 afbd dfab d33c ed27 423d
000002a0: 8b44 c9bc 85d1 a0be 5721 433e a95e 73bc
000002b0: 8b55 aebd 4dbb 6cbc 44b1 273e f102 6c3d
000002c0: ee78 83be a85c 42bc e2fa 803e 5c69 153c
000002d0: 1fb2 0e3e adc7 88bd bcc1 3cbe d121 96bd
000002e0: ae10 7f3d f3fe c2bd f1b6 cdbd eb9f b13e
000002f0: 22ff 813d 1c9b 9abd 53d4 09be 62ed 9cbe
00000300: 5171 bfbe 9066 eebe 5a72 3f3e b3a2 d2bd
00000310: 34aa 583d 7343 b7bd 125b de3e 84c9 45be
00000320: da3f 07be c21c f9bd 905d 9f3e 538a aabc
00000330: 3d78 8d3e 9af6 683d dbc1 cb3d 5b59 943e
00000340: 534c 643e a6ac b93d 6647 abbd 52fd 853d
00000350: 69f0 07be 39c7 41bc e9ed b33c b927 e3ba
00000360: 870e 9fbd 694b 003e 2b4b 04be 8b66 89be
00000370: 37a5 2a3d d402 e8bd b085 113c 8231 d53d
00000380: c5fb c23d 7b12 0dbe fb15 033d 7723 41bd
00000390: fa0a 53bd 5c5d 4cbd 1862 4dbe b015 4b3e
000003a0: 74d5 9fbe 4e2b 41be 95fb 4a3e 1060 00be
000003b0: 0491 2ebe 8528 a43d 6aa8 fb3a b3b7 873d
000003c0: b950 8cbd 1e3c f63d bd56 24bc 6c2c 1bbd
000003d0: 4379 02be 52e5 84bd 483f 50be 8031 8c3e
000003e0: 29c9 153e 551c 7abd 3c84 f73e 8234 e3bd
000003f0: d134 493e db57 c5be dc5d a6bc 60ab 96bd
-0.07449109 -0.24652025 0.27888173 0.017880434 0.22470437 -0.24985838 0.0043778764 0.07383036
0.008478266 0.13264641 -0.08024583 -0.24729298 -0.08710587 0.03963195 0.19506918 -0.0066069686
0.067431614 0.15272684 0.069219336 -0.19970132 0.07340475 0.17710668 0.110841446 -0.008484042
0.10876097 0.10659317 0.051399633 -0.28087056 -0.047575213 0.12478221 -0.036019977 -0.113851346
-0.25404254 -0.0058738124 0.02480433 -0.2649862 -0.115337715 -0.29407117 0.11394524 -0.024287
0.08481154 0.09223416 0.22308561 0.053113885 0.13770555 -0.30782476 0.068161175 -0.16328554
0.09956325 -0.045583174 -0.33052877 -0.17093202 0.34368226 0.062095422 -0.02282575 -0.25242698
0.17822644 0.15119673 0.13731575 -0.15559182 -0.1683979 0.015154019 -0.13762173 0.18624482
-0.1417969 -0.053982724 -0.20679976 0.027316824 0.07761865 0.1056531 -0.1387931 0.025332553
-0.35023746 0.13519295 -0.061063644 -0.048431933 -0.06589183 0.29750553 -0.11196609 -0.07393784
0.2091716 -0.28009406 -0.17548217 -0.008265109 -0.172325 0.2421508 0.055781603 -0.018828444
0.023264037 -0.04847948 0.020267932 -0.110405594 0.10358668 -0.037209164 -0.19065486 0.07707613
0.011822942 0.0007970424 -0.11347227 -0.034838874 0.017892798 -0.14829385 0.07296991 0.28348923
0.22394754 -0.21564767 -0.07726937 -0.10836603 0.04798392 0.32361048 0.17807403 0.059697054
0.20917243 0.15510121 0.30244997 -0.30504292 0.07759365 0.016182419 -0.15344027 0.17372902
0.03701631 -0.110065706 -0.060487095 0.030381616 -0.14918122 0.03069309 -0.001519211 -0.0029813028
-0.3037783 -0.11301533 0.44905844 0.25828198 0.33021137 0.23569034 -0.007099609 -0.19158247
-0.21579681 -0.19807832 -0.18863855 -0.07794604 -0.009575402 0.041556638 0.29944065 -0.37361354
0.079870805 -0.18065391 0.42188358 -0.016217941 -0.09021744 0.10441392 -0.13840105 0.1063314
-0.3100014 0.124266125 0.0446814 -0.06729382 0.118310034 -0.0815285 0.064795695 -0.045362394
0.036894348 -0.1643496 -0.118042186 -0.07209189 0.0044107274 -0.085633405 0.02583879 0.047401357
-0.024568817 -0.3140985 0.19055687 -0.014854112 -0.0851241 -0.014448953 0.16376215 0.057619993
-0.256782 -0.011862911 0.25191408 0.009119358 0.13935135 -0.0667871 -0.18433279 -0.07330669
0.062271766 -0.09521284 -0.10044659 0.3469232 0.06347491 -0.07549116 -0.13459902 -0.3064986
-0.3739114 -0.46562624 0.18695965 -0.10284939 0.052896693 -0.08948412 0.43428856 -0.19315153
-0.13207951 -0.12163688 0.3112607 -0.020817911 0.27630797 0.056875803 0.09949084 0.28974423
0.2229474 0.09066133 -0.083632275 0.06542458 -0.13275303 -0.011827284 0.02196403 -0.0017330564
-0.07766443 0.12528767 -0.129193 -0.26836047 0.041661467 -0.113286644 0.008881971 0.104098335
0.095206775 -0.13776581 0.032003384 -0.047152963 -0.05152414 -0.049893722 -0.20056951 0.19832492
-0.3121754 -0.18864176 0.19822533 -0.12536645 -0.17047507 0.08015541 0.0019199972 0.06626835
-0.06851334 0.12023185 -0.010030446 -0.03788416 -0.1274157 -0.06489052 -0.2033664 0.27381516
0.14627518 -0.061062176 0.48343074 -0.110939994 0.19649054 -0.3854359 -0.020308428 -0.07356906

seq.4.bias f4 [100]
00000000: f29e 053e 2205 2c3e 1a62 21be 8285 2c3e
00000010: 9b2f e53c 7f87 3fbc 24c5 0cbd 13df 42bc
00000020: 3cbf c4bd 43db 5a3c d306 933d d8d0 8c3d
00000030: 257f be3d 0cb6 babc a9e5 493d 32f7 6b3e
00000040: c8ba e3bd 7b77 a33d 6d2f 623c d96e 93bd
00000050: 8ace a6bc 5a49 98bb 7c88 673e c3f8 01be
00000060: 558f 283d 848a 623e 8724 d13d 9421 a83d
00000070: 1ace f4bb fb9c 4a3e 6b14 54bd cc28 32be
00000080: bd1c 0abe 72aa f73d 8763 463d 9aa3 04bd
00000090: 43ab cebd 2b25 d4bd 3bf9 9d3c b34c 5f3e
000000a0: 5123 c5bd 476a 873d d740 6dbd d30b 91bd
000000b0: 70f7 0dbe 2d6c d4bc 528d 02be b5e0 8b3d
000000c0: 2e94 293e 1143 263d 9973 d43d 88d9 8abb
000000d0: e47e 5a3b b138 14bd 4984 1a3e 87d2 063d
000000e0: ef9c c6bd adf5 013d 065d 2bbe c419 7c3e
000000f0: 32c7 fb3c 2663 613d fe43 d83d e76e 0f3e
00000100: 7c17 32be 1ab8 5c3d 46c8 d9bc fdc7 cfbd
00000110: 7e41 4b3e 2693 13be d549 3fbc bfd9 9dbb
00000120: f4f0 7dbd c09e 3fbd a9e2 c93d 370a 9f3c
00000130: af32 283e d557 0abe 7bff 0f3d c720 37bd
00000140: dfa8 70bd eb84 5f3e be4a 02be cb24 b93d
00000150: f065 eabc 082d adbd c3b7 f5bd a1ac 13bc
00000160: 21ae dbbd 7015 ec3d 12b9 32be a041 ddbd
00000170: 5723 903e 1a9f 2fbd c71a fcbc d3ef babd
00000180: 7a18 d1bd 7abb 0ebe e216 4f3d 171f fc3d
0.13048914 0.16798833 -0.15760079 0.16847804 0.027976802 -0.01169002 -0.034367695 -0.011894005
-0.096067876 0.01335794 0.07179036 0.06875771 0.09301595 -0.022791885 0.049291287 0.23043516
-0.1111961 0.079817735 0.0138052525 -0.07198877 -0.020362157 -0.004647416 0.22610658 -0.12692551
0.041152317 0.22123152 0.10212045 0.082095295 -0.0074708583 0.19786446 -0.051777285 -0.17398375
-0.13487525 0.12093057 0.04843476 -0.032382585 -0.10091259 -0.10358652 0.019283881 0.21806602
-0.09625877 0.06612068 -0.057923164 -0.070823334 -0.13863921 -0.025930488 -0.12749222 0.06829969
0.16560432 0.040591303 0.10373611 -0.0042373575 0.0033339793 -0.036186878 0.15089525 0.03291562
-0.096979015 0.031728435 -0.16734704 0.24619204 0.030734632 0.055026196 0.105598435 0.1400715
-0.17391771 0.05388651 -0.026584756 -0.101455666 0.19849202 -0.14411601 -0.011675318 -0.004817217
-0.06199737 -0.046782255 0.09857685 0.01941405 0.16425584 -0.13510068 0.035155755 -0.044708993
-0.058754798 0.21828048 -0.12723824 0.09040221 -0.02861306 -0.08455855 -0.119979404 -0.009013326
-0.10726572 0.115275264 -0.17453411 -0.108035326 0.28151962 -0.04287634 -0.030774487 -0.09127774
-0.10209747 -0.13938704 0.050558932 0.123106174

seq.6.weight f4 [50, 100]
00000000: e5b4 1839 b8ec c9bc 51ce e03d 49c9 c53c
00000010: 39bb d9bd d59f 1abd c7da 133e a8ea 1c3e
00000020: 8a80 e2bd aa70 a6bd 421e 663d 54f4 16be
00000030: 28a8 bcbd 7b7c 063e 7b49 70be f715 b2bd
00000040: f3d0 51bb 85de 7f3d 1b27 e1bc 00a9 37be
00000050: c1f9 95be bd47 b13c 00ab 8a3e c498 81be
00000060: 2114 8abb b9f3 c2bd 8f7b da3c 423b 373e
00000070: 2345 293e 0410 64be 2aec 4a3d 8483 6bbd
00000080: 3450 ee3c c5e5 7a3e 1235 40bd 0b78 92bd
00000090: 79c1 bf3c c7c0 4fbc bfbf 8cbd a314 3cbe
000000a0: 27b5 da3c d302 15be 317a 323e 3b7d 44bd
000000b0: c964 ae3d b81f f3ba a205 273d 994c aebd
000000c0: c9ad 8dbe ea8c 0abc 351e 04be b574 9ebd
000000d0: 501e 0cbe 99c2 e0bc 52e8 873d 54c7 24bd
000000e0: 7990 05bd e84e 933c 81c4 d3bc b85a b6be
000000f0: e2c5 9e3c de02 30be 992a 20be 0d82 00bf
00000100: 9dbf 183c 914d 5bbe c66b 82be 4380 033d
00000110: 2959 6abe fe77 bcbd 2bbb 963d 899c 043e
00000120: 9e8a ddbc 5904 e9bd 65f6 d5be 6070 143e
00000130: b253 e63d 4eb2 5cbe 5363 c1be 5579 7fbd
00000140: eb97 bdbb 0ec8 febc 52fc 463d b8d6 c43d
00000150: 10ce e83d cd93 9b3c 0b65 cf3d a2eb bbbd
00000160: f7f5 b93c d04a 04bd c23c dabc c84f 863d
00000170: 536f b4bc 5544 d3bd 93bd 9fbc c58c 053e
00000180: da5c 58bd ac12 2bbd 3812 0fbe 5f2a adbc
00000190: c66f 003e 69a4 3f3c b2bf dc3e 1498 ac3d
000001a0: dfa1 3c3e 27f3 c13d 913a e03c e8ee 8a3e
000001b0: f6e9 dbbe 7981 473e 40b7 8fbb d8ad 4abe
000001c0: 84a0 bc3d 8a8d 8a3d 4ea6 353c e0be d9bd
000001d0: 7114 41be e4b0 03be e7f6 cabd 799d cc3e
000001e0: b45a 5d3e d56d 2ebb b20f 953e 530f bf3d
000001f0: 1b2e 923e 5c59 7a3d 968e a8bd 91ca 433e
00000200: 682d 393e 96ed 20be e92e f03c 6f83 c8be
00000210: adde 4a3b e9a7 3d3e 3ed4 bc3e 613d 98bd
00000220: 3e54 9a3d 29ce 123e c8fb 8fbc 03e1 7c3e
00000230: 65ec 913d 0e75 653c be46 8dbd ddde 273e
00000240: 72df 313e 2d36 2a3d 9958 e03d fd5b 30bd
00000250: 1abe 79bc a434 5abe 64a2 23be 67bd 843d
00000260: 5ce8 f03c c8e0 9c3d 3fbe 933d ba12 19be
00000270: 65b5 be3d e723 b4be 39b5 a6bc ce8f 863e
00000280: fe57 513e fdfd 98bd a11b 3b3e 9667 6dbd
00000290: 8e44 ffbc fcc3 31be 86d4 973e 7f27 313e
000002a0: 5875 ef3c b0c2 213e 48dc b73d 2023 683e
000002b0: 6210 ccbd 15d6 a23d a277 463e 90e3 a8bc
000002c0: cb0b 51bd 2a00 abbe b632 683d fdda ff3c
000002d0: 1f5a 893d 904c a43b 1a8f db3d 2ba5 873c
000002e0: faf4 a4bd 75c7 333e 315c 1fbe 6fb6 9d3d
000002f0: 07e8 2b3e 3f37 83bd c291 fe3c 75e9 3d3c
00000300: 2e70 013d 11e5 c63e c999 de3d d041 09be
00000310: 5aa3 edbd fd1f d0bc 931b f53d 927d b93d
00000320: 07b2 353b f85d 37be db6c f6bd 4fee 95bd
00000330: 6358 bbbd e237 cd3e 9e65 3cbe 7e57 2a3d
00000340: 8dcc cfbd 0634 6c3e 5c14 6dbb 943d 7abd
00000350: 082e 7b3e da3e acbd 17e0 c5bd 1137 213e
00000360: 3faf dc3d 1c9d 7d3e 99d3 0fbe 6c32 943e
00000370: c047 c23e 459b 50bd 7614 3ebe ed40 f13e
00000380: 3be2 b63d 2d1b 513d 8c8a 98be a4dc c8be
00000390: 387e 643e 4316 bfbd d2b0 05be 218a 80bd
000003a0: a8f9 95be 6c5e 613d e2c8 2b3e c0e6 3bbd
000003b0: 0c2b f33d bd3c 87be bfa3 6fbc 177e 2a3d
000003c0: 688e 59be 851a 373d ca2c b53d 2ab6 6a3d
000003d0: 253b ff3d 8b2b 0a3e 2dea 80be f994 193e
000003e0: d2d0 643d 90db 51bd 6072 f4be 28ad 823d
000003f0: 3aa5 d0be 3781 1ebe 2900 12bd 8d0c 683e
0.00014563238 -0.02464901 0.10976852 0.024143832 -0.10631413 -0.037750084 0.14438926 0.1532389
-0.11059673 -0.08126958 0.0561812 -0.14741641 -0.09211761 0.13133423 -0.2346553 -0.08695596
-0.0032015413 0.06246807 -0.027484467 -0.17935562 -0.2929211 0.021640653 0.27083588 -0.25311863
-0.0042138253 -0.09519143 0.026670245 0.17893699 0.1653028 -0.22271734 0.04954163 -0.05749847
0.029090978 0.24501713 -0.04692561 -0.07151803 0.023407685 -0.012680239 -0.0687251 -0.18367247
0.026697708 -0.14551859 0.17429425 -0.04797099 0.08515317 -0.0018548882 0.040776856 -0.085107036
-0.2767165 -0.008456448 -0.12902148 -0.07737104 -0.13683438 -0.027436541 0.066361085 -0.040229157
-0.032608483 0.017981961 -0.025850536 -0.35616088 0.019381467 -0.17188594 -0.1564125 -0.5019844
0.009323028 -0.21416308 -0.2547285 0.03210474 -0.22885574 -0.09202574 0.07359918 0.12950338
-0.027043637 -0.113777824 -0.41789547 0.14495993 0.11246432 -0.21552393 -0.3777109 -0.06237157
-0.0057859323 -0.031101253 0.048580475 0.09611267 0.11367428 0.018991375 0.10126694 -0.09175803
0.022700293 -0.03229791 -0.0266403 0.06558186 -0.02202574 -0.10315768 -0.019499576 0.1304198
-0.052822925 -0.041765854 -0.13971794 -0.021138368 0.12542638 0.011696913 0.43115002 0.08427444
0.18421124 0.09470206 0.027371677 0.27135396 -0.42951936 0.19482984 -0.004385859 -0.19792879
0.092103034 0.06765278 0.011087013 -0.1063211 -0.18855454 -0.12860447 -0.09910374 0.39963892
0.21616632 -0.0026615758 0.29113537 0.09329095 0.285508 0.061120376 -0.08230321 0.19120242
0.18083727 -0.15715632 0.029319244 -0.39162776 0.003095548 0.18521084 0.36880678 -0.07433582
0.07535599 0.14336456 -0.017576113 0.2469521 0.07125167 0.014004959 -0.068982586 0.1639361
0.17370394 0.041555572 0.10954399 -0.043056477 -0.015243078 -0.21309143 -0.15979916 0.06481438
0.029407673 0.07660061 0.07214021 -0.1494855 0.09311942 -0.3518364 -0.020350086 0.2628159
0.20443723 -0.074703194 0.18272258 -0.057960115 -0.03116062 -0.17359918 0.2965433 0.17300223
0.029230759 0.15796924 0.08977562 0.22669649 -0.09964062 0.07950989 0.19381574 -0.020616323
-0.051036637 -0.33398563 0.056688987 0.031232351 0.06706642 0.00501401 0.10720654 0.01655825
-0.08054538 0.17556556 -0.15562512 0.07700812 0.1678773 -0.06407022 0.031075362 0.011591305
0.031601124 0.3884664 0.10869176 -0.13404012 -0.116034225 -0.025405878 0.1196815 0.09057154
0.002772452 -0.1790694 -0.12032481 -0.073208444 -0.09147718 0.40081698 -0.18398139 0.041587345
-0.10146437 0.2306672 -0.0036175465 -0.06109388 0.24529278 -0.084104255 -0.09661882 0.15743662
0.10775613 0.24766964 -0.14045562 0.2894472 0.37945366 -0.050929327 -0.18562493 0.47119847
0.08929869 0.051051307 -0.29793203 -0.39230835 0.22313774 -0.09330418 -0.13055733 -0.06276346
-0.29292035 0.05502169 0.1677585 -0.045874357 0.11873445 -0.26413527 -0.014626442 0.041624155
-0.2124573 0.044703025 0.088464335 0.05730263 0.12462453 0.13493173 -0.25178662 0.14998235
0.05586321 -0.05123478 -0.4774351 0.06380683 -0.40751058 -0.15478979 -0.035644684 0.22661038

seq.6.bias f4 [50]
00000000: f2a5 e33d 974f aa3e c804 f23d 312a 2b3c
00000010: 8496 04be 06d4 72bd 03b1 3e3e b21c 7dbb
00000020: 0758 cbbd f382 67bd 4ced 023e b9de e4bc
00000030: ce36 b4bd 1b92 e3bd 03a3 c5bd 6c19 263e
00000040: 5c0a 51bd d2b7 f9bc 850a 333e eafe 2b3e
00000050: a024 0c3d 4fe4 373e 59ae 403d 8154 273d
00000060: 558b b83d 1b56 d6bd aa19 00bb b076 253e
00000070: e34e b4bd bfef 44bd cb5c d53c 9c95 d93c
00000080: b581 2fbd 5c92 1a3e ebc7 5b3c d646 cbbd
00000090: a46c 073e 7bf0 233e af29 e33d 230d b63d
000000a0: a88b 903e f676 043e aaec 4f3d 6625 123e
000000b0: 817b 123e a5aa efbc 1d5a 4e3e 6cde f13d
000000c0: b8f2 4d3d 9fe2 033e
0.11115636 0.33263847 0.11817318 0.010447071 -0.12948042 -0.059284233 0.18622212 -0.003862184
-0.09928899 -0.056521367 0.12785834 -0.027938234 -0.08799516 -0.11111852 -0.09650233 0.16220635
-0.05103527 -0.03048316 0.17484482 0.16796461 0.034214616 0.17958187 0.04704127 0.040852074
0.090109505 -0.10465642 -0.0019546547 0.16158557 -0.08804109 -0.048080202 0.026045224 0.026560597
-0.042848308 0.15094894 0.013414363 -0.0992562 0.13225037 0.16009705 0.11091935 0.088892244
0.2823155 0.12936005 0.05076281 0.14272079 0.14304926 -0.029256174 0.20151563 0.11810002
0.050280303 0.12879418

adv_1.0.weight f4 [20, 50]
00000000: bbc8 cbbe b87e 3f3e 26b6 243e fdbe de3d
00000010: 61d2 833d 4627 94bd aabe 2bbf 926a 6fbe
00000020: baf7 ad3d c476 e03c 444b 943d cab0 98be
00000030: 2ed3 dc3d 0849 76be 37f4 c2bd da03 ba3d
00000040: 9221 ac3d ae02 3fbc 9e62 95be 5343 afbe
00000050: 64bd ff3d 19e7 313e 2f48 943e c9c7 4c3d
00000060: acee 2c3e 21dd a73d 3775 6fbe 4bdc 93bd
00000070: b5b2 96bd c533 f6bc 9824 473e 3336 ab3c
00000080: 4aef 033e 2c4a 153d c6d6 09bd ab97 013e
00000090: 7566 023e a5bc 16be 0cee 763d 3497 523e
000000a0: 50ff aebc f39d 223e d79e 453e 7920 91be
000000b0: f811 22bf 8b02 11be b30f 59bf 4121 2dbe
000000c0: 1544 7ebd 8475 b43a 02aa 07bd f4e5 c9bd
000000d0: 2010 ff3e 8302 e8be 2cb8 41be 1daf 993d
000000e0: 672a 8e3e 079c c2bd 6265 223d 8a5f 88bd
000000f0: a31b f73c 7238 6e3e dfd1 ae3d 662d 11bf
00000100: bc19 9ebe 4c5f 893e 5c63 133e 4bc8 1ebe
00000110: ce41 03bf 9c1f 963d 9a3a 37be c149 6c3d
00000120: d6b2 323d 445a ab3e 801a 88be 4c0e b43e
00000130: f78d c5be bec9 73be 2513 1f3e 9874 2ebd
00000140: 8811 8ebe 5107 43bf 4b30 33bc b262 81be
00000150: 24df 12be 4378 2ebe 1063 51be 07a0 193e
00000160: b147 17be 6921 973d 0386 873b 2a8c a03c
00000170: b2db 773e c3b4 173d 2016 ed3d bf7c 76be
00000180: 3b8d 9bbd 63f0 7d3e 1f2b a6bd 4271 623e
00000190: c705 fe3d f058 1a3d 8374 803e 34e9 163e
000001a0: ef74 b0bd 4b99 4d3d 4169 aa3e 6ef2 973e
000001b0: bb84 9f3d b8fc f8bd 9228 01bc 839f 023e
000001c0: 435d 28bb 0a48 c6bd eea2 7cbe 2922 5a3c
000001d0: 5082 d23e ba28 013e 7d04 06be f54e c7bd
000001e0: 3112 02bf 1d0c 42bd 8cc1 08bb 74fc e0bd
000001f0: 850f f93d 9e8d 863e 8d80 673e 8873 c6bd
00000200: 72ee a1bc 5bf7 d0be 64c3 133e 34fe 97be
00000210: 65ce db3c b1cc b6be 26db 843e cd37 aa3d
00000220: 41af f5bd d396 5ebe 713c 34be 1595 00bd
00000230: 66c9 923e 73a3 6bbe 28bc 023e 38fc 123e
00000240: a755 133d 99a4 5cbe d44c 53be a43b f73d
00000250: d44e c5be ee87 fe3c af1f a9bc 0ec3 6c3b
00000260: a9d6 a43a 9c6a 9cbc 0145 6cbd 97ef 66bd
00000270: 8407 26be a784 d0bd a2da b3bd ec31 883d
00000280: 9217 dd3c 79ce 8dbb e42b 833d f87b a0bc
00000290: 4143 08be 121d 17be 6942 0b3d 0c8f 04be
000002a0: 42d3 8d3d 2840 fbbb 42b3 bd3d 19e1 70bd
000002b0: 7f25 bb3c f232 b13d 49a9 f6bd 885e 30bd
000002c0: 5431 47bd 119e a73d 62b9 eb3d b241 abbd
000002d0: 838a 2d3c 8c69 c43d 7516 a33d f060 aabd
000002e0: ba20 eb3d 3c18 02bd e5f3 a9bd cb0e 73bd
000002f0: b5d4 c43c 8c48 bb3d ee4c 2bbe ebeb 2cbe
00000300: cc24 8c3d 45d9 13bd 838d 903d be61 02be
00000310: ebb1 2cbd f061 49bd 22a6 f5bd ccb9 14be
00000320: 6a30 b03d 8e55 f1bd e614 aa3d c478 05be
00000330: dbdb f43d e0fe 753c 3011 f0bd f754 2cbe
00000340: a2ea 36bd 9c8d 0fbe 6237 e23d f87d 7c3d
00000350: 0049 8cba 8e3f 7b3c 903e 53be fc46 6bbd
00000360: 6793 b1bd 6cb7 b1bd efe1 b4bd a3d0 c8bb
00000370: cbf0 1fbe fbee 04be beaa 123d cdba a6bc
00000380: 9c90 a9be fdf8 e4bd 4de0 bc3c bead 113d
00000390: fd36 dfbc 2e84 bcbd db25 64be f8c9 16be
000003a0: 2491 183c 92fb d23d f4ac 79bd a4aa 513d
000003b0: 7c8f 67bd e536 ffbd c32c 20be 4a81 3ebe
000003c0: 3fb6 30be 64a2 64bc 325c 0abe a065 d63d
000003d0: fa5d abbc 4d80 12be 6b9f 19be f2c9 453d
000003e0: 8708 2e3d 554a 7fbe a768 883d 0efc 15bf
000003f0: fbfd eebd 2ebf 323e 2756 5b3d 1201 053d
-0.39801583 0.18700683 0.16085109 0.10876272 0.06436611 -0.07234053 -0.67087805 -0.23380497
0.08494516 0.027400382 0.07240918 -0.2982238 0.10782467 -0.24051297 -0.095192365 0.09082766
0.084048405 -0.011658354 -0.291768 -0.34231052 0.12487295 0.17373313 0.28961322 0.049995217
0.16887921 0.08196474 -0.23384558 -0.07219752 -0.073583044 -0.030053983 0.19447553 0.020899868
0.1288425 0.03644769 -0.03365209 0.12655513 0.12734397 -0.147204 0.060285613 0.20565492
-0.021361977 0.15880565 0.19298874 -0.28345087 -0.6330867 -0.14161126 -0.8478958 -0.16907217
-0.062076647 0.0013767933 -0.033121116 -0.09858313 0.4981699 -0.45314416 -0.18917912 0.07504103
0.27766725 -0.09502416 0.039647467 -0.06658848 0.030164545 0.2326372 0.085361235 -0.567099
-0.3087901 0.26830518 0.14393371 -0.15506093 -0.51272285 0.07330248 -0.17893448 0.057687525
0.043627582 0.33467305 -0.26582718 0.35167158 -0.38584873 -0.23807427 0.15534647 -0.04259166
-0.2774775 -0.7618304 -0.010936807 -0.2527061 -0.14342934 -0.17038064 -0.20447946 0.15002452
-0.14773442 0.07379419 0.0041358485 0.019598085 0.24204901 0.037037622 0.11576486 -0.24071024
-0.07595297 0.24798732 -0.081136934 0.22113517 0.12403446 0.037682474 0.2508889 0.14737397
-0.08616053 0.05019502 0.33283427 0.29677147 0.07788988 -0.12157577 -0.007883208 0.12756161
-0.0025690354 -0.09681709 -0.24671528 0.0133138085 0.41115046 0.12613192 -0.1308765 -0.09731857
-0.5080901 -0.047374833 -0.0020867316 -0.109856516 0.12161163 0.2627992 0.22607632 -0.096900046
-0.01976702 -0.40813717 0.14430004 -0.2968613 0.026831815 -0.35703042 0.25948447 0.083114244
-0.11996318 -0.21737222 -0.17601182 -0.031392176 0.2866928 -0.2301157 0.12767088 0.14354026
0.035970356 -0.21547164 -0.20634776 0.120719224 -0.38536704 0.031070676 -0.02064499 0.0036127004
0.0012576181 -0.019093804 -0.057682995 -0.056380834 -0.16213804 -0.101815514 -0.08781935 0.06650147
0.026988778 -0.004327592 0.06404856 -0.019590363 -0.13306905 -0.14757183 0.03399888 -0.12945193
0.0692506 -0.00766756 0.09262706 -0.05880842 0.022845028 0.08652295 -0.12044007 -0.043058902
-0.048631027 0.08184446 0.11509968 -0.0836214 0.010592106 0.09590444 0.07963268 -0.083192706
0.114808515 -0.031761393 -0.08298472 -0.05934028 0.024027208 0.091446966 -0.16728565 -0.1688687
0.06842956 -0.036095876 0.07058241 -0.12732598 -0.042161863 -0.049165666 -0.11994578 -0.14524001
0.08602984 -0.117838964 0.08304767 -0.1303435 0.119559966 0.01501438 -0.11722028 -0.16829287
-0.044657357 -0.14018863 0.1104572 0.06164357 -0.0010702908 0.015334977 -0.20629334 -0.057440743
-0.08670693 -0.08677563 -0.08832156 -0.006128387 -0.15619199 -0.12981789 0.035807364 -0.020352745
-0.3311814 -0.11180303 0.023056174 0.035566084 -0.0272479 -0.09204899 -0.22280066 -0.14725482
0.009311948 0.103018895 -0.060955957 0.051188126 -0.05653332 -0.12461642 -0.15642075 -0.18604007
-0.17257021 -0.013954733 -0.13511732 0.10468602 -0.020918835 -0.14306755 -0.1500222 0.048288293
0.0424886 -0.24930699 0.06660586 -0.5858773 -0.11669537 0.17455742 0.05354896 0.032471724

adv_1.0.bias f4 [20]
00000000: f6bf 93bd f99c 733d ce03 673e a038 07be
00000010: b96a 94bd efc0 28be e9e0 943e 9494 183e
00000020: e0bd 173e 27ac 063e def6 95bd ad4e bbbd
00000030: 1e33 2a3e f9da 003f 5155 8e3d d08f b63e
00000040: 5e23 a53e 08ec 723d e1d7 ebbd f903 923e
-0.07214348 0.059475873 0.22560045 -0.13205194 -0.07246918 -0.16479848 0.29077843 0.14900428
0.14818525 0.13151608 -0.07322477 -0.091458656 0.16621062 0.50334126 0.069498666 0.35656595
0.32253546 0.05930713 -0.11515785 0.28518656
