submission/checkpoint_all.pth (torch, 730751 bytes, 31 tensors)

seq.0.weight f4 [265, 510]
0	0x3bf58ef8	0.00749385
1	0x3cc29800	0.02375412
2	0xbd308dd0	-0.043103993
3	0xbd057aec	-0.03258793
4	0xbd05ba74	-0.03264852
5	0x3b6b6e7f	0.0035924015
6	0xba65fd80	-0.0008773431
7	0x3cf55179	0.029946076
8	0xbb80c450	-0.0039296523
9	0xbb74a632	-0.0037330505
10	0xbc15c8f6	-0.009142151
11	0xbc0e9b7c	-0.008704063
12	0xbd4b9307	-0.049700763
13	0xbcf03dce	-0.029326346
14	0xbd09f2b3	-0.03367872
15	0xbbd9e46d	-0.006649545
16	0x3c8f6832	0.017505739
17	0x3cb125e2	0.02162451
18	0xbcf5ebf3	-0.030019736
19	0xbd0e35c7	-0.034719255
20	0x3ca67dad	0.020323599
21	0x3d169c58	0.036770195
22	0xbc87407d	-0.016510243
23	0x3d07b968	0.0331358
24	0xbcb88424	-0.022523947
25	0xbb6c36a8	-0.003604332
26	0x3d243ad2	0.040095158
27	0xbd3c8274	-0.046022847
28	0xbce45d11	-0.027876409
29	0xbcda0123	-0.02661187
30	0x3c081f03	0.008308175
31	0x3d1cb50c	0.038258597
32	0xbd129e31	-0.035795394
33	0xbca6fc1a	-0.020383883
34	0xbd3c8c35	-0.04603215
35	0xbd0b7baf	-0.0340535
36	0xbcd3c028	-0.025848463
37	0x3d01c138	0.03167841
38	0x3ca1dd60	0.01975888
39	0x3bc7f053	0.006101647
40	0x3c186bee	0.009303076
41	0xbcb9f990	-0.022702008
42	0x3b901bdd	0.004397853
43	0xbd29590f	-0.0413447
44	0xbd40c759	-0.047065113
45	0xbcbb01e5	-0.022828052
46	0x3c8e5596	0.017374795
47	0x3cbb9481	0.02289796
48	0xbca0e07b	-0.01963829
49	0xbc8bc431	-0.017061325
50	0x3d1bddad	0.038053203
51	0x3d344f52	0.04402096
52	0x3c392b25	0.01130179
53	0x3bc404c0	0.0059820116
54	0x3c6d732a	0.014492789
55	0xbcd8e81c	-0.026477866
56	0xbb17878f	-0.002312157
57	0xbd13ea66	-0.03611221
58	0xbcfb6a60	-0.030690372
59	0xbd1e9a5e	-0.038721435
60	0x3ca42234	0.02003584
61	0x3c91e202	0.017807964
62	0xbd0b5798	-0.034019083
63	0x3c5b2d6c	0.013377529
64	0x3c14fffb	0.009094234
65	0xbc1fbb67	-0.00974927
66	0xbc115fa2	-0.008872898
67	0x3bf5aae6	0.0074971793
68	0x3ce10a50	0.027470738
69	0x3cdd193f	0.026989577
70	0xbd0bc562	-0.034123786
71	0xbc84efa5	-0.016227553
72	0x3c1d81ef	0.009613498
73	0x3d1646fa	0.036688782
74	0x3cbee1db	0.023301056
75	0x3d0eff07	0.03491118
76	0xbae58502	-0.0017510953
77	0xbd29094c	-0.04126863
78	0x3b857af8	0.004073497
79	0xbd30f28b	-0.043200057
80	0xbd29083d	-0.041267622
81	0x3d21263e	0.03934311
82	0x3cd3b784	0.025844343
83	0xbd34ecf2	-0.04417128
84	0xbbe425cc	-0.0069625136
85	0xbc3e6103	-0.011619809
86	0xbc923b35	-0.017850498
87	0xbcbcd0a5	-0.023048708
88	0x3c8b7f36	0.017028432
89	0xbd2adc9d	-0.0417143
90	0x3d3b914e	0.04579287
91	0x3cb771cc	0.02239313
92	0x3cafdd10	0.021467716
93	0x3c87a2ae	0.016557064
94	0xbd72373c	-0.059134707
95	0xbd090645	-0.033453245
96	0x3c3d2d44	0.011546437
97	0x3bd4a2c3	0.0064891293
98	0xbd0d7ca6	-0.034542702
99	0xbd27f308	-0.041003257
100	0x3d5016f9	0.05080316
101	0x3ceabc4b	0.028654238
102	0xbd1080a8	-0.035278946
103	0xbc3698a4	-0.011144791
104	0xbd6c9cd8	-0.057766765
105	0xba50a480	-0.0007959083
106	0xbd33da8c	-0.043909594
107	0xbd17494d	-0.03693514
108	0xbb1fe5f0	-0.0024398528
109	0xbc16cad1	-0.009203629
110	0xbcefa383	-0.029252773
111	0x3ccd74e1	0.025080146
112	0xbd196001	-0.037445072
113	0x3d2492c2	0.04017902
114	0x3c69d6fb	0.014272447
115	0xbd18f315	-0.037341196
116	0xbcb0d1be	-0.021584388
117	0xba4cb0c1	-0.0007808321
118	0x3bd3b380	0.006460607
119	0xbbb02259	-0.0053751883
120	0x3b32a5ab	0.002725939
121	0x3a515adf	0.0007986258
122	0xbcf6a39e	-0.030107316
123	0x3caba5f8	0.020953164
124	0xbd6e9570	-0.058247983
125	0xbcd700ca	-0.026245493
126	0xbcb157fa	-0.021648396
127	0xbcc776ca	-0.024348635
128	0xbc7dcd78	-0.015490882
129	0xbd55bf36	-0.052184306
130	0xbcc9711d	-0.02459007
131	0x3bf969e1	0.0076114987
132	0xbd08a88b	-0.03336386
133	0xbb14ed90	-0.0022724606
134	0x3c8369a5	0.016041586
135	0xbb952988	-0.00455207
136	0xbc18e934	-0.009332944
137	0xbbd83bf3	-0.0065989434
138	0x3c12d3ac	0.008961599
139	0x3c479ebe	0.012183843
140	0x3cf5da32	0.03001127
141	0x3cd72dcb	0.026266953
142	0x3d02845e	0.031864516
143	0xbb51e050	-0.003202457
144	0xbd634f0c	-0.055495307
145	0xbcaf4a57	-0.021397753
146	0x3c8cb671	0.017176839
147	0xbb480e6a	-0.003052617
148	0xbcb44d71	-0.022009583
149	0xbd4caf06	-0.049971603
150	0xbd478225	-0.0487081
151	0xbd200635	-0.03906842
152	0xbc70475d	-0.014665452
153	0x3cc6eee0	0.024283826
154	0x3c083646	0.008313721
155	0xbd52a368	-0.051425368
156	0x3ccbf28a	0.024895925
157	0xbd1f8dac	-0.03895347
158	0xbc196094	-0.009361405
159	0xbd0cae05	-0.034345645
160	0xbc3a4337	-0.011368564
161	0xbc55ec36	-0.013056805
162	0xbd37c5a7	-0.04486623
163	0xbd1c9aea	-0.038233675
164	0xbcbb7d6d	-0.022886956
165	0xbc0cc247	-0.008591241
166	0xbcbb1d8b	-0.022841236
167	0x3c4ac994	0.0123771615
168	0xbd233f44	-0.039855257
169	0xbc9de110	-0.019272357
170	0x3d12d0f3	0.0358438
171	0xbcb7b347	-0.022424353
172	0x3d11051d	0.035405267
173	0x3c835eda	0.01603644
174	0xbd6537a6	-0.055961274
175	0x3cce867e	0.025210615
176	0xbc005fe3	-0.007835361
177	0xbd047766	-0.03234043
178	0x3d110948	0.035409242
179	0xbd571554	-0.052510574
180	0xbb188566	-0.002327287
181	0xbbcfcace	-0.006341315
182	0x3cc744da	0.024324823
183	0x3c4a84a8	0.012360729
184	0x3baff181	0.0053693657
185	0x3c4eb8b8	0.012617283
186	0xbc5b1eab	-0.013374011
187	0xbcb3499f	-0.021885691
188	0xbd157786	-0.03649094
189	0x3c0194bc	0.007908996
190	0x3ced1121	0.028938832
191	0x3d0023cf	0.03128415
192	0xbd11e41a	-0.035617925
193	0x3b016da0	0.001974918
194	0xbd40bbe3	-0.047054183
195	0xbc303156	-0.01075395
196	0xbce9b40d	-0.028528238
197	0x3a9d018d	0.0011978612
198	0xbcd82a8e	-0.02638748
199	0xbc8ec507	-0.017427934
200	0x3b4e565b	0.0031484577
201	0x3cfee834	0.031116582
202	0xbd328d8b	-0.043592017
203	0xbcf907e6	-0.030399274
204	0xbd2a74f3	-0.041615438
205	0x3cf4e45c	0.029894046
206	0xbc98b92b	-0.018642982
207	0x3ccaf958	0.0247771
208	0x3c832c20	0.016012251
209	0xbc2e015a	-0.010620439
210	0x3b57a1ba	0.0032902793
211	0xbc319a01	-0.01083994
212	0xba05552c	-0.0005086239
213	0xbc25a9c0	-0.010111272
214	0xbc84f0e5	-0.016228149
215	0x3c10446e	0.008805377
216	0xbd2dc5dc	-0.04242502
217	0xbd12ebb9	-0.035869334
218	0x3d127548	0.03575638
219	0xbd560e27	-0.05225959
220	0x3cd1b3a2	0.02559835
221	0x3d1339e2	0.035943873
222	0x3c60287c	0.013681527
223	0x3aa45400	0.0012537241
224	0xbd5f95da	-0.05458627
225	0x3c6dda71	0.0145174125
226	0xbd211727	-0.03932872
227	0xbccfd1f0	-0.02536866
228	0xbc736a6a	-0.014856914
229	0xbcba0a9e	-0.02271014
230	0x3cd7b776	0.026332598
231	0x3cfba46b	0.030718049
232	0x3b66773e	0.0035166289
233	0x3d227490	0.039661944
234	0x3c348efc	0.011020418
235	0xbc3eb14d	-0.0116389515
236	0x3c45c86a	0.012071708
237	0xbd3a97ab	-0.045554798
238	0xbc99bdde	-0.018767294
239	0xbb4ac3a7	-0.0030939372
240	0x3ce3f143	0.027825003
241	0x3cfaef0b	0.030631563
242	0xbc591c91	-0.01325144
243	0x3894aa00	7.088855e-05
244	0x3bdb4dc5	0.0066926205
245	0xbcd8d28e	-0.026467588
246	0x3cc481f4	0.023987748
247	0xbd505838	-0.050865382
248	0x3a1ffc80	0.0006102994
249	0xbcc2558d	-0.023722434
250	0xbcc3e9a2	-0.023915116
251	0x3c5f48b4	0.013628174
252	0x3d0eac71	0.03483242
253	0xbc54139c	-0.012944128
254	0xbd2e3bbd	-0.04253744
255	0x3ba41f40	0.005008608

seq.0.bias f4 [265]
0	0x3ca9e63a	0.020739663
1	0xbd7f11fb	-0.062273007
2	0xbd54ac60	-0.051922202
3	0xbd34ebc4	-0.044170156
4	0xbd756852	-0.05991394
5	0xbca8f975	-0.020626763
6	0x3cf8881f	0.030338345
7	0xbd5dbfce	-0.054137997
8	0xbd61d573	-0.0551352
9	0xbd467843	-0.048454534
10	0xbc172720	-0.009225637
11	0xbd76fa1b	-0.060297113
12	0xbcf3a9ab	-0.02974399
13	0xbbbd1c02	-0.005771161
14	0x3d3cabcf	0.046062287
15	0xbbdc54db	-0.0067239827
16	0xbd4a2cde	-0.049359195
17	0x3b230335	0.0024873738
18	0xbd061ba9	-0.032741223
19	0xb9fa3daf	-0.00047729674
20	0xbca4a65d	-0.02009886
21	0xb9784a3d	-0.00023678779
22	0xbd097a43	-0.033563863
23	0xbc496044	-0.012291018
24	0xbd74977f	-0.05971479
25	0xbd6805df	-0.056646224
26	0xbc648823	-0.013948473
27	0xbca7a972	-0.02046654
28	0xbb80e9f0	-0.0039341375
29	0xbda898cb	-0.08232268
30	0xbbd63816	-0.0065374477
31	0xbd56d6ed	-0.052451063
32	0xbcbeb519	-0.023279713
33	0xbd30c60f	-0.043157633
34	0x3c84dfcc	0.016219996
35	0x3c20f218	0.009823345
36	0x3beac9f5	0.0071651884
37	0x3c5b4fb0	0.013385698
38	0xbd6eb6d6	-0.058279835
39	0xbda9ad44	-0.08285001
40	0xbb07e7c4	-0.0020737508
41	0x3b9c7a31	0.0047753085
42	0xbd1938f8	-0.037407845
43	0xbd955860	-0.07292247
44	0xbcebe5db	-0.028796127
45	0x3bc93e0a	0.006141429
46	0xbd916840	-0.07099962
47	0xbd6f38e8	-0.05840388
48	0xba8dd947	-0.00108222
49	0xbd4862ad	-0.04892223
50	0xbcf3f5fc	-0.02978038
51	0x3c26018c	0.010132205
52	0xbda3fe25	-0.080074586
53	0x3d030a8e	0.031992488
54	0xbbbacbd4	-0.0057005677
55	0xbd256a33	-0.040384483
56	0xbc332025	-0.010932957
57	0xbd2ea088	-0.042633563
58	0xbd662c3e	-0.056194536
59	0xbd051f4e	-0.032500558
60	0xbd40ee66	-0.047102354
61	0xbba4609f	-0.005016401
62	0xbd75625f	-0.059908267
63	0xbd54fb52	-0.05199749
64	0xbd2c2456	-0.04202684
65	0xbd759817	-0.059959497
66	0x3beff08f	0.007322378
67	0x3c9c3b87	0.019071354
68	0xbd8076b1	-0.062726386
69	0xbc51092b	-0.0127585335
70	0xbcaa63b1	-0.02079949
71	0xbd53eec0	-0.05174136
72	0xbd6a23c0	-0.057163
73	0xbd12d4e9	-0.03584758
74	0xbc3e1c12	-0.011603372
75	0xbc9321dc	-0.017960481
76	0xbd3dca8d	-0.046335746
77	0xbd4a3220	-0.04936421
78	0x3c0b204c	0.008491587
79	0xbd758b36	-0.059947215
80	0xbd28fc31	-0.041256133
81	0xbc86c36b	-0.016450604
82	0xbd3cd363	-0.04610003
83	0xbd52a0dd	-0.051422942
84	0xbbb5a4a1	-0.005543307
85	0x3c1a1d2f	0.009406372
86	0xbd56bce0	-0.05242622
87	0x3acd1161	0.0015645438
88	0xbb933635	-0.004492546
89	0xbd0cd03e	-0.034378283
90	0x3c3f2971	0.011667595
91	0x3c681a28	0.014166392
92	0xbbad4ecf	-0.0052889357
93	0xbc8d9da4	-0.017287083
94	0xbcee4c4b	-0.029089114
95	0x3c681e95	0.014167448
96	0x3cd22757	0.025653524
97	0x3c25a568	0.010110237
98	0xbd348fd5	-0.04408248
99	0xbcf19f12	-0.029494796
100	0xbdd2e07d	-0.10296724
101	0xbc1d381e	-0.009595899
102	0x3cadd053	0.0212175
103	0xbd46fcb5	-0.048580844
104	0x3c751c8d	0.01496042
105	0xba27018e	-0.0006370776
106	0xbd27c8be	-0.040962927
107	0xbc9993ae	-0.018747177
108	0xbb5b8fb3	-0.00335024
109	0xbb59bdc6	-0.0033224686
110	0xbd072124	-0.03299059
111	0xbd84fc38	-0.064934194
112	0xbc0a2006	-0.008430487
113	0xba543394	-0.0008094844
114	0xbd6e210f	-0.058136996
115	0xbdb9ecfe	-0.09078406
116	0xbd9482af	-0.072514884
117	0xbd5a7459	-0.053333614
118	0xbb04a7b6	-0.0020241565
119	0xbcac9af7	-0.021069987
120	0xbd8d104e	-0.068878755
121	0xbd1785f7	-0.036992993
122	0xbd39afdb	-0.045333724
123	0x3cbc25d7	0.022967262
124	0xbd1c0f4f	-0.038100537
125	0xbcefc2a1	-0.029267611
126	0xbd5e796b	-0.054315012
127	0x3c97b137	0.01851712
128	0x3d2c7a16	0.042108618
129	0xb9fc5248	-0.0004812649
130	0xb88f9236	-6.846005e-05
131	0xbd482288	-0.048861057
132	0xbd5136ba	-0.051077582
133	0x3d19148f	0.03737312
134	0xbd1e6ada	-0.03867612
135	0xbd96899b	-0.07350465
136	0x3d23430e	0.03985887
137	0xbcc48cb0	-0.023992866
138	0xbd79c7bc	-0.060981497
139	0x3cd6b446	0.026209008
140	0xbbe3cd39	-0.0069519547
141	0xbd84f477	-0.064919405
142	0xbc3a2d98	-0.011363409
143	0x3ce35664	0.027751155
144	0x3be9693d	0.007123141
145	0xbc5c1837	-0.013433508
146	0x3c650389	0.013977894
147	0xbd146e4f	-0.03623801
148	0x3bf2d1c4	0.00741026
149	0x3c62e185	0.013847713
150	0xbd3e799a	-0.046502687
151	0xbdcf9a82	-0.10136892
152	0xbd36843a	-0.044559695
153	0x3b14d9ec	0.00227129
154	0xbc917d90	-0.017760068
155	0xbb694e3a	-0.0035599605
156	0xbd74e21c	-0.059785947
157	0x39764d77	0.00023489246
158	0xbcf1c3d8	-0.02951233
159	0xbd17de38	-0.03707716
160	0x3bb60fb5	0.0055560716
161	0x3c3b608a	0.011436591
162	0x3be93db0	0.0071179494
163	0xbd814d23	-0.06313541
164	0xbb822ca5	-0.003972607
165	0xbd0da6e1	-0.034582976
166	0xbcbbf4b9	-0.022943841
167	0xbd48d5d1	-0.049032036
168	0xbd04a102	-0.03238011
169	0xbd47beac	-0.048765823
170	0x3bce54ba	0.0062967213
171	0xba2e0cfc	-0.0006639508
172	0xb6d59689	-6.3654193e-06
173	0xbce386ff	-0.027774332
174	0xbda3f22b	-0.08005174
175	0x3cc8573d	0.024455661
176	0xbd79b4c3	-0.060963403
177	0x3c4b3f30	0.012405202
178	0xbd657f2d	-0.056029487
179	0x3af26aa2	0.0018494914
180	0xba24962a	-0.00062784797
181	0xbda29584	-0.07938674
182	0xbd6bd5e1	-0.057577018
183	0xbbf815b7	-0.007570948
184	0xbd1e5e72	-0.03866429
185	0xbd39849e	-0.04529249
186	0xbd38c94b	-0.045113843
187	0xbcdbf26e	-0.026848998
188	0x3c7fffc6	0.015624946
189	0xbd2be7c7	-0.041969087
190	0xbd28c25a	-0.041200973
191	0xbcbafaca	-0.022824664
192	0xbcb99a44	-0.022656567
193	0xbca58e66	-0.020209502
194	0xbc48ff82	-0.012267949
195	0xbcb54de9	-0.022131877
196	0xbd30226c	-0.043001577
197	0xbca1187d	-0.019664997
198	0xbd9229e4	-0.07136896
199	0xbd288960	-0.041146636
200	0xbc2e89a7	-0.010652936
201	0xbc5b5c9a	-0.013388777
202	0x3c33629f	0.010948806
203	0x3ccaa9aa	0.024739105
204	0xbd934766	-0.071913525
205	0xbc85c848	-0.016330853
206	0x3cbf9622	0.023387019
207	0xbd3529b3	-0.04422922
208	0x3c115d7e	0.008872388
209	0x3d30400b	0.043029826
210	0x3c33b0fd	0.01096749
211	0xbd665b5b	-0.056239467
212	0xbd51ea58	-0.05124888
213	0xbd8d4000	-0.06896973
214	0xbcb530e0	-0.022118032
215	0xbc1ed04c	-0.0096932165
216	0xbc58031b	-0.013184334
217	0x3bcff802	0.0063467035
218	0xbcfcdb5a	-0.030866314
219	0xbd94322a	-0.072361305
220	0xbcd6b687	-0.026210083
221	0xbd1e132a	-0.038592495
222	0xbd6d8afe	-0.05799388
223	0xbb13d03d	-0.002255454
224	0xbb2f9f6d	-0.0026797906
225	0xbc5cc845	-0.013475482
226	0xbd9d40d3	-0.0767838
227	0x3b462972	0.0030237106
228	0xbd54a5e6	-0.051916026
229	0xbda54755	-0.08070246
230	0xbcacdf4a	-0.021102566
231	0xbca2c4ab	-0.01986917
232	0x3d821a38	0.06352657
233	0xbda01bc2	-0.078177944
234	0xbd0b0d42	-0.03394819
235	0xbd0173a8	-0.03160444
236	0xbb44e8eb	-0.0030046056
237	0xbd4939f1	-0.049127523
238	0x3af6422b	0.001878803
239	0xbce92186	-0.028458368
240	0x3ad9a8ef	0.0016606132
241	0xbc3b584e	-0.011434628
242	0xbd6c0e3f	-0.057630774
243	0xbc805756	-0.015666645
244	0xbdae5ce4	-0.08513811
245	0xbd65f421	-0.056141023
246	0x3c892dc9	0.016745465
247	0xbd87bb73	-0.0662755
248	0xbd134582	-0.03595496
249	0xbd38a90c	-0.04508309
250	0x3bd1f5eb	0.0064074895
251	0xbdaff62e	-0.08591877
252	0x3c8a1e82	0.01686025
253	0xbcbf0494	-0.023317613
254	0xbce9ab98	-0.028524205
255	0xbbed0831	-0.0072336425

seq.2.weight f4 [100, 265]
0	0x3d174c41	0.036937956
1	0x3da1146b	0.078652225
2	0xbcc8e068	-0.024521068
3	0x3dba2f58	0.09091061
4	0xbdde2a5b	-0.108479224
5	0xb8defc51	-0.000106327825
6	0xbd486532	-0.048924632
7	0x3cf5bb94	0.02999667
8	0x3ccf0595	0.025271216
9	0x3d0be2a6	0.034151696
10	0xbc226372	-0.009911405
11	0x3d558b73	0.052134942
12	0x3d5b588f	0.053551253
13	0xbc66b342	-0.014080824
14	0xbd2c5204	-0.042070404
15	0xbd0f8426	-0.035038136
16	0xbe8b5676	-0.27214402
17	0x3cb630f5	0.022240141
18	0x3d9f4d60	0.0777843
19	0x3df6f9c7	0.1205936
20	0x3c377706	0.011197811
21	0xbd5b87e6	-0.0535964
22	0xbeaed502	-0.34146887
23	0xbe81398f	-0.25239226
24	0x3d8125ab	0.06306013
25	0x3e24f7fd	0.16110225
26	0xbe8674a5	-0.26260868
27	0xbd019f6d	-0.03164618
28	0xbd5ead72	-0.05436463
29	0xbe1c039b	-0.1523575
30	0xbcc8d127	-0.024513794
31	0x3d256d93	0.0403877
32	0x3d1e9332	0.038714595
33	0xbcc34462	-0.023836318
34	0xbd000020	-0.03125012
35	0xbeab8af6	-0.33504456
36	0x3d7b6296	0.061373316
37	0x3d6152d5	0.055010635
38	0xbbf2abe7	-0.0074057463
39	0x3c9a1bb9	0.018812047
40	0x3d0eb3b8	0.034839362
41	0xbdbae2b6	-0.09125273
42	0xbcccd219	-0.025002526
43	0xbd708643	-0.058721792
44	0xbd2a2434	-0.041538432
45	0xbe09ad1d	-0.13444944
46	0xbeb419ef	-0.35176036
47	0x3d284f3e	0.041091196
48	0xbcef1ecf	-0.029189495
49	0xbc92424d	-0.01785388
50	0x3d6ee8cb	0.058327477
51	0xbd35aa4c	-0.04435186
52	0xbdebbd4d	-0.11510716
53	0x3d8f8745	0.070082225
54	0xbb920ab0	-0.0044568405
55	0xbdaecc58	-0.08535069
56	0xbd043e2f	-0.032285865
57	0xbdcd1704	-0.100141555
58	0x3d34099d	0.04395448
59	0xbbb7532e	-0.0055946326
60	0xbf00e56f	-0.5035009
61	0xbe3c009c	-0.18359607
62	0xbd17774c	-0.036979005
63	0xbd4040fc	-0.046936974
64	0xbc06d645	-0.008229797
65	0xbe2d99e5	-0.16953237
66	0xbe1b0c6a	-0.15141454
67	0xbcb15733	-0.021648025
68	0xbd175764	-0.036948577
69	0xbe877e8d	-0.26463738
70	0xbe1cfd55	-0.15331014
71	0xbd62b00c	-0.055343673
72	0x3dc9296d	0.098223545
73	0x3d31ab29	0.04337612
74	0xbd0213a3	-0.03175701
75	0xbcd6601e	-0.02616888
76	0xbd147f0e	-0.03625398
77	0xbe2defa6	-0.1698595
78	0xbe85e485	-0.2615091
79	0xbd9ac070	-0.07556236
80	0xbc7556b4	-0.014974285
81	0x3cd90dd7	0.026495857
82	0x3e489918	0.1958965
83	0xbe1248b2	-0.14285544
84	0x3cf6e945	0.030140528
85	0x3b1bc4f7	0.0023768523
86	0xbdbeab96	-0.09310071
87	0xbe54d086	-0.2078267
88	0x3d018947	0.03162506
89	0xbf1b2b93	-0.60613364
90	0xbe1128a0	-0.14175653
91	0x3cb9bc6e	0.022672858
92	0x3d39404d	0.045227338
93	0x3cbc84b1	0.023012491
94	0x3dbdba23	0.092640184
95	0xbd039b77	-0.032130685
96	0xbd25fc81	-0.04052401
97	0x3d5d6875	0.054054696
98	0xbc59d3ec	-0.013295155
99	0xbcdc1852	-0.026867066
100	0xbe13f127	-0.14447461
101	0x3ce4c7fa	0.027927388
102	0xbd27453c	-0.04083751
103	0xbd069dc4	-0.0328653
104	0x3ce2fa62	0.027707282
105	0xbd33a05c	-0.043854102
106	0xbe5078b1	-0.2035854
107	0x3b95b958	0.004569214
108	0x3e06ce76	0.13164696
109	0x3deb813b	0.11499258
110	0x3cca4cd4	0.024694838
111	0x3cffec6e	0.031240668
112	0xbe1e13f1	-0.15437295
113	0xbd289c5f	-0.041164752
114	0x3d7efbf9	0.06225202
115	0x3d02f291	0.03196961
116	0xb9816e74	-0.0002468709
117	0x3e163847	0.14669906
118	0xbd7ae87a	-0.061256863
119	0x3d41a891	0.047279898
120	0xbca780ce	-0.020447161
121	0x3df65bbb	0.12029215
122	0x3ddcca60	0.107807875
123	0x3d9858f8	0.074388444
124	0x3d7b0195	0.061280806
125	0x3d0e7d59	0.03478751
126	0x3c82d0ae	0.015968647
127	0xbda4cdc3	-0.080470584
128	0x3e064aa3	0.13114409
129	0xbd6587ad	-0.056037594
130	0xbd18d179	-0.037309144
131	0xb9f6ccf5	-0.0004707348
132	0x3cf04edc	0.029334478
133	0x3e08c8e7	0.13357888
134	0x3b1b1795	0.002366518
135	0x3d84cec3	0.06484749
136	0x3c7b3fb5	0.015335013
137	0xbd592f3f	-0.053023573
138	0xbd1acd5f	-0.037793513
139	0xbd3455f6	-0.04402729
140	0xbe14a300	-0.14515305
141	0xbd6509f2	-0.055917688
142	0xbc7738cd	-0.015089226
143	0x3c847dc1	0.016173245
144	0xbdcde6dc	-0.100537986
145	0xbcecf074	-0.02892325
146	0xbd04a00f	-0.032379206
147	0x3c157802	0.00912285
148	0x3c8849c8	0.016636744
149	0xbc328b6e	-0.0108975
150	0x3e2e72f6	0.17036042
151	0x3c26a907	0.010172135
152	0xbcf6fdb6	-0.030150276
153	0x3ce47448	0.027887478
154	0x3ac1fa35	0.0014799299
155	0x3b27e831	0.0025620575
156	0x398d4d14	0.00026951043
157	0xbcfdd9cf	-0.030987648
158	0x3d946905	0.072465934
159	0xbe969ced	-0.294166
160	0xbe76c1cd	-0.24097367
161	0x3db457a3	0.08805778
162	0xbef58fed	-0.4796137
163	0xbed19e04	-0.4094087
164	0x3d4b1d25	0.04958834
165	0x3db8de41	0.090267666
166	0xbbeaf0ef	-0.007169835
167	0xbc6559f4	-0.013998497
168	0x3d6dd9dc	0.058069095
169	0xbe50b850	-0.2038281
170	0x3cba850f	0.022768525
171	0xbc1aea22	-0.009455236
172	0xbe537518	-0.20650136
173	0x3c8bc1a4	0.017060108
174	0xbea3a77f	-0.31963727
175	0xbe030a05	-0.12796791
176	0xbd279a9f	-0.040918943
177	0xbd3e7cac	-0.046505615
178	0xbd412f12	-0.04716403
179	0xba8a6626	-0.0010559007
180	0x3d4b19dd	0.049585212
181	0xbc2d373c	-0.010572251
182	0x3d807758	0.06272763
183	0x3de83ff4	0.11340323
184	0x3d6711f1	0.056413595
185	0x3ce1af97	0.027549548
186	0x3d40a899	0.047035787
187	0xbd0d559d	-0.034505475
188	0xbb42b73f	-0.0029711274
189	0x3c0ef3ee	0.00872515
190	0x3cfc8e86	0.03082968
191	0xbd566945	-0.052346487
192	0xbce1b990	-0.027554303
193	0x3dd92d90	0.106043935
194	0xbc8f1074	-0.0174639
195	0x3d3bf10c	0.045884177
196	0x3d292df8	0.041303605
197	0x3dbb3fc8	0.09143025
198	0xbcd52c75	-0.026022175
199	0xbe37f209	-0.17963423
200	0xbcc3726d	-0.023858273
201	0xbced6cc7	-0.028982533
202	0xbe3eaf38	-0.18621528
203	0x3dd69fa0	0.10479665
204	0x3d2191aa	0.039445557
205	0xbe2658ed	-0.1624486
206	0xbda87334	-0.08225098
207	0xbdafbbbe	-0.08580731
208	0x3b9a8e96	0.0047167046
209	0x3e2b8892	0.16751316
210	0xbdd42b52	-0.10359825
211	0x3d7aea93	0.061258864
212	0xbd09877d	-0.033576477
213	0xbc8d4b98	-0.01724796
214	0x3d82d7b0	0.063887954
215	0xbcc2d06d	-0.023781026
216	0xbd2132a1	-0.039354924
217	0xbd10bc2b	-0.0353357
218	0xbdb76032	-0.08953895
219	0x3d8a686d	0.06758199
220	0xbce98bd7	-0.028509064
221	0xbd435124	-0.047684804
222	0x3c1e3965	0.009657239
223	0x3c224e6f	0.009906395
224	0xbc15d8ae	-0.009145899
225	0x37fffbf4	3.0515694e-05
226	0x3d6b48a3	0.05744232
227	0xbe6d1b10	-0.23154855
228	0x3ce134b2	0.027490947
229	0x3dd064f1	0.10175503
230	0x3cf206a1	0.029544177
231	0x3d48b544	0.049000993
232	0xbdf04697	-0.11732214
233	0x3d75dfaf	0.060027774
234	0x3dc52d1e	0.09627746
235	0xbbe15a7f	-0.006877243
236	0x3c93f7d0	0.018062502
237	0x3b140140	0.0022583753
238	0x3d133322	0.035937436
239	0xbe3cac25	-0.18425043
240	0xbe8dc739	-0.27691057
241	0x3e84e2ff	0.25954434
242	0x3cc4ce85	0.024024257
243	0x3d230798	0.039802164
244	0xb9fb9cce	-0.0004799128
245	0xbd76d81e	-0.0602647
246	0x3e82c90a	0.25544006
247	0xbef11a38	-0.47090316
248	0x3bd16823	0.006390588
249	0xbeb9a58a	-0.3625911
250	0xbe8bca9b	-0.27303013
251	0x3d7a158f	0.061055716
252	0xbd28c9fa	-0.041208245
253	0x3d5dba26	0.054132603
254	0xbebff486	-0.37491244
255	0xbd058fd7	-0.03260788

seq.2.bias f4 [100]
0	0xbdb8b122	-0.090181604
1	0x3d3441ac	0.044007942
2	0x3c9ffab9	0.019528734
3	0xbc3907ce	-0.011293365
4	0xbd8671b5	-0.06564657
5	0xbd3ccd52	-0.046094246
6	0xbdbda638	-0.09260219
7	0xbc59fa06	-0.013304239
8	0x3baa6b78	0.0052007996
9	0xbd4200a0	-0.047363877
10	0xbdaa530b	-0.083166204
11	0xbc2061dd	-0.009788957
12	0xbd4e2c55	-0.050335247
13	0xbcf2fce5	-0.029661605
14	0xbd7d8c50	-0.06190139
15	0xbd6ce99b	-0.05783997
16	0xbd036699	-0.032080267
17	0xbd9b56e7	-0.07584935
18	0x3c940c63	0.018072313
19	0xbd97a560	-0.0740459
20	0xbdc3f7cd	-0.095687486
21	0xbd901fec	-0.070373386
22	0xbd83ebc6	-0.064414546
23	0xbdd75c03	-0.10515597
24	0xbe66c556	-0.22536215
25	0x3cdb3403	0.0267582
26	0xbe1badd7	-0.15203033
27	0xbe1e46a1	-0.1545663
28	0xbbb043a2	-0.005379156
29	0xbd323a92	-0.04351289
30	0xbd4e1166	-0.05030956
31	0xbe3809db	-0.1797251
32	0xbd9b629d	-0.07587168
33	0xbe4c280b	-0.1993715
34	0xbba58d90	-0.005052276
35	0xbe095936	-0.13412938
36	0xbdb80646	-0.089855716
37	0xbdacf276	-0.08444683
38	0xbdbcdbae	-0.09221588
39	0xbe1f93b0	-0.15583682
40	0xbd6dcf9b	-0.058059316
41	0xbc313b9b	-0.010817434
42	0xbd4450aa	-0.04792849
43	0xbd02a488	-0.03189519
44	0x3ccee814	0.025257148
45	0xbdad2fb8	-0.08456367
46	0xbe048172	-0.12940004
47	0xbca6fe92	-0.02038506
48	0xbe02c54e	-0.12770578
49	0xbdf87021	-0.12130762
50	0xbd61edfb	-0.055158596
51	0xbd4b8b09	-0.04969314
52	0xbdb34bad	-0.087546684
53	0x3d5a4c35	0.053295333
54	0xbd5e366f	-0.05425113
55	0xbd826f70	-0.06368911
56	0x3beebfde	0.007286056
57	0xbc87a463	-0.016557878
58	0xbd167823	-0.036735665
59	0x3b335bb6	0.0027367896
60	0xbd4a5f62	-0.04940737
61	0xbdaa2072	-0.0830697
62	0xbdc84ab0	-0.097798705
63	0xbd55f576	-0.052236043
64	0xbdb0844b	-0.08618983
65	0x3d2e6c22	0.042583592
66	0xbe251d03	-0.16124348
67	0x3b3f068d	0.0029148192
68	0xbd709dff	-0.058744427
69	0xbdb703f1	-0.08936299
70	0xbd9809a6	-0.07423715
71	0xbd81430c	-0.06311616
72	0x3d57fd8b	0.05273203
73	0xbdce9386	-0.100867316
74	0xbe225215	-0.15851624
75	0xbd25bb24	-0.040461674
76	0xbd45e40b	-0.04831318
77	0xbe1027ee	-0.14077732
78	0xbdaf29f4	-0.08552924
79	0xbd5f41bf	-0.05450606
80	0xbd704b1e	-0.058665387
81	0x3b6a4665	0.0035747525
82	0xbda6d589	-0.08146197
83	0x3b3e8d23	0.0029075823
84	0x3b959be7	0.004565704
85	0xbd7d7ef3	-0.061888646
86	0xbc1f50b5	-0.009723832
87	0xbdb1cbc4	-0.08681443
88	0xbddb4532	-0.10706557
89	0xbdf4be10	-0.11950314
90	0xbd994a38	-0.07484859
91	0xbdc31544	-0.095255405
92	0xbdd214da	-0.10257883
93	0x3c6925b5	0.014230181
94	0xbc73d205	-0.0148816155
95	0x3cba59b0	0.022747844
96	0xbddc42de	-0.107549414
97	0xbd466445	-0.04843547
98	0xbdac6980	-0.0841856
99	0xbd21054a	-0.039311685

seq.4.weight f4 [100, 100]
0	0xbe8383b0	-0.25686407
1	0xbdb4f146	-0.08835082
2	0x3e0b26cb	0.13589017
3	0xbe71c061	-0.23608543
4	0x3e46e2af	0.1942241
5	0x3d1b7ba8	0.037959725
6	0xbdf8b72a	-0.12144311
7	0x3d9eeee6	0.0776041
8	0x3dd8b4a9	0.10581333
9	0x3d00c835	0.031440932
10	0xbe4d6913	-0.20059614
11	0x3dd62748	0.10456711
12	0xbd784f35	-0.060622413
13	0xbd95e927	-0.07319861
14	0xbdf0eb29	-0.11763603
15	0x3d776379	0.0603976
16	0xbd7781c9	-0.060426507
17	0xbe2175bb	-0.15767567
18	0x3d8b94fd	0.06815527
19	0x3e152908	0.14566433
20	0x3da2e11b	0.07953092
21	0xbe06d2d6	-0.13166365
22	0x3dc537b1	0.09629763
23	0x3d8cceb3	0.06875362
24	0x3df71e4f	0.12066328
25	0xbc9ba827	-0.01900108
26	0xbe8cf36a	-0.2752946
27	0x3d80fd14	0.06298271
28	0x3e4714e8	0.19441569
29	0xbe0cc702	-0.1374779
30	0xbe14fbeb	-0.14549224
31	0xbcdb1375	-0.026742676
32	0xbd39c8c5	-0.045357484
33	0xbd1ea228	-0.038728863
34	0x3e54a42d	0.20765753
35	0xbeb4839b	-0.35256657
36	0xbd8c935b	-0.06864043
37	0x3e09b566	0.13448104
38	0x3e1aedad	0.15129729
39	0xbd807070	-0.06271446
40	0x3e562444	0.20912272
41	0x3e0bb1c5	0.13642032
42	0xbe0b899e	-0.13626716
43	0xbd66847a	-0.056278683
44	0xbcd4e86c	-0.025989734
45	0x3da7a951	0.081865914
46	0xbd3c5a85	-0.045984764
47	0xbeceeb72	-0.40414006
48	0x3d05f6c6	0.032706045
49	0xbe5b537c	-0.21418566
50	0x3d9e9965	0.077441014
51	0xbec96b85	-0.39339843
52	0xbe8f0e8f	-0.27940795
53	0xbd993455	-0.07480685
54	0xbe253163	-0.16132121
55	0xbdfa9d7f	-0.12237071
56	0xbd4f0d72	-0.05054993
57	0x3db7c5aa	0.08973248
58	0x3e0c74b9	0.13716401
59	0x3cfa494f	0.030552534
60	0xbdeedf6d	-0.11663709
61	0x3d8967f2	0.06709279
62	0xbde4f465	-0.11179427
63	0x3e0dbe17	0.13842045
64	0x3d0c0746	0.034186624
65	0xbe12adf0	-0.14324164
66	0xbe0334a8	-0.12813056
67	0xbe6d18c7	-0.23153983
68	0xbda3096e	-0.07960783
69	0x3e42e579	0.1903285
70	0xbe24025a	-0.16016522
71	0x3d13f50f	0.036122378
72	0x3d804290	0.06262696
73	0xbda677af	-0.081282966
74	0xbd9c5237	-0.07632869
75	0x3d89d39b	0.06729814
76	0xbe37106b	-0.17877357
77	0x3df637dd	0.12022374
78	0x3e762b2d	0.24039908
79	0x3dc51821	0.09623743
80	0x3e14780e	0.14498922
81	0x3e4a43d6	0.1975244
82	0x3cae19a1	0.021252455
83	0x3ea328ab	0.31866965
84	0xbdb0996c	-0.08623013
85	0x3d60f0cc	0.05491714
86	0xbd9e8ea7	-0.077420525
87	0xbef56ca7	-0.47934458
88	0xbd3fb7b7	-0.046806064
89	0x3e3ba4c1	0.18324567
90	0xbe20677c	-0.15664476
91	0xbb7a839b	-0.0038225416
92	0xbe471451	-0.19441344
93	0x3e05c530	0.13063502
94	0xbea36c84	-0.31918728
95	0x3dc41247	0.095737986
96	0xbe9fcc26	-0.3121044
97	0x3d426a65	0.047464747
98	0x3d5212f2	0.0512876
99	0x3e260013	0.16210966
100	0xbc88e848	-0.016712323
101	0xbb79d554	-0.0038121538
102	0x3db98766	0.09059028
103	0x3e3a6e12	0.18206051
104	0xbeb93860	-0.36175823
105	0xbd90759a	-0.07053681
106	0x3e37db1b	0.17954676
107	0x3e8f4624	0.279832
108	0x3e826706	0.25469226
109	0x3d018080	0.031616688
110	0xbd01b0fe	-0.031662934
111	0xbc908322	-0.017640654
112	0xbd66594f	-0.056237515
113	0xbe91cb8f	-0.28475615
114	0x3d608b36	0.054820262
115	0x3d75ac63	0.059978854
116	0xbd15e25d	-0.03659283
117	0x3d4000ca	0.046875753
118	0x3e1b6824	0.15176445
119	0xbd4b7ec6	-0.049681447
120	0x3ca8a3b1	0.020585867
121	0x3e7edd5a	0.24889126
122	0xbe2154b7	-0.15754972
123	0xbe9c6876	-0.30548447
124	0xbe2d2497	-0.16908489
125	0xbcb0a646	-0.02156366
126	0x3e172a19	0.14762153
127	0x3e0372ba	0.12836733
128	0x3e1ad4d8	0.15120256
129	0xbec08468	-0.37601018
130	0x3d48505e	0.04890477
131	0x3b23900e	0.002495769
132	0x3d26fae3	0.040766608
133	0x3c096070	0.008384809
134	0xbe22cd57	-0.15898643
135	0x3e1536e7	0.14571725
136	0xbe341885	-0.17587478
137	0x3c861cb0	0.016371101
138	0xbee0bad9	-0.43892553
139	0x3a125016	0.0005581392
140	0xbced0761	-0.028934183
141	0x3df0df0e	0.11761294
142	0xbd6b0115	-0.05737408
143	0x3dff4812	0.12464918
144	0xbe7b85c8	-0.24562752
145	0xbedf8ac7	-0.43660566
146	0x3eb2aa59	0.3489559
147	0xbe35a5cf	-0.17739032
148	0xbdd56a92	-0.10420717
149	0x3d8c5bd9	0.06853456
150	0x3bab4a31	0.00522735
151	0xbd1dce22	-0.03852666
152	0x3e1d26e6	0.1534687
153	0x3db9c66d	0.0907105
154	0x3c695010	0.01424028
155	0xbcc48a07	-0.023991598
156	0x3ec4a128	0.38404202
157	0xbe8948d2	-0.2681337
158	0x3e0250f4	0.12726194
159	0xbbde2f11	-0.006780513
160	0xbebcd61c	-0.36882102
161	0x3dc7ce69	0.097561665
162	0x3c9b60d6	0.018967073
163	0x3c8efdae	0.017454948
164	0x3e8a21a5	0.26978794
165	0xbe23874f	-0.15969585
166	0x3c8bb5ba	0.017054427
167	0x3d5822f6	0.052767716
168	0xbcb36278	-0.02189754
169	0xbdd82daf	-0.105555885
170	0x3ccd246d	0.025041783
171	0x3db42e9d	0.08797953
172	0xbe5f33b6	-0.2179707
173	0x3daba78d	0.08381567
174	0x3e55341b	0.20820658
175	0xbd5515f1	-0.052022878
176	0x3dccca02	0.099994674
177	0xbdbd96ae	-0.092572555
178	0x3dcbf4e0	0.099588156
179	0xbe124797	-0.14285122
180	0x3e502da5	0.20329912
181	0xbca85825	-0.020549843
182	0xbc4e710a	-0.012600193
183	0xbc424b3b	-0.011858757
184	0x3d9bfada	0.076162055
185	0xbe230891	-0.15921237
186	0xbd5dac35	-0.054119308
187	0x3dd2331e	0.10263656
188	0x3de615cd	0.11234627
189	0xbeb36529	-0.35038117
190	0xbe88bd91	-0.26707128
191	0xbe0a7e0e	-0.13524649
192	0x3b6b50f3	0.0035906404
193	0xbee29b60	-0.44259167
194	0x3ec0ffa5	0.3769504
195	0xbe16a3c2	-0.14710906
196	0x3e63805a	0.22216931
197	0xbebdfb54	-0.3710581
198	0x3dcd9f44	0.10040143
199	0xbe4ec381	-0.20191766
200	0xbd786170	-0.0606398
201	0x3ce4dcab	0.027937254
202	0x3dddd08b	0.10830792
203	0x3c2e3272	0.010632144
204	0xbcfbbada	-0.030728746
205	0xbde37992	-0.11107172
206	0x3d16ccbd	0.036816347
207	0xbccc58b6	-0.024944644
208	0x3ea33861	0.3187895
209	0xbd17a829	-0.037025604
210	0xbd8a50c5	-0.06753687
211	0xbd9deb75	-0.077109255
212	0x3d6796c1	0.056540255
213	0xbd716755	-0.058936436
214	0x3d1d6745	0.038428564
215	0x3daf93d3	0.08573117
216	0xbdb3c493	-0.08777728
217	0x3e6e2b9f	0.23258828
218	0x3c78b3bc	0.015179571
219	0xbd9f6dd5	-0.07784621
220	0x3c2098af	0.009802028
221	0xbe2700e3	-0.16308932
222	0x3d8f543e	0.0699849
223	0x3c9d77e5	0.01922221
224	0x3e381d95	0.17980035
225	0x3d740730	0.059577167
226	0x3de7ca5a	0.113178924
227	0xbe168f76	-0.14703164
228	0xbdd424da	-0.103585914
229	0xbc9917ce	-0.018688109
230	0xbe07b519	-0.13252677
231	0x3e260723	0.1621366
232	0x3cc96690	0.024585038
233	0x3d9e744f	0.07737028
234	0x3e751b84	0.23936278
235	0xbe80e884	-0.25177395
236	0xbdd0c4de	-0.101937994
237	0x3e085665	0.13314207
238	0xbd589210	-0.05287367
239	0xbf1bfe2f	-0.6093473
240	0xbe41e373	-0.18934421
241	0xbde2c570	-0.110728145
242	0x3eb6be03	0.35691842
243	0xbeac7163	-0.33680257
244	0xbd87fbde	-0.06639837
245	0x3be3d030	0.006952308
246	0xbdf48b02	-0.11940576
247	0x3e5f6a00	0.2181778
248	0x3ddff04a	0.109345034
249	0x3db3d063	0.08779981
250	0x3de9dbe9	0.11418898
251	0xbdb3003b	-0.08740278
252	0x3dc98b97	0.09841078
253	0xbe0ebe6d	-0.13939829
254	0x3eaa5658	0.33269
255	0xbdd2087f	-0.10255527

seq.4.bias f4 [100]
0	0xbc4b1604	-0.012395386
1	0x3dd52b8f	0.10408699
2	0x3b623772	0.0034517911
3	0x3d3d8881	0.04627276
4	0x3dcc2450	0.099678636
5	0xbd5e8cc2	-0.054333456
6	0xbdac7e94	-0.0842258
7	0xbda8fd19	-0.082513995
8	0xbe2384d5	-0.1596864
9	0xbe172e5a	-0.14763775
10	0xbe00e03c	-0.12585539
11	0xbd12ec5b	-0.035869937
12	0x3c9cf146	0.019158017
13	0x3d32d0f2	0.043656297
14	0xbc8c85df	-0.017153678
15	0xbd13c772	-0.036078878
16	0xbdbbd0c0	-0.09170675
17	0xbd2a756b	-0.041615885
18	0xbcac6d5b	-0.021048239
19	0xbdd3c257	-0.10339802
20	0xbd9e5674	-0.077313334
21	0x3d820d07	0.06350141
22	0x3e019b86	0.12656984
23	0xbe45bf10	-0.19311166
24	0x3a1c85d3	0.0005970869
25	0x3cd9bebf	0.026580213
26	0xbdbaf503	-0.091287635
27	0xbc435baf	-0.011923715
28	0xbd824df8	-0.063625276
29	0x3ccd2ce9	0.025045829
30	0xbda190de	-0.07888959
31	0xbe16aa8e	-0.14713499
32	0xbe327a1d	-0.17429395
33	0x3ce49576	0.0279033
34	0x3cc6e8cf	0.024280934
35	0xbde5f265	-0.11227874
36	0xbda9d53d	-0.08292625
37	0xbd03c665	-0.032171626
38	0xbd43306d	-0.047653604
39	0x3db5bbe1	0.08873726
40	0xbdb043b4	-0.08606663
41	0x3dc85ff0	0.097839236
42	0xbdfb8574	-0.122813135
43	0xbd92d81d	-0.071701266
44	0xbd7f78f2	-0.0623712
45	0x3d680894	0.056648806
46	0xbdaed50c	-0.08536729
47	0x3ced8625	0.02899463
48	0x3c35bc5e	0.0110922735
49	0x3daed23b	0.08536192
50	0x3cbc9e0f	0.023024587
51	0x39f33c82	0.00046393654
52	0x3ac80a84	0.0015261923
53	0xbdf6669f	-0.12031292
54	0xbdb6393a	-0.08897634
55	0xbd9d3226	-0.07675581
56	0xbe011748	-0.12606537
57	0x3d2e2955	0.042519886
58	0xbdbfe03a	-0.0936894
59	0x3db1b98c	0.086779684
60	0xbd0bd155	-0.03413518
61	0xbdbeaffa	-0.093109086
62	0xbce6578d	-0.02811792
63	0xbd80e097	-0.06292837
64	0xbdbc8936	-0.092058584
65	0xbe055591	-0.13020922
66	0xbdd55666	-0.1041687
67	0xbdcb7515	-0.09934441
68	0xbdba377a	-0.090926126
69	0xbea6d2a7	-0.3258259
70	0xbdcb40e9	-0.0992449
71	0xbdb43356	-0.08798854
72	0xbdcccbf2	-0.09999837
73	0x3d8eba56	0.069691345
74	0x3e0a904b	0.13531606
75	0x3c21fca6	0.009886896
76	0xbd8388cb	-0.064225756
77	0xbd8ef4de	-0.069802985
78	0xbd9d678a	-0.07685764
79	0xbc06e9a6	-0.008234417
80	0x3c92de39	0.01792823
81	0xbd4e750f	-0.050404605
82	0xbdf31034	-0.11868325
83	0xbe2e172d	-0.17001028
84	0xbe183bb9	-0.14866532
85	0x3d5113af	0.051044162
86	0xbe5f6e36	-0.21819386
87	0x3d0927ca	0.03348521
88	0xbdc9e5cf	-0.09858286
89	0xbd41a303	-0.0472746
90	0xbd574bf1	-0.052562658
91	0xbe168eaf	-0.14702867
92	0x3dcc43f5	0.09973899
93	0x3c588d98	0.013217352
94	0xbb85d99c	-0.004084779
95	0xbdebed91	-0.115199216
96	0xbdc0439a	-0.09387894
97	0xbe2c409b	-0.1682152
98	0xbd4169b8	-0.047219962
99	0xbd93e541	-0.07221461

seq.6.weight f4 [50, 100]
0	0xbda43c71	-0.08019341
1	0xbe98171c	-0.2970513
2	0x3df1b5cd	0.11802254
3	0x3dbc5282	0.091954246
4	0xbcc48e78	-0.023993716
5	0xbcfea445	-0.03108419
6	0x3dcf7f19	0.10131664
7	0xbe03bb98	-0.1286453
8	0xbe8af33e	-0.27138704
9	0xbd3523e4	-0.04422368
10	0x3d3d9e40	0.046293497
11	0xbe3d09c4	-0.18460757
12	0x3d89e03f	0.06732225
13	0x3e9e4b65	0.30916896
14	0x3e40fcc4	0.18846422
15	0xbc96ceeb	-0.018409213
16	0xbbf4f216	-0.007475148
17	0x3e24aa8f	0.16080688
18	0xbc3eb128	-0.011638917
19	0xbee23e9a	-0.44188386
20	0xbe60b571	-0.21944214
21	0x3d5afcd1	0.05346376
22	0x3e4ac42d	0.19801398
23	0xbe7cfd18	-0.24705923
24	0x3ec7d578	0.3903005
25	0x3dfbb03b	0.12289473
26	0xbe499bda	-0.19688359
27	0x3e01ecbe	0.12687966
28	0x3d2ebe5e	0.042662017
29	0xbd32762d	-0.043569732
30	0x3db46a45	0.08809332
31	0x3c8ffc57	0.01757638
32	0xbdf37c55	-0.11888949
33	0x3dc547ed	0.096328594
34	0x3dd6f238	0.10495418
35	0xbe1ccf80	-0.1531353
36	0xbeae1b7f	-0.34005353
37	0x3e815b4a	0.2526496
38	0x3e4a6762	0.19766
39	0x3c903e4b	0.017607829
40	0xbd2aab8d	-0.04166751
41	0xbe8f0992	-0.2793699
42	0x3bb93bae	0.0056528663
43	0xbdf01829	-0.11723358
44	0x3e0e1f1e	0.13879058
45	0xbde03836	-0.109482214
46	0xbdeb65cd	-0.11494026
47	0xbccdec5a	-0.025137115
48	0x3da9e73d	0.08296058
49	0xbe427fd2	-0.18994072
50	0x3cc418e8	0.023937657
51	0xbd47e15d	-0.048798908
52	0xbb777da3	-0.0037764094
53	0x3dc2af20	0.09506059
54	0x3de004d0	0.10938418
55	0xbe2bfde1	-0.16796066
56	0x3d05a9d0	0.03263265
57	0xbdcb352c	-0.09922251
58	0xbd055b82	-0.03255797
59	0xbe2f3e0e	-0.17113516
60	0x3e8f045c	0.27933013
61	0xbd3fa2ec	-0.046786234
62	0x3e993275	0.29921308
63	0xbe213435	-0.15742572
64	0x3e3b793f	0.1830797
65	0xbe5511d8	-0.20807588
66	0xbca2233d	-0.019792194
67	0x3e1ea157	0.15491234
68	0x3c1ab89d	0.009443429
69	0x3e2af819	0.16696204
70	0x3bdc9925	0.0067321234
71	0xbc69f7c7	-0.014280266
72	0x3e02d1d3	0.12775354
73	0xbd594111	-0.053040568
74	0xbedeef75	-0.43542066
75	0xbe82288d	-0.25421563
76	0xbbbaeb40	-0.0057043135
77	0x3df8f2c1	0.12155677
78	0x3dca8e38	0.09890407
79	0x3e32af7c	0.17449754
80	0x3ccd513a	0.025063146
81	0x3e3cda46	0.1844264
82	0x3dbb2f81	0.0913992
83	0x3e83a85d	0.25714388
84	0xbdd2d8cf	-0.10295259
85	0x3db9a439	0.09064526
86	0x3e0385df	0.12844037
87	0x3d97f561	0.07419849
88	0x3e89c35a	0.26906854
89	0xbe73f5ff	-0.23824309
90	0xbe39c2b8	-0.18140686
91	0x3e5d4aae	0.2161052
92	0x3eba9798	0.36443782
93	0xbed54ff0	-0.4166255
94	0xbe9c506b	-0.30530104
95	0xbdc1c0b8	-0.09460586
96	0xbbba6ed2	-0.0056894803
97	0x3cd2258a	0.025652666
98	0x3d8d3163	0.068941854
99	0x3e29091f	0.16507386
100	0x3e264a30	0.16239238
101	0xbe06d5f1	-0.1316755
102	0xbde7f43e	-0.113258824
103	0x3de1d446	0.11026816
104	0xbdec8d50	-0.11550391
105	0x3d59e2aa	0.05319468
106	0xbcdca31c	-0.026933245
107	0xbd93f937	-0.07225268
108	0xbeb021d9	-0.34400824
109	0x3d46c60c	0.048528716
110	0xbd525e9d	-0.05135976
111	0xbd294991	-0.041329924
112	0xbe2972ae	-0.16547653
113	0x3de84312	0.11340918
114	0xbecbc87b	-0.39801392
115	0xbe0c1a3c	-0.13681883
116	0x3d09c80a	0.033638038
117	0xbd8a1dcf	-0.06743967
118	0xbdd2ec80	-0.10299015
119	0xbda9bbda	-0.08287783
120	0x3dcbf488	0.0995875
121	0x3cdacc0b	0.026708623
122	0x3da39fbb	0.079894505
123	0xbcc8947c	-0.024484865
124	0x3d3dd0e5	0.046341795
125	0x3eb3bdf1	0.3510585
126	0xbe48b58e	-0.19600508
127	0x3e40295f	0.18765782
128	0x3e01a663	0.12661128
129	0xbd8cb726	-0.0687087
130	0xbd20aa74	-0.039225057
131	0xbd345f93	-0.04403646
132	0x3c47ea84	0.012201909
133	0x3db42d8a	0.087977484
134	0xbd84e958	-0.06489819
135	0xbd036eeb	-0.0320882
136	0xbe2c3c7b	-0.16819946
137	0x3dd85388	0.10562807
138	0xbe8ce7f4	-0.27520716
139	0x3e8673db	0.26260266
140	0x3ec235ce	0.37931675
141	0x3da43dce	0.08019601
142	0xbbeb90e5	-0.0071889036
143	0x3de36f04	0.11105159
144	0x3cb17598	0.021662518
145	0x3e3a1533	0.1817215
146	0xbe8989e4	-0.26863015
147	0x3d28469b	0.04108296
148	0x3dc52bea	0.096275166
149	0xbc271215	-0.010197182
150	0x3e00089c	0.12503284
151	0xbe72ba30	-0.23703837
152	0x3e036340	0.1283083
153	0x3de905c0	0.1137805
154	0x3de511dd	0.11185048
155	0xbd630570	-0.055425107
156	0xbdf55128	-0.1197837
157	0x3d232b52	0.039836235
158	0xbdcab7f2	-0.09898366
159	0x3ecbe2be	0.39821428
160	0xbd763dbd	-0.060117472
161	0xbe8e48c9	-0.27789906
162	0x3ceadb73	0.028669095
163	0xbd2643b2	-0.040591903
164	0x3da67a12	0.08128752
165	0xbd84f5e2	-0.06492211
166	0x3da67685	0.081280746
167	0x3c475444	0.012166087
168	0x3c9b882a	0.018985827
169	0x3e784d2b	0.24248187
170	0x3e31af73	0.17352085
171	0x3e513001	0.20428468
172	0xbe251a7e	-0.16123387
173	0xbd5ebcf7	-0.05437943
174	0x3db94e03	0.09048083
175	0xbe8d09db	-0.27546582
176	0x3c4dacb6	0.0125533845
177	0xbe033dfb	-0.12816612
178	0xbe1c1403	-0.15242009
179	0xbb26ce05	-0.0025452387
180	0x3e69faff	0.22849654
181	0xbdd55469	-0.104164906
182	0xbc86f2be	-0.01647317
183	0x3d8aafd3	0.06771817
184	0x3e0b1580	0.1358242
185	0x3e151f22	0.14562657
186	0x3de97ae2	0.11400391
187	0x3e158d9f	0.14604805
188	0xbe08633d	-0.13319106
189	0xbe9a9c84	-0.30197537
190	0xbe8b918c	-0.2725948
191	0x3e46f654	0.19429904
192	0xbd090de1	-0.0334605
193	0x3d496640	0.04916978
194	0x3e1fa1f1	0.1558912
195	0xbd44d93c	-0.048058733
196	0x3c1e7fee	0.0096740555
197	0x3d6921f6	0.056917153
198	0xbd80bc25	-0.06285886
199	0xbd313555	-0.043263752
200	0xbcc507d7	-0.02405159
201	0xbc814711	-0.015780957
202	0x3b50b088	0.0031843502
203	0x3e2e25dc	0.1700663
204	0xbc91683b	-0.017749896
205	0x3b3db6ee	0.0028948146
206	0xbe06def4	-0.13170987
207	0x3d84a513	0.06476798
208	0x3e034272	0.12818316
209	0x3d923439	0.07138867
210	0xbdb80985	-0.08986191
211	0xbeef1e82	-0.46702963
212	0x3d0c6d76	0.034284078
213	0xbdcfa63d	-0.10139129
214	0x3cae8c40	0.02130711
215	0x3d8c3ca4	0.06847504
216	0xbd8cde49	-0.06878335
217	0x3e2f1db6	0.17101178
218	0xbd81681f	-0.06318688
219	0x3b540cc3	0.003235624
220	0xbd009725	-0.031394143
221	0xbdae4f13	-0.08511176
222	0xbe0ad3ea	-0.13557401
223	0xbe14bda0	-0.14525461
224	0xbed86c0d	-0.42269936
225	0x3ce5e7ec	0.02806469
226	0xbd276d41	-0.040875677
227	0xbdb833e8	-0.08994275
228	0x3e1810e7	0.14850198
229	0x3be855e7	0.0070903185
230	0xbc0fc214	-0.008774299
231	0xbc4f1700	-0.012639761
232	0xbdb416ec	-0.087934345
233	0x3a868a23	0.0010264557
234	0xbd266fd8	-0.040634006
235	0xbdb5a6e1	-0.0886972
236	0x3d7cfb26	0.06176295
237	0xbd9fd355	-0.0780398
238	0x3c984a41	0.018590095
239	0x3d897073	0.06710901
240	0xbaecd02a	-0.0018067409
241	0xbda9ad27	-0.08284979
242	0x3d60fe16	0.054929815
243	0x3e19a0de	0.15002772
244	0xbd4f4511	-0.050602976
245	0x3c8bbe7f	0.017058609
246	0x3d70f0f4	0.05882354
247	0xbea319cd	-0.31855622
248	0xbd4b6a35	-0.049661834
249	0xbea68f8c	-0.32531393
250	0xbd06fe50	-0.032957375
251	0xbe9b98ab	-0.30389914
252	0xbd7acc40	-0.061229944
253	0xbccf4dd7	-0.025305672
254	0xbcd60577	-0.026125653
255	0xbdebf73e	-0.11521767

seq.6.bias f4 [50]
0	0xbda34562	-0.07972218
1	0x3d8d12cb	0.0688835
2	0xbd3923a6	-0.045200013
3	0x3d9b8f24	0.07595661
4	0xbdf548d9	-0.11976785
5	0x3bd54759	0.0065087494
6	0x3de1dc39	0.11028332
7	0xbd4e98f0	-0.05043882
8	0x3d65e98d	0.056130935
9	0x3db04cbf	0.08608388
10	0x3cc058ed	0.023479903
11	0x3db679fa	0.08909984
12	0xbdbdf47f	-0.092751496
13	0xbda437e6	-0.08018474
14	0xbdcce4cf	-0.10004579
15	0x3d95f1b6	0.07321493
16	0x3c2cff6b	0.010558943
17	0xbcf22398	-0.029557988
18	0x3dccac97	0.099938564
19	0xbcecb9e6	-0.028897237
20	0x3e2abae4	0.16672856
21	0x3d8d3063	0.06893995
22	0xbd80f436	-0.062965795
23	0xbd38cf21	-0.04511941
24	0x3d6c81d1	0.05774099
25	0xbda22cdf	-0.07918715
26	0xbd533ae0	-0.05156982
27	0x3bac53ac	0.005258998
28	0xbd31a93f	-0.043374296
29	0x3cb8192d	0.022472942
30	0xbc50ed99	-0.01275196
31	0x3d7bff0e	0.061522536
32	0xbd8b680f	-0.06806957
33	0x3daf2c71	0.085533984
34	0xbcb6ad70	-0.022299498
35	0x3c9dfd54	0.019285835
36	0x3da60045	0.0810552
37	0x3d8f5dd0	0.07000315
38	0xbc010ff9	-0.007877343
39	0x3d8206f0	0.063489795
40	0x3d9abd58	0.07555646
41	0x3d5554f9	0.05208299
42	0xbdf9bc5a	-0.12194128
43	0x3be890b2	0.007097327
44	0x3de05f33	0.10955658
45	0x3d8aab73	0.067709826
46	0x3d6782fa	0.056521393
47	0x3e1c82c6	0.15284261
48	0x3d927c6d	0.071526386
49	0x3e480a94	0.19535285

seq.8.weight f4 [20, 50]
0	0xbe054422	-0.13014272
1	0x3d71b8d8	0.05901417
2	0x3d634c02	0.05549241
3	0x3c422390	0.011849299
4	0xbd2ac5e3	-0.041692626
5	0x3db7d553	0.08976235
6	0xbe475e7e	-0.1946964
7	0xbe312f2c	-0.17303151
8	0x3d14d245	0.03633334
9	0x3e0b4253	0.1359952
10	0x3e31eee1	0.17376281
11	0xbe57a161	-0.21057655
12	0x3d79d947	0.060998227
13	0xbc89edb6	-0.016836982
14	0xbb025c5e	-0.001989148
15	0x3dc3d572	0.09562196
16	0x3e4a4fb3	0.19756965
17	0xbcd32739	-0.025775539
18	0x3d5545f7	0.052068677
19	0xbd8ae4f2	-0.06781949
20	0x3e2ee60a	0.1707994
21	0xbd62d31d	-0.055377115
22	0x3c0a6365	0.008446549
23	0xbd76847b	-0.060184937
24	0x3e2d1b58	0.16904962
25	0x3e4ee95e	0.2020621
26	0xbe62b123	-0.22137885
27	0xbc1c6d1d	-0.009547499
28	0x3a5284ac	0.0008030634
29	0x3e93ba4e	0.28853077
30	0xbd1e389d	-0.03862821
31	0x3c896d15	0.016775647
32	0x3d85d403	0.06534579
33	0x3e68cfc5	0.22735508
34	0x3d9838d5	0.07432715
35	0x3e6788b7	0.22610746
36	0x3e5a4101	0.2131386
37	0xbe126a98	-0.14298475
38	0x3d599a65	0.053125758
39	0x3df7f35b	0.12106963
40	0x3d832b25	0.064047135
41	0x3e0ebc1c	0.13938946
42	0x3e90a45e	0.28250402
43	0x3dd02147	0.10162597
44	0x3ce04869	0.027378278
45	0xbe29435e	-0.16529605
46	0xbe2228da	-0.15835896
47	0xbca4a33b	-0.020097366
48	0xbced7cc9	-0.028990166
49	0x3dac60b4	0.08416882
50	0xbdb8e6da	-0.090284064
51	0xbdb79ca0	-0.08965421
52	0x3d24244d	0.04007368
53	0xbe23c3c4	-0.15992647
54	0x3d8590b0	0.065217376
55	0x3b5e02f2	0.0033876267
56	0x3e4d4b82	0.20048335
57	0x3e1afd86	0.15135774
58	0x3e4b2812	0.19839504
59	0x3d13862b	0.036016624
60	0x3db28607	0.0871697
61	0x3d4f8d8b	0.050672095
62	0x3e0ba0ed	0.13635607
63	0xbe021861	-0.12704612
64	0xbd99a590	-0.07502282
65	0x3e01562c	0.12630528
66	0xbe2a9276	-0.16657433
67	0xbdce0062	-0.10058667
68	0xbd22a511	-0.0397082
69	0x3dc0f2dc	0.09421322
70	0xbe6eed3e	-0.23332688
71	0x3e8ea3b2	0.27859265
72	0xbd065e22	-0.032804616
73	0x3dec1258	0.11526936
74	0xbdef7bd5	-0.11693541
75	0xbc095576	-0.008382192
76	0xbe1216d1	-0.14266516
77	0xbdc77ea4	-0.09740952
78	0x3e2fde80	0.17174721
79	0x3e374ac5	0.17899616
80	0xbe6c8cbe	-0.23100564
81	0xbe66c29e	-0.22535178
82	0x3daff88f	0.08592331
83	0xbe3c0dde	-0.18364665
84	0xbc0eeeee	-0.008723957
85	0xbe29d66b	-0.165857
86	0xbdc721b1	-0.09723223
87	0x3e4300cf	0.19043277
88	0xbde987ec	-0.11402878
89	0x3e08c6bd	0.13357063
90	0xbd1d8e0d	-0.03846555
91	0xbcaf5e2c	-0.02140721
92	0x3d2667bd	0.040626276
93	0xbd848d47	-0.06472259
94	0xbe9a01f3	-0.30079612
95	0x3da62eda	0.08114405
96	0xbe08aacd	-0.13346405
97	0x3dc03ccf	0.09386598
98	0x3eabac9f	0.33530137
99	0x3dd5108f	0.10403549
100	0x3dd1099a	0.102069095
101	0xbb46df30	-0.0030345432
102	0x3dcced19	0.1000616
103	0xbc9135b8	-0.01772581
104	0xbd9bed09	-0.0761357
105	0x3d26412d	0.0405895
106	0x3ea0aad1	0.31380323
107	0x3e365f8d	0.17809887
108	0xbd2f1599	-0.042745207
109	0xbef0b213	-0.4701086
110	0xbd60d0f3	-0.05488677
111	0xbd4a377b	-0.049369317
112	0x3d26fc2d	0.040767837
113	0xbe00fd31	-0.12596585
114	0xbd86d7ed	-0.06584153
115	0x3d504e4b	0.050855916
116	0x3d88037c	0.066412896
117	0x3e03c4e7	0.12868081
118	0x3e8c9344	0.27456105
119	0xbda8370e	-0.08213626
120	0x3e8c728d	0.27431145
121	0xbd883247	-0.06650215
122	0xbdf0a64f	-0.11750471
123	0xbe69de2d	-0.2283866
124	0xbd21d377	-0.03950831
125	0x3cf8855a	0.030337024
126	0x3c831ed9	0.01600592
127	0xbc97b502	-0.018518928
128	0xbdcff97d	-0.10155008
129	0xbedfdf29	-0.43724945
130	0x3dd7c7c8	0.10536152
131	0xbe837c0b	-0.25680575
132	0xbd55e282	-0.052217968
133	0x3d9cd234	0.076572806
134	0x3d82d62a	0.06388505
135	0x3de4aea3	0.11166122
136	0x3d33fa67	0.043939974
137	0xbed226cd	-0.41045228
138	0xbe3a9652	-0.18221405
139	0xbe516c65	-0.20451505
140	0x3e25ab36	0.16178593
141	0xbd92cc8c	-0.071679205
142	0xb70a4cda	-8.243334e-06
143	0x3e28ee92	0.16497257
144	0x3e86fe31	0.26365808
145	0xbb424bff	-0.0029647348
146	0x3e4dd47f	0.20100592
147	0xbe8e994e	-0.27851337
148	0x3c88f565	0.016718576
149	0xbea79299	-0.32729033
150	0xbd84b894	-0.06480518
151	0xbd0ba797	-0.034095373
152	0x3d46c3fe	0.048526756
153	0xbade43db	-0.0016957478
154	0xbd5b5646	-0.053549074
155	0x3df84a66	0.121235654
156	0xbee83b61	-0.45357803
157	0xbd1d4c0f	-0.038402613
158	0xbdb24008	-0.08703619
159	0x3da63ed8	0.08117455
160	0x3dd161da	0.10223742
161	0x3d8b59f9	0.0680427
162	0x3d4f28ab	0.050575893
163	0x3d6b6d9e	0.057477586
164	0xbdfe0700	-0.12403679
165	0xbee46da9	-0.44614914
166	0xbd4d125a	-0.05006633
167	0xbe048f0c	-0.12945193
168	0xbcb6e4cc	-0.022325896
169	0x3c67b920	0.014143258
170	0x3e2b1f00	0.16711044
171	0xbe50f6cb	-0.20406644
172	0x3c1ec9e5	0.00969169
173	0x3dec94bd	0.11551807
174	0xbda05722	-0.07829119
175	0x3d34f9c0	0.044183493
176	0xbe3e4339	-0.18580331
177	0x3e108c27	0.14115964
178	0x3e0acec7	0.13555442
179	0x3c490f41	0.012271703
180	0xbc82188f	-0.015880851
181	0x3d2cea85	0.042215843
182	0x3dc7d3c2	0.097571865
183	0xbe247870	-0.16061568
184	0x3e2b48b8	0.16726959
185	0x3d9c03d4	0.07617918
186	0xbdc1a32c	-0.09454951
187	0x3d1d54b5	0.03841086
188	0x3c5e1c08	0.013556488
189	0x3e8be1fc	0.2732085
190	0xbe5d0775	-0.21584876
191	0xbe360a3f	-0.17777346
192	0xbd9ed663	-0.07755735
193	0xbdf95ef6	-0.121763155
194	0x3ee42602	0.44560248
195	0xbe43dead	-0.19127913
196	0xbdd3901c	-0.10330221
197	0x3ce37c3a	0.027769197
198	0xbdd1c716	-0.10243051
199	0xbdcb13e3	-0.099159025
200	0x3dd8b676	0.10581677
201	0xbd84b0a6	-0.064790055
202	0xbb383826	-0.002810964
203	0xbd48fd18	-0.049069494
204	0x3e180e30	0.14849162
205	0x3e26628b	0.16248529
206	0xbe52b7f5	-0.20577987
207	0xbd4d216d	-0.050080705
208	0xbd46d501	-0.04854298
209	0xbe5132ea	-0.20429578
210	0x3dad0527	0.08448248
211	0x3bba0844	0.005677255
212	0xba8c4900	-0.0010702908
213	0x3d83504e	0.06411801
214	0xbe06ca98	-0.13163221
215	0x3bb13274	0.005407626
216	0xbcb33935	-0.021877864
217	0xbdb5afec	-0.08871445
218	0xbe834abb	-0.25642952
219	0x3da6502b	0.081207596
220	0xbe915c37	-0.28390667
221	0x3d9232db	0.07138606
222	0x3dd076ba	0.10178895
223	0x3e1ecd80	0.1550808
224	0xbe1714e1	-0.14754058
225	0x3d85977a	0.065230325
226	0x3d29564f	0.041342076
227	0x3de2b0d6	0.11068885
228	0x3e1808af	0.14847063
229	0x3db56b5d	0.088583685
230	0xbdfbf1bc	-0.123019665
231	0xbe996c53	-0.29965457
232	0x3d7d3a12	0.06182296
233	0x3d5f8ad3	0.054575752
234	0xbe097298	-0.1342262
235	0x3d8fb135	0.070162214
236	0xbdba7683	-0.091046356
237	0xbe5261bf	-0.205451
238	0xbd51aa8c	-0.051188037
239	0x3dab13da	0.08353396
240	0xbc34f1eb	-0.011044006
241	0x3cd5e0fa	0.026108254
242	0x3c4ca6fc	0.012490984
243	0x3ddf18bc	0.108933896
244	0xbe06df7e	-0.13171193
245	0x3c59690a	0.013269672
246	0xbd3cae6f	-0.04606479
247	0xbbe0339c	-0.00684209
248	0x3e3eb738	0.1862458
249	0xbde29140	-0.110628605
250	0xbe504d16	-0.20341906
251	0xbe32438e	-0.17408583
252	0x3d88bf5e	0.066771254
253	0x3cd8eff8	0.026481614
254	0xbd8a940c	-0.06766519
255	0x3c7bcf46	0.015369242

seq.8.bias f4 [20]
0	0xbd34e4cc	-0.04416351
1	0x3e084cff	0.13310622
2	0xbd07af87	-0.03312638
3	0xbd59c987	-0.053170707
4	0xbe832591	-0.25614598
5	0x3d8c1eb2	0.06841792
6	0xbd79b022	-0.06095899
7	0x3e10d09e	0.14142081
8	0x3e3a1f57	0.18176018
9	0x3dc691e1	0.09695793
10	0xbd1ba4d0	-0.037998974
11	0xbd9e3690	-0.07725251
12	0xbd437d20	-0.04772675
13	0x3dca2807	0.09870916
14	0x3da11c0b	0.07866677
15	0xbda00739	-0.078138776
16	0x3dda77fa	0.10667415
17	0xbc5c815d	-0.013458577
18	0xbdba5af0	-0.09099376
19	0x3cf87e9c	0.03033381
