submission/checkpoint_all.pth (torch, 730751 bytes, 31 tensors)

seq.0.weight f4 [265, 510]
-0.00033152103 0.02375412 -0.03916582 -0.03258793 -0.01977465 0.011874206 -0.0008773431 0.032388967
-0.0039296523 0.00899751 -0.013382221 -0.008704063 -0.045024313 -0.029326346 -0.020973274 0.0016403161
0.017505739 0.023848701 -0.030019736 -0.02200235 0.016083524 0.036770195 -0.011833736 0.0331358
-0.009857051 0.0046855286 0.040095158 -0.043798704 -0.027876409 -0.013930075 -0.017260632 0.038258597
-0.031422637 -0.020383883 -0.033656064 -0.04147162 -0.025848463 0.035342876 0.01975888 0.01874193
0.0023287944 -0.022702008 0.0047708647 -0.0413447 -0.03471552 -0.022828052 0.027938403 0.023241986
-0.01963829 -0.004317489 0.028320223 0.04402096 0.014853486 0.0059820116 0.026969895 -0.026072606
0.008251451 -0.037051875 -0.030690372 -0.025594443 0.02003584 0.017807964 -0.028950565 0.013377529
0.021589138 -0.005588997 0.0016907081 0.0075392984 0.027470738 0.039798364 -0.034123786 -0.016227553
0.014682017 0.036688782 0.03581368 0.03907142 0.008812513 -0.041226536 0.004073497 -0.030422028
-0.041267622 0.03934311 0.030948546 -0.04417128 0.005568367 -0.007459536 -0.0072868913 -0.02299057
0.017028432 -0.028947402 0.016232938 0.02239313 0.028978577 0.016557064 -0.04654599 -0.028724782
0.022110045 0.006547262 -0.034542702 -0.028217474 0.041657083 0.0271164 -0.019307518 -0.011144791
-0.04490155 -0.0007959083 -0.03334601 -0.036877017 -0.0024398528 0.0039287684 -0.018134305 0.023554448
-0.026946565 0.04017902 0.027625797 -0.037341196 -0.011020783 -0.0007226937 0.006460607 0.00778248
0.017377015 -6.833156e-05 -0.02160585 0.020953164 -0.045196053 -0.026245493 -0.011084791 -0.024290496
-0.015490882 -0.039013248 -0.009419184 0.006744538 -0.028847389 -0.0022724606 0.028978612 -0.00455207
0.0012306608 -0.006540808 0.008961599 0.025435645 0.041944765 0.025399994 0.042040735 -0.003202457
-0.04249814 -0.020992493 0.030150987 -0.0030078052 -0.022009583 -0.036652666 -0.041440226 -0.04009408
-0.008981764 0.024283826 0.021220198 -0.042705763 0.02762153 -0.03737087 -0.009361405 -0.02067445
-0.008529149 -0.0114149535 -0.039735325 -0.038233675 -0.009648818 0.0005726479 -0.02011563 0.013959766
-0.039855257 -0.005708215 0.038941346 -0.020782515 0.03998565 0.01603644 -0.04268144 0.028016306
-0.0051097535 -0.022487981 0.035409242 -0.038502906 0.0047515407 -0.011991755 0.03162144 0.012360729
0.018557345 0.015638143 -0.0106484 -0.0120332325 -0.03649094 0.021273397 0.03515794 0.027577233
-0.031234676 0.001974918 -0.033934806 -0.02437585 -0.025802633 0.012411973 -0.02638748 -0.0036859552
0.0018628091 0.025823634 -0.033472702 -0.030399274 -0.028431917 0.030993573 -0.015917378 0.034629535
0.016012251 0.002887206 -0.0003296286 -0.011474238 0.0055557415 -0.010111272 -0.0030309272 0.005649913
-0.034636624 -0.025929684 0.03575638 -0.03865581 -0.0031796321 0.04108346 0.015995845 0.0012537241
-0.04109393 0.021935701 -0.031540323 -0.015290474 -0.014856914 -0.009277343 0.0004843548 0.03652309
0.0028071983 0.039661944 0.024367329 -0.027994905 0.019860096 -0.03402266 -0.018767294 0.010304029
0.0146211535 0.033220656 -0.016975427 7.088855e-05 0.02007707 -0.04282356 0.032014124 -0.039337512
0.0006102994 -0.010248431 -0.02332147 0.005852632 0.03389581 -0.012944128 -0.029008865 -0.01637674
00000000: 00d0 adb9 0098 c23c 576c 20bd ec7a 05bd
00000010: 72fe a1bc 088c 423c 80fd 65ba 4baa 043d
00000020: 50c4 80bb 4b6a 133c 1a41 5bbc 7c9b 0ebc
00000030: 6a6b 38bd ce3d f0bc 25d0 abbc e0ff d63a
00000040: 3268 8f3c 5a5e c33c f3eb f5bc 463e b4bc
00000050: 98c1 833c 589c 163d 49e2 41bc 68b9 073d
00000060: 787f 21bc 1089 993b d23a 243d 4566 33bd
00000070: 115d e4bc f83a 64bc 2b66 8dbc 0cb5 1c3d
00000080: 06b5 00bd 1afc a6bc f1da 09bd 25de 29bd
00000090: 28c0 d3bc b1c3 103d 60dd a13c ad88 993c
000000a0: b09e 183b 90f9 b9bc ea54 9c3b 0f59 29bd
000000b0: dc31 0ebd e501 bbbc 14df e43c fa65 be3c
000000c0: 7be0 a0bc b979 8dbb d0ff e73c 524f 343d
000000d0: 095c 733c c004 c43b f8ef dc3c 3896 d5bc
000000e0: 1831 073c b5c3 17bd 606a fbbc 70ab d1bc
000000f0: 3422 a43c 02e2 913c bc29 edbc 6c2d 5b3c
00000100: b4db b03c e823 b7bb c09a dd3a 380c f73b
00000110: 500a e13c 9c03 233d 62c5 0bbd a5ef 84bc
00000120: d88c 703c fa46 163d 5eb1 123d 5a09 203d
00000130: 5c62 103c 28dd 28bd f87a 853b 9e37 f9bc
00000140: 3d08 29bd 3e26 213d ce87 fd3c f2ec 34bd
00000150: d976 b63b 206f f4bb e0c6 eebb b856 bcbc
00000160: 367f 8b3c 1a23 edbc f0fa 843c cc71 b73c
00000170: 7b64 ed3c aea2 873c 02a7 3ebd 3c50 ebbc
00000180: 2020 b53c 6a8a d63b a67c 0dbd 5528 e7bc
00000190: 9ea0 2a3d 3623 de3c cd2a 9ebc a498 36bc
000001a0: b0ea 37bd 80a4 50ba d395 08bd 5b0c 17bd
000001b0: f0e5 1fbb e6bc 803b 658e 94bc 42f5 c03c
000001c0: 0bbf dcbc c292 243d 7f4f e23c 15f3 18bd
000001d0: 8490 34bc 2773 3dba 80b3 d33b 2d04 ff3b
000001e0: 3e5a 8e3c 3a4d 8fb8 c0fe b0bc f8a5 ab3c
000001f0: 7f1f 39bd ca00 d7bc fc9c 35bc ddfc c6bc
00000200: 78cd 7dbc 5bcc 1fbd ec52 1abc 4901 dd3b
00000210: 5c51 ecbc 90ed 14bb 8e64 ed3c 8829 95bb
00000220: 204e a13a 4654 d6bb acd3 123c 6a5e d03c
00000230: 46ce 2b3d a613 d03c e832 2c3d 50e0 51bb
00000240: 8812 2ebd 73f8 abbc 34ff f63c 991e 45bb
00000250: 714d b4bc 1b21 16bd 3abd 29bd b139 24bd
00000260: 4028 13bc e0ee c63c fbd5 ad3c 3dec 2ebd
00000270: 8c46 e23c 3312 19bd 9460 19bc 775d a9bc
00000280: d8bd 0bbc c905 3bbc 82c1 22bd ea9a 1cbd
00000290: 1316 1ebc c01d 163a 89c9 a4bc 81b7 643c
000002a0: 443f 23bd fa0b bbbb f680 1f3d 1840 aabc
000002b0: fec7 233d da5e 833c bcd2 2ebd 7482 e53c
000002c0: b86f a7bb b738 b8bc 4809 113d 39b5 1dbd
000002d0: d0b2 9b3b 1179 44bc 7c85 013d a884 4a3c
000002e0: 9305 983c 901b 803c a076 2ebc 0927 45bc
000002f0: 8677 15bd 8c45 ae3c c601 103d a6e9 e13c
00000300: dddf ffbc a06d 013b 39ff 0abd ddaf c7bc
00000310: 0b60 d3bc 975b 4b3c 8e2a d8bc 1190 71bb
00000320: 8029 f43a 168c d33c ac1a 09bd e607 f9bc
00000330: 0dea e8bc 3ce6 fd3c 2965 82bc b3d7 0d3d
00000340: 202c 833c 4737 3d3b 00d2 acb9 71fe 3bbc
00000350: f00c b63b c0a9 25bc 85a2 46bb e822 b93b
00000360: 22df 0dbd 7d6a d4bc 4875 123d 8e55 1ebd
00000370: 6061 50bb 2147 283d b809 833c 0054 a43a
00000380: 1c52 28bd 80b2 b33c 6d30 01bd e584 7abc
00000390: 6a6a 73bc ffff 17bc 00f1 fd39 3c99 153d
000003a0: f9f8 373b 9074 223d fe9d c73c 9255 e5bc
000003b0: a4b1 a23c 585b 0bbd debd 99bc 3bd2 283c
000003c0: 908d 6f3c 6212 083d 0d10 8bbc 00aa 9438
000003d0: ab78 a43c c267 2fbd 3e21 033d 5f20 21bd
000003e0: 80fc 1f3a 09e9 27bc ab0c bfbc 70c7 bf3b
000003f0: 55d6 0a3d 9c13 54bc 00a4 edbc 8328 86bc

seq.0.bias f4 [265]
0.034458198 -0.019239102 -0.042509872 -0.03945423 -0.037739098 -0.014775684 0.040931597 -0.041377783
-0.042866606 -0.03514803 0.009587199 -0.017400129 -0.014030235 0.017964529 0.018793926 -0.009794295
-0.039184365 0.01366769 -0.013372258 0.015093885 0.0013646078 -0.006592065 0.0009642266 -0.010635434
-0.04676533 -0.020370794 0.020245938 -0.010052633 0.017619105 -0.041170992 0.027787283 -0.015455533
0.011870983 -0.040020198 0.045738164 0.040905517 0.037660122 0.036487482 -0.036520407 -0.035707176
0.0017389826 0.013787448 -0.012954928 -0.02555223 -0.018631877 0.023284594 -0.020180736 -0.033307243
0.017072674 -0.03320957 -0.024070969 0.038819358 -0.025403118 0.031272992 0.009180829 -0.028926186
-0.0017345361 -0.021905819 -0.03887597 -0.014474482 -0.028095873 -0.018517476 -0.04291607 -0.040690444
-0.00013924192 -0.043075114 0.0145450635 0.020466283 -0.029308952 0.01627131 0.000525685 -0.04141705
-0.03262817 -0.017004116 0.004867442 -0.00089794246 -0.017858163 -0.024883881 0.035436414 -0.018845588
-0.021184742 0.01217258 -0.00042612985 -0.016066061 -0.0024035918 0.040679835 -0.020464733 0.039240457
-0.00010337419 -0.035185732 0.032214284 0.021061433 0.0018622428 0.025001785 -0.0073694945 0.03294844
0.029362097 0.026464436 0.022954777 -0.016053319 -0.035246722 -0.009534981 0.029870065 -0.020066941
0.04260239 0.01598656 -0.036063943 -0.0112608895 0.023097493 0.022621458 -0.022378322 -0.028182488
0.020060068 0.011790395 -0.044307224 -0.03440094 -0.038506176 -0.007732349 0.018359676 -0.0018005306
-0.039019614 -0.03102024 -0.04520931 0.036050495 -0.010723069 -0.015922958 -0.036171958 0.014351069
0.036290348 0.014310557 0.0075466773 -0.020450542 -0.0318697 0.019695463 -0.006705918 -0.019402677
0.039329294 -0.014903017 -0.042519122 0.03283883 0.01092427 -0.029335503 0.0075880177 0.03897555
0.028107312 0.016222956 0.018729553 -0.01884278 0.037842236 0.01877337 -0.0034283847 -0.039747503
-0.010123656 0.0067396984 -0.015088734 0.014482065 -0.04064433 0.018333863 0.011075912 -0.0043528583
0.014791632 0.020831006 0.021379799 -0.03824584 0.046148982 -0.02544438 -0.014372372 -0.016220711
0.008520092 -0.0059848055 0.023981793 0.032360666 0.024818912 -0.006891864 -0.03951434 0.038587444
-0.03674198 0.032161735 -0.0428297 0.01641359 0.007818865 -0.03793256 -0.046363793 0.004776298
-0.033485778 -0.03178095 -0.03496153 -0.012190229 0.017695388 -0.03686082 -0.03829297 0.008188164
-0.019228628 -0.0044120126 -0.00027802133 0.017188508 -0.03219498 0.005033272 -0.02394734 -0.028943006
0.037343103 -0.0072584767 0.026304454 0.022833508 -0.041051783 0.009955582 0.039843477 -0.0040047597
0.03389751 0.046496775 0.04499237 -0.024606615 -0.0015361104 -0.021163559 0.0056529082 -0.0019215778
0.002995357 0.015090567 -0.0058802813 -0.040902365 -0.015313845 -0.011845279 -0.03527172 -0.00038420633
0.017867068 -0.012076786 -0.011585489 0.016003378 -0.0146140475 -0.0414465 0.029766139 0.0073118433
0.04149127 -0.034576457 0.03141763 -0.02597928 0.033185042 -0.036407452 0.013765094 0.0023355037
-0.00241173 -0.0060131648 -0.041058436 0.018673932 -0.041864388 -0.031827424 0.02293731 -0.028471159
0.0025025331 -0.032336134 0.025592016 -0.033548266 0.0360431 0.022443997 -0.0074944384 -0.0065884874
00000000: 0a24 0d3d 529b 9dbc d51e 2ebd c29a 21bd
00000010: 5094 1abd b615 72bc e4a7 273d c07b 29bd
00000020: e594 2fbd 61f7 0fbd a113 1d3c b78a 8ebc
00000030: 12df 65bc 592a 933c b8f5 993c 4078 20bc
00000040: c97f 20bd 72ee 5f3c 5117 5bbc 584c 773c
00000050: a4dc b23a 4002 d8bb 27c4 7c3a 3e40 2ebc
00000060: 018d 3fbd a7e0 a6bc cfda a53c ccb3 24bc
00000070: f155 903c eaa2 28bd 28a2 e33c 3439 7dbc
00000080: 837e 423c 38ec 23bd f157 3b3d 8b8c 273d
00000090: 8041 1a3d e673 153d 6c96 15bd b041 12bd
000000a0: 93ee e33a c0e4 613c e840 54bc e952 d1bc
000000b0: e1a1 98bc 55bf be3c 1252 a5bc 2d6d 08bd
000000c0: fedb 8b3c c206 08bd 7b30 c5bc 0c01 1f3d
000000d0: 331a d0bc 1c18 003d 306b 163c 9cf6 ecbc
000000e0: 6059 e3ba d573 b3bc 693c 1fbd 6126 6dbc
000000f0: 5129 e6bc f6b1 97bc c3c8 2fbd 06ab 26bd
00000100: 7801 12b9 886f 30bd 6b4e 6e3c e8a8 a73c
00000110: 5419 f0bc 694b 853c 20ce 093a eda4 29bd
00000120: 1ea5 05bd 374c 8bbc 107f 9f3b e663 6bba
00000130: 484b 92bc 48d9 cbbc c625 113d 1062 9abc
00000140: a08b adbc 806f 473c 2e6a dfb9 f99c 83bc
00000150: 9485 1dbb e69f 263d a8a5 a7bc 9aba 203d
00000160: 98ca d8b8 ea1e 10bd 20f3 033d 0789 ac3c
00000170: 8016 f43a 8bd0 cc3c cd7b f1bb f2f4 063d
00000180: c888 f03c f2cb d83c a80b bc3c 4082 83bc
00000190: de5e 10bd 9c38 1cbc 11b2 f43c 6d63 a4bc
000001a0: d87f 2e3d 3ff6 823c c9b7 13bd 987f 38bc
000001b0: f436 bd3c a350 b93c be52 b7bc f6de e6bc
000001c0: 0355 a43c 802c 413c 7e7b 35bd 00e8 0cbd
000001d0: a7b8 1dbd a55f fdbb 0867 963c c8ff ebba
000001e0: 08d3 1fbd 291e febc 662d 39bd afa9 133d
000001f0: d0af 2fbc dd70 82bc 0c29 14bd bf20 6b3c
00000200: 30a5 143d d476 6a3c 1e4a f73b e587 a7bc
00000210: cd89 02bd 6158 a13c 51bd dbbb 5df2 9ebc
00000220: c117 213d c92b 74bc 8828 2ebd 0282 063d
00000230: b6fb 323c 0251 f0bc e8a4 f83b d4a4 1f3d
00000240: 4e41 e63c 01e6 843c b86e 993c 2c5c 9abc
00000250: 7600 1b3d 9cca 993c c0ae 60bb 47ce 22bd
00000260: b1dd 25bc b0d8 dc3b bd36 77bc 2f46 6d3c
00000270: ab7a 26bd e630 963c be77 353c 6ca2 8ebb
00000280: 9a58 723c c9a5 aa3c b024 af3c aca7 1cbd
00000290: b706 3d3d bb70 d0bc 197a 6bbc 4ce1 84bc
000002a0: db97 0b3c 301c c4bb 7775 c43c 9e8c 043d
000002b0: 0851 cb3c 25d5 e1bb cad9 21bd de0d 1e3d
000002c0: c27e 16bd 06bc 033d 326e 2fbd cb75 863c
000002d0: b21a 003c 2c5f 1bbd f6e7 3dbd 7e82 9c3b
000002e0: 6228 09bd be2c 02bd d233 0fbd 87b9 47bc
000002f0: ebf5 903c 5ffb 16bd 17d9 1cbd a627 063c
00000300: 5b85 9dbc a592 90bb 64c3 91b9 eace 8c3c
00000310: e2de 03bd 25ee a43b 362d c4bc e219 edbc
00000320: 15f5 183d 84d8 edbb 707c d73c 560d bb3c
00000330: ea25 28bd bd1c 233c ea32 233d 5c3a 83bb
00000340: 1ed8 0a3d 6773 3e3d eb49 383d d093 c9bc
00000350: 5057 c9ba 335f adbc 083c b93b 74dd fbba
00000360: c04d 443b 6d3e 773c 60af c0bb 3d89 27bd
00000370: ece6 7abc b312 42bc 1479 10bd 4d6f c9b9
00000380: f55d 923c b6dd 45bc 10d1 3dbc 8419 833c
00000390: c26f 6fbc cec3 29bd 1ed8 f33c 3098 ef3b
000003a0: c0f2 293d 0ba0 0dbd c6af 003d 80d2 d4bc
000003b0: 0aed 073d fb1f 15bd fd86 613c 400f 193b
000003c0: 1d0e 1ebb 150a c5bb e42c 28bd 13fa 983c
000003d0: fe79 2bbd 795d 02bd 07e7 bb3c 593c e9bc
000003e0: 8a01 243b e572 04bd 59a6 d13c e869 09bd
000003f0: eea1 133d 79dc b73c e893 f5bb 3de4 d7bb

seq.2.weight f4 [100, 265]
0.035727758 0.0012798198 -0.023793386 0.028163211 0.032892447 0.001338359 -0.045273747 -0.014309843
0.023363698 0.014194887 -0.029192677 -0.049977034 0.043898974 0.032978915 -0.008977044 0.023170728
-0.04046369 0.016684199 -0.027276268 -0.020195547 -0.010836214 -0.039107546 0.055052284 -0.029899936
0.047285732 0.047560945 -0.04220943 0.0017707609 -0.017549478 0.015891163 -0.030986812 0.04206199
0.016053217 -0.03208962 0.06533753 -0.023775376 0.052516785 -0.045288134 0.027794894 0.012218468
0.017981706 -0.03810424 -0.029648665 0.04548725 -0.03435098 0.030440858 -0.010396715 -0.035229757
-0.02710747 -0.023921976 0.057860624 0.028410535 0.0254102 -0.041819952 0.03722932 0.026371827
-0.048811562 -0.0037246943 0.0201566 -0.0060662264 -0.050190035 -0.016430184 -0.041567653 -0.049275223
-0.05854086 0.03545678 -0.04466115 -0.017793894 0.03223632 -0.007894009 -0.01951426 -0.04652687
0.058267806 -0.056409717 -0.028956715 0.064994566 -0.0404155 -0.015547861 -0.024761485 0.01736558
-0.020230588 0.012238409 0.038961314 -0.037489478 0.059548058 -0.049298745 0.00029784982 -0.060428564
0.012000107 -0.046394937 0.008109547 0.022699019 0.04703289 0.026489161 0.05154249 -0.030572888
-0.04246423 0.0326094 -0.014416654 -0.02732889 -0.010363318 -0.012605114 -0.04490537 -0.04600305
0.030132372 -0.010086813 0.039777037 0.004569214 0.03834744 0.0067202654 0.029152295 -0.034909375
0.03234662 -0.038717743 -0.014401588 0.060798157 -0.018224452 0.034802288 0.016310599 -0.004041569
-0.0040007243 -0.0096963495 -0.030525371 0.0030703552 0.06241231 0.047559988 0.0172983 -0.0107854195
0.012530629 0.036698055 0.039348472 0.012906712 0.012066732 0.0073534227 0.0003628895 0.055968117
0.008869271 -0.034771148 -0.034198776 -0.046602823 0.040645987 -0.05727781 -0.021754477 -0.02794266
-0.0053884224 -0.029904962 -0.029789623 0.010774042 -0.008500587 -0.023561602 0.049256433 -0.044014204
-0.025082938 0.024946857 -0.0015754169 -0.0009511956 0.05820455 -0.037067335 -0.033245187 0.024252806
-0.039755583 0.05226918 0.032567788 -0.05648904 0.0034187534 -0.049643297 -0.04172196 0.039174225
0.05739189 -0.042411156 0.028625855 -0.011618893 -0.026009586 0.029821532 -0.01938157 -0.04957528
-0.050686404 -0.050099563 0.05488693 -0.031011056 0.043179974 -0.0064085126 0.044494174 -0.02366606
0.058036704 0.03167424 0.052561667 -0.02828515 -0.015195591 0.009825502 0.034562916 0.059668828
-0.022642741 0.059508715 -0.014341626 0.017619045 0.0158857 0.03859825 0.06596046 -0.05436981
-0.03654812 -0.030322287 -0.022743486 0.01274665 -0.053394042 -0.052593045 0.014351834 -0.028551353
0.0035720612 0.04274625 -0.018158592 0.06386281 0.03823042 0.0200063 0.024692658 -0.035293866
-0.045314506 -0.029034032 -0.005187474 0.023214076 -0.028999526 -0.052280586 -0.020553086 -0.036744896
0.047460675 0.05240648 0.017844696 0.045150865 -0.020741869 -0.0017403346 0.03250405 0.047955275
-0.041680958 0.030573918 0.017544523 -0.009459293 0.038766436 -0.000446029 -0.010332292 -0.0054537803
-0.046388585 0.012737948 -0.046753198 0.025839683 -0.035181277 -0.028527215 -0.03656238 0.0054262867
-0.023839926 -0.030826172 -0.0044212057 0.006215672 -0.025777273 0.029653057 0.015796434 -0.035533898
00000000: 4557 123d a0bf a73a 59ea c2bc 89b6 e63c
00000010: 3bba 063d e06b af3a f770 39bd d573 6abc
00000020: 3a65 bf3c ac91 683c 7b25 efbc b8b4 4cbd
00000030: 69cf 333d e614 073d 7414 13bc 8ad0 bd3c
00000040: 41bd 25bd 4dad 883c 7b72 dfbc 2271 a5bc
00000050: 608a 31bc 3c2f 20bd 817e 613d b6f0 f4bc
00000060: afae 413d 44cf 423d cce3 2cbd e018 e83a
00000070: ecc3 8fbc 2f2e 823c 0ed8 fdbc 3149 2c3d
00000080: 0982 833c 6870 03bd afcf 853d 94c4 c2bc
00000090: d71b 573d 0d80 39bd 1eb2 e33c f82f 483c
000000a0: 5f4e 933c 3113 1cbd c2e1 f2bc d750 3a3d
000000b0: 9db3 0cbd 1b5f f93c fc56 2abc 144d 10bd
000000c0: 7c10 debc 05f8 c3bc 43ff 6c3d 36bd e83c
000000d0: 0d29 d03c 664b 2bbd c57d 183d bb09 d83c
000000e0: a2ee 47bd 001a 74bb 741f a53c 32c7 c6bb
000000f0: 1194 4dbd 9898 86bc d842 2abd d1d4 49bd
00000100: 8ac8 6fbd 213b 113d 9cee 36bd 80c4 91bc
00000110: 3b0a 043d e055 01bc 5fdc 9fbc f692 3ebd
00000120: 39aa 6e3d e00d 67bd a236 edbc df1b 853d
00000130: b98a 25bd 75bc 7ebc 99d8 cabc 4342 8e3c
00000140: 9eba a5bc 9c83 483c e695 1f3d 918e 19bd
00000150: aae8 733d 7bed 49bd ba28 9c39 f183 77bd
00000160: 199c 443c 9e08 3ebd e8dd 043c 4bf3 b93c
00000170: 8fa5 403d ccff d83c 381e 533d fe73 fabc
00000180: f9ee 2dbd 6f91 053d d433 6cbc d6e0 dfbc
00000190: e8ca 29bc ae85 4ebc b1ee 37bd b26d 3cbd
000001a0: 2ad8 f63c 2943 25bc 3fed 223d 58b9 953b
000001b0: 3512 1d3d ac35 dc3b cbd0 ee3c 22fd 0ebd
000001c0: e47d 043d 7f96 1ebd a3f4 6bbc 7d07 793d
000001d0: 724b 95bc d88c 0e3d ce9d 853c 236f 84bb
000001e0: 8218 83bb 70dd 1ebc 5810 fabc 0338 493b
000001f0: 0da4 7f3d 43ce 423d 2ab5 8d3c 54b5 30bc
00000200: 444d 4d3c b350 163d dd2b 213d ac76 533c
00000210: 8bb3 453c fbf4 f03b 3442 be39 d33e 653d
00000220: 6b50 113c 316c 0ebd 0414 0cbd 9ae2 3ebd
00000230: 687c 263d 239c 6abd 7236 b2bc 01e8 e4bc
00000240: 5d91 b0bb 40fb f4bc 5e09 f4bc 9c85 303c
00000250: 0c46 0bbc 4304 c1bc 1dc1 493d 3d48 34bd
00000260: bc7a cdbc 5a5d cc3c 387e ceba a859 79ba
00000270: e567 6e3d ebd3 17bd 1b2c 08bd d2ad c63c
00000280: c0d6 22bd 3518 563d cd65 053d 0d61 67bd
00000290: 2a0d 603b c556 4bbd a5e4 2abd 2775 203d
000002a0: c213 6b3d 52b7 2dbd c580 ea3c 2b5d 3ebc
000002b0: 0e12 d5bc 494c f43c 19c6 9ebc 730f 4bbd
000002c0: 8c9c 4fbd 3335 4dbd 1ed1 603d e60a febc
000002d0: 7cdd 303d 80fe d1bb 863f 363d 53df c1bc
000002e0: e5b7 6d3d d9bc 013d e74a 573d 42b6 e7bc
000002f0: eef6 78bc 24fb 203c d891 0d3d 4d67 743d
00000300: 457d b9bc 69bf 733d 24f9 6abc d155 903c
00000310: ba22 823c 3319 1e3d 4716 873d e1b2 5ebd
00000320: 7bb3 15bd 7266 f8bc 8c50 babc 53d7 503c
00000330: b6b3 5abd ce6b 57bd f423 6b3c 87e4 e9bc
00000340: 3e19 6a3b b116 2f3d 54c1 94bc 81ca 823d
00000350: 8097 1c3d 41e4 a33c 4248 ca3c 4d90 10bd
00000360: b49b 39bd c7d8 edbc b0fb a9bb 722b be3c
00000370: 6a90 edbc 2b24 56bd f25e a8bc d181 16bd
00000380: 2066 423d 2da8 563d 0a2f 923c 1df0 383d
00000390: daea a9bc f01b e4ba f722 053d c06c 443d
000003a0: a7b9 2abd 2776 fa3c 88b9 8f3c 27fb 1abc
000003b0: 8ec9 1e3d 00d9 e9b9 c648 29bc a0b5 b2bb
000003c0: f501 3ebd d4b2 503c 4880 3fbd bead d33c
000003d0: 3e1a 10bd e8b1 e9bc 6fc2 15bd fece b13b
000003e0: f34b c3bc 2b87 fcbc c3df 90bb d6ac cb3b
000003f0: dc2a d3bc f8ea f23c 8667 813c fe8b 11bd

seq.2.bias f4 [100]
-0.02030092 0.03382915 0.033916272 0.043852255 -0.0020462582 0.036159255 -0.027769845 2.5683574e-05
0.052638702 0.034930352 -0.04693373 0.035325006 -0.0229991 0.050419006 0.016348742 -0.021745173
0.029082565 -0.02126409 0.047239956 0.020769253 0.04365183 -0.04110834 0.04593512 -0.022531498
-0.04959637 0.003461847 -0.004107163 -0.037225768 0.052240364 -0.024383267 -0.015099514 -0.061194908
-0.032571122 -0.05805656 0.026566844 -0.021896737 0.010635439 -0.06203876 0.01833055 -0.054647755
0.0042341207 0.022732882 -0.04071942 0.012628335 0.033935916 0.0011056451 -0.05242055 0.058377136
-0.035732158 -0.057321034 0.02830577 -0.04695473 -0.044899516 0.013272171 0.05024853 0.05279633
0.03412656 -0.016955422 -0.010403664 0.029790876 0.01618465 -0.0064407536 0.0034129657 0.06102578
0.013031092 0.030026713 -0.051965475 0.05560166 -0.00823531 0.029236736 -0.026711391 -0.03018379
0.062376168 0.015074123 -0.040862065 0.013835386 -0.002199255 -0.05548798 -0.05855664 0.014025828
-0.041533355 0.025575735 -0.031230204 0.05420008 -0.0088835955 -0.014889985 0.015732255 -0.012112923
-0.043250013 -0.06357454 -0.058072973 -0.061661564 -0.067485206 0.042417355 0.03629371 0.033247635
0.02238739 -0.055795144 -0.017096642 0.02013254
00000000: 1d4e a6bc 6f90 0a3d caeb 0a3d 6c9e 333d
00000010: 841a 06bb ba1b 143d 967d e3bc 0e73 d737
00000020: ae9b 573d 2113 0f3d 953d 40bd f4b0 103d
00000030: 9c68 bcbc 2984 4e3d cced 853c ef22 b2bc
00000040: 8f3e ee3c 0732 aebc af7e 413d 4824 aa3c
00000050: 43cc 323d 3861 28bd 7726 3c3d fa93 b8bc
00000060: 9025 4bbd 28e0 623b 6195 86bb 0c7a 18bd
00000070: fef9 553d 6bbf c7bc f463 77bc 83a7 7abd
00000080: 4c69 05bd b7cc 6dbd b6a2 d93c c960 b3bc
00000090: 4440 2e3c 5b1c 7ebd f329 963c 53d6 5fbd
000000a0: 61be 8a3b 4f3a ba3c 68c9 26bd 13e7 4e3c
000000b0: 6300 0b3d 4beb 903a eeb6 56bd dd1c 6f3d
000000c0: e25b 12bd 76c9 6abd 81e1 e73c 9a53 40bd
000000d0: 8ee8 37bd 8573 593c 67d1 4d3d f740 583d
000000e0: 4bc8 0b3d 19e6 8abc 2174 2abc ff0b f43c
000000f0: ac95 843c f50c d3bb 10ac 5f3b 2bf6 793d
00000100: 5c80 553c 95fa f53c c0d9 54bd 91be 633d
00000110: 65ed 06bc e181 ef3c d9d1 dabc ff43 f7bc
00000120: 277e 7f3d 74f9 763c fb5e 27bd d1ad 623c
00000130: 6021 10bb 5d47 63bd 16d9 6fbd 96cc 653c
00000140: e11e 2abd 3484 d13c 7cd6 ffbc e700 5e3d
00000150: 808c 11bc 20f5 73bc eee0 803c 4875 46bc
00000160: ed26 31bd 5e33 82bd eddd 6dbd d690 7cbd
00000170: af35 8abd d2bd 2d3d b7a8 143d ac2e 083d
00000180: c265 b73c 7389 64bd 420e 8cbc ffec a43c

seq.4.weight f4 [100, 100]
0.0068767965 -0.013796324 0.09796895 -0.0790785 0.06933184 0.0836452 -0.035012238 0.028081015
0.039341778 -0.007452009 -0.08949333 0.036697403 0.025579337 -0.035692193 0.10460876 0.033589326
0.06527119 -0.0052379523 -0.038309142 -0.05360264 -0.058591045 -0.092478305 0.045273002 0.04279203
0.05335874 0.09649344 0.091063276 0.058286585 0.074893884 -0.0614867 -0.053658094 -0.059179228
0.020401843 0.00944899 0.06317193 0.0038661705 -0.049460746 -0.021395346 0.08897311 -0.013668279
0.09247931 0.001458522 0.013178251 0.039277885 0.05772085 -0.07879733 -0.059030212 -0.06494709
0.055846702 -0.08313038 0.045038633 -0.08931108 -0.07618527 0.013258182 -0.08439065 -0.058860812
0.0714679 0.042923916 0.06886688 -0.0013159426 -0.054384906 0.07365476 -0.00037590993 0.06002446
-0.013477422 -0.013627441 0.0016124882 -0.02716384 -0.090571046 0.08729527 -0.08747368 0.09308831
-0.056147818 -0.071278706 -0.004843954 0.012040709 -0.054321956 0.06668723 0.07169701 0.08551664
0.095245354 0.06622524 0.07500298 -0.03411454 0.037463628 0.08520298 -0.06690047 -0.045942035
0.024869623 0.03355158 -0.024143418 0.057161786 -0.08295838 0.09322419 -0.031819955 0.094286166
-0.06936471 -0.03595793 0.072725095 0.06487626 0.05363816 0.037584182 0.06628282 0.09243297
0.07445723 -0.051687635 0.013529633 0.07815804 0.06849432 0.010809036 -0.07528081 0.033352517
0.024790058 0.07230986 0.047889013 0.0133768525 0.048646703 -0.0046626753 -0.005865303 -0.008408989
0.05909752 0.074118786 -0.07230153 0.05047431 -0.08558358 0.0028493595 -0.012659122 0.00017051662
0.00080976845 -0.07597581 0.03418518 0.04828578 0.0677241 -0.037227355 -0.05823777 0.002389533
-0.06828968 -0.07021484 -0.09758099 -0.013359837 0.05104417 0.06829884 0.076152846 0.016957497
-0.047021363 -0.026982412 0.07616455 -0.07779626 -0.06490411 -0.045407653 0.003348712 0.043402575
0.077946626 -0.016204173 0.056736965 -0.06849658 0.0336247 -0.027411995 0.06500289 0.062547535
-0.07904165 -0.006776617 -0.04019553 -0.039935865 -0.04550267 -0.102075756 -0.029233087 0.07101899
0.016577115 0.07062978 0.09632031 0.074104644 -0.029065637 0.002377905 0.06665752 -0.011772866
0.042079814 0.02982859 0.04430609 0.027696623 0.07839628 0.037287787 -0.056418967 0.01868717
0.08616478 -0.09257986 0.07845283 0.060709633 0.020951524 -0.027831612 -0.07338944 -0.07228075
0.07539656 -0.030085608 -0.016549565 -0.039799444 0.04848743 -0.07870036 0.09190608 -0.03949318
-0.051882207 0.0028815642 0.08731801 0.08233229 0.05369071 0.025065072 0.026570968 0.091213055
0.07415015 -0.057807207 0.04476715 0.028861783 0.0172918 0.0048517957 -0.015216887 -0.0090108365
-0.013392448 0.09686393 -0.072783634 -0.055898428 -0.023403034 -0.09304183 0.0017232746 0.073227875
0.092070825 -0.06080941 0.055711098 0.032977484 0.04032462 -0.029877469 -0.08620574 0.092220135
-0.05192839 -0.066131294 0.06019651 -0.065154865 0.009976484 0.041326784 -0.018139742 -0.009499587
-0.034081697 0.014443174 0.034275405 -0.06900108 -0.028565489 -0.018002734 0.02860517 0.04719352
0.080435835 -0.049890306 0.07844291 -0.06256309 0.031505875 -0.05419339 0.025432818 -0.03958998
00000000: c056 e13b fa09 62bc f2a3 c83d e9f3 a1bd
00000010: dafd 8d3d 2d4e ab3d fe68 0fbd 280a e63c
00000020: d824 213d fb2f f4bb 4748 b7bd 0450 163d
00000030: c28b d13c fa31 12bd 1e3d d63d f694 093d
00000040: e7ac 853d 21a3 abbb 0cea 1cbd 718e 5bbd
00000050: 2afd 6fbd 4465 bdbd 2f70 393d b246 2f3d
00000060: b28e 5a3d 5a9e c53d 627f ba3d eabd 6e3d
00000070: f761 993d 7ad9 7bbd 97c8 5bbd eb65 72bd
00000080: c421 a73c f0cf 1a3c 4960 813d 945f 7d3b
00000090: 5a97 4abd 4b45 afbc 8937 b63d ebf0 5fbc
000000a0: cb65 bd3d e12b bf3a 97e9 573c d9e1 203d
000000b0: b36c 6c3d 7f60 a1bd aac9 71bd fb02 85bd
000000c0: 83bf 643d 4340 aabd 6e7a 383d bae8 b6bd
000000d0: 0607 9cbd d938 593c 01d5 acbd 0918 71bd
000000e0: c35d 923d fdd0 2f3d 140a 8d3d b57b acba
000000f0: b5c2 5ebd 4fd8 963d c715 c5b9 35dc 753d
00000100: 68d0 5cbc a145 5fbc 205a d33a b486 debc
00000110: 507d b9bd ddc7 b23d 6725 b3bd 15a5 be3d
00000120: 41fb 65bd 92fa 91bd 08ba 9ebb 6546 453c
00000130: b380 5ebd 5093 883d e2d5 923d 5923 af3d
00000140: ff0f c33d 19a1 873d 2a9b 993d b0bb 0bbd
00000150: 7673 193d e67e ae3d 1d03 89bd b72d 3cbd
00000160: 61bb cb3c 626d 093d 6bc8 c5bc 7a22 6a3d
00000170: 15e6 a9bd 53ec be3d a455 02bd 1b19 c13d
00000180: 160f 8ebd 9f48 13bd e5f0 943d d8dd 843d
00000190: b0b3 5b3d dff1 193d 4abf 873d 7f4d bd3d
000001a0: 087d 983d 6ab6 53bd 65ab 5d3c 5311 a03d
000001b0: c046 8c3d 6218 313c d32c 9abd a69c 083d
000001c0: 8514 cb3c 3117 943d 4527 443d 962a 5b3c
000001d0: c441 473d 5bc9 98bb ba31 c0bb dbc5 09bc
000001e0: 3e10 723d 97cb 973d d312 94bd 26be 4e3d
000001f0: 7246 afbd 52bc 3a3b 3568 4fbc b5cc 3239
00000200: a446 543a 3599 9bbd c205 0c3d 4fc7 453d
00000210: efb2 8a3d b67b 18bd ba8a 6ebd b699 1c3b
00000220: 76db 8bbd cccc 8fbd 8bd8 c7bd 38e3 5abc
00000230: b113 513d 43e0 8b3d 06f6 9b3d 73ea 8a3c
00000240: 7999 40bd 380a ddbc 29fc 9b3d a553 9fbd
00000250: 72ec 84bd 60fd 39bd 1176 5b3b e6c6 313d
00000260: 7ba2 9f3d 9dbe 84bc 0565 683d ef47 8cbd
00000270: 0eba 093d 1f8f e0bc 3c20 853d ec18 803d
00000280: 97e0 a1bd 620e debb 11a4 24bd ca93 23bd
00000290: 0261 3abd 180d d1bd 3a7a efbc 6772 913d
000002a0: bbcc 873c 59a6 903d 9543 c53d 2dc4 973d
000002b0: 0f1b eebc a0d6 1b3b bd83 883d fbe2 40bc
000002c0: e25b 2c3d 165b f43c 4d7a 353d 07e4 e23c
000002d0: 3b8e a03d 14bb 183d 9317 67bd d615 993c
000002e0: 2977 b03d 829a bdbd e1ab a03d aaaa 783d
000002f0: 88a2 ab3c 1fff e3bc 344d 96bd ee07 94bd
00000300: 8369 9a3d 1876 f6bc f492 87bc be04 23bd
00000310: c19a 463d a82d a1bd 4139 bc3d 9ac3 21bd
00000320: 7082 54bd a0d8 3c3b c9d3 b23d d59d a83d
00000330: caea 5b3d 4455 cd3c 5cab d93c e9cd ba3d
00000340: 09dc 973d 40c7 6cbd c25d 373d 8c6f ec3c
00000350: 88a7 8d3c d0fb 9e3b 4050 79bc 30a2 13bc
00000360: 006c 5bbc 9960 c63d 960f 95bd c0f5 64bd
00000370: b8b7 bfbc b78c bebd 80df e13a 7ff8 953d
00000380: a18f bc3d 4a13 79bd 5231 643d 6613 073d
00000390: 6e2b 253d 98c1 f4bc a38c b0bd e9dd bc3d
000003a0: ddb2 54bd d86f 87bd 9e90 763d ea6f 85bd
000003b0: 6874 233c 4646 293d cc99 94bc 28a4 1bbc
000003c0: 4099 0bbd 10a3 6c3c 5e64 0c3d 7050 8dbd
000003d0: 2c02 eabc 787a 93bc 6455 ea3c fe4d 413d
000003e0: 8bbb a43d c759 4cbd ada6 a03d 1421 80bd
000003f0: 4e0c 013d e3f9 5dbd 7c58 d03c 1a29 22bd

seq.4.bias f4 [100]
-0.008666517 0.08564579 -0.08611353 0.09550069 0.08425509 -0.036200184 -0.06251649 0.059323497
-0.062901884 -0.08971926 -0.025295362 -0.032682464 0.08592899 0.014457046 -0.01404829 0.05718793
-0.07362797 0.051233754 -0.07150241 -0.085674904 0.05850837 0.06735883 0.104710504 -0.074616
0.03312018 -0.007658971 -0.031033797 -0.006946309 0.04851615 0.08120061 0.02653627 -0.07029026
-0.086391866 0.010188791 0.037898652 0.016675005 -0.083737135 -0.06990913 0.030348815 0.09746376
-0.07415002 0.093771026 -0.071778454 0.06952033 -0.00090746116 0.0436446 -0.030390756 0.03924313
0.020558015 0.041989893 0.0361231 0.027475435 -0.04723942 -0.07554768 -0.038428105 0.0124438
-0.078559674 0.037436612 -0.049286563 0.062056117 -0.005440112 -0.028721053 0.035171494 -0.079679094
-0.07096685 -0.056470785 -0.08487021 -0.01680024 -0.0034306645 -0.09095093 -0.014240031 -0.0502
-0.08872993 -0.005691651 0.09320564 0.016829278 0.013205283 -0.08093801 -0.09356531 0.023196759
-0.051551364 -0.016409189 -0.06025335 -0.0203055 0.008929531 -0.03364645 -0.04585605 -0.0021582246
-0.069047846 0.0771433 -0.0050389254 -0.057547428 0.09849153 0.03596075 -0.01347421 -0.08066573
-0.06527929 -0.0733289 -0.038083524 -0.035544977
00000000: 02fe 0dbc 0f67 af3d 4a5c b0bd de95 c33d
00000010: ef8d ac3d a546 14bd a508 80bd 32fd 723d
00000020: b4d2 80bd bbbe b7bd 3838 cfbc 0cde 05bd
00000030: 8afb af3d 3fdd 6c3c cd2a 66bc e43d 6a3d
00000040: 43ca 96bd 7cda 513d db6f 92bd 5376 afbd
00000050: 79a6 6f3d 6df3 893d 7672 d63d 46d0 98bd
00000060: 07a9 073d 1bf8 fabb 973a febc dd9d e3bb
00000070: dfb8 463d 814c a63d 9762 d93c 57f4 8fbd
00000080: 38ee b0bd e3ee 263c 9e3b 1b3d 059a 883c
00000090: 607e abbd 852c 8fbd 149e f83c 149b c73d
000000a0: f7db 97bd 060b c03d 9500 93bd ad60 8e3d
000000b0: b0e2 6dba aec4 323d 09f6 f8bc 67bd 203d
000000c0: 4869 a83c 98fd 2b3d d1f5 133d 2a14 e13c
000000d0: 1f7e 41bd beb8 9abd ca66 1dbd 15e1 4b3c
000000e0: e5e3 a0bd 2257 193d b5e0 49bd 8e2e 7e3d
000000f0: f842 b2bb 6a48 ebbc fc0f 103d cb2e a3bd
00000100: 1157 91bd e94d 67bd 6fd0 adbd a8a0 89bc
00000110: 00d5 60bb 7b44 babd 054f 69bc 849e 4dbd
00000120: 0ab8 b5bd 0781 babb 99e2 be3d 8edd 893c
00000130: f95a 583c d4c2 a5bd 2b9f bfbd 2107 be3c
00000140: 8627 53bd 906c 86bc 37cc 76bd b857 a6bc
00000150: 2b4d 123c dcd0 09bd 8ed3 3bbd 0071 0dbb
00000160: f568 8dbd 4efd 9d3d 921d a5bb dab6 6bbd
00000170: edb5 c93d 944b 133d efc2 5cbc 1334 a5bd
00000180: 26b1 85bd 762d 96bd 78fd 1bbd 9c97 11bd

seq.6.weight f4 [50, 100]
-0.0058545736 -0.081161365 0.090219535 0.014543414 0.08946477 -0.04738006 -0.026884243 0.023261935
-0.023647845 -0.047262322 -0.03473375 0.018009117 0.06750937 0.1026405 -0.05538857 0.038153894
-0.00597658 0.043649565 -0.06284792 -0.020793393 -0.0939705 0.013895639 0.10123403 -0.03577339
0.09970417 0.057534367 0.04052637 0.085339665 0.049855188 -0.006044414 0.04322103 0.066161424
0.068012916 0.02839884 0.027095333 -0.05168652 0.04102982 0.103723675 0.0027156759 -0.028664961
-0.0009797107 -0.08291047 0.00072856946 -0.0505827 0.055652097 0.009758485 0.08726983 -0.075775266
0.044870384 -0.049440656 0.07397691 -0.078165516 -0.03512265 -0.0141390115 0.06387574 0.0038329572
0.034965497 -0.054500338 -0.03254505 -0.053952858 0.102627635 -0.09255785 -0.02364969 -0.044741496
0.013190407 -0.010412745 -0.09241488 -0.015362121 -0.0067920685 -0.060977664 0.06322481 -0.004561134
0.07230091 -0.061984744 -0.081569165 -0.041142665 0.02017598 -0.049406197 -0.09434866 0.066194095
-0.03517108 0.0056859218 0.08559428 0.04680694 0.06416092 0.08539551 0.10125752 -0.030376077
0.10388992 -0.07805819 0.006949432 0.052937053 0.035132486 -0.002573164 0.064401366 0.08682854
-0.05351281 0.053611413 -0.049745437 0.006972204 0.09212742 -0.052358396 0.06766913 -0.043521672
-0.06845489 0.092064284 -0.0046929345 0.003967903 -0.06260085 0.06793577 -0.08686682 -0.036467444
0.001949944 0.07063525 0.047528964 0.020654988 -0.06082789 0.008766526 -0.059621695 0.0856156
0.027514454 -0.0010389016 0.07135395 0.05095919 0.035221674 0.074437656 0.0027199294 0.092513606
-0.013617885 -0.013580297 0.10122554 -0.084112324 -0.053705405 0.04892522 0.03746872 -0.04394575
-0.056527045 0.06000606 -0.05855393 0.07363931 0.078578316 -0.023648927 -0.015043909 0.063459486
0.09250622 0.02435559 0.0077680494 0.013645884 0.088803835 -0.09452277 -0.054298133 0.025839498
0.084920235 0.07054453 0.08392269 -0.06945492 -0.060542956 0.048529778 -0.05426219 0.06622527
0.022262335 -0.05718608 -0.023360828 0.002561293 0.04545622 -0.046694934 0.03914649 0.09407715
-0.015812121 0.08645221 0.06738112 0.07263535 -0.08681938 -0.006218474 0.088009164 0.091658026
-0.025467964 -0.02521015 -0.024286292 0.041248575 -0.019103872 -0.05394056 0.0017837937 0.046602942
0.09830786 0.039275035 0.032436788 0.049090333 0.06728225 -0.077294655 0.009535821 0.006104135
0.034349166 0.0353515 0.031843774 -0.039568283 0.078062065 0.053053174 0.09029259 0.100172386
0.047667086 0.03654421 0.027113922 0.063599996 0.015695404 0.09265571 -0.06136453 0.014232447
0.08609915 0.07648865 -0.06131822 -0.073622115 0.053111445 -0.0362505 0.050032895 0.08715728
-0.014178552 0.07352493 -0.025512982 0.084875114 0.008648735 -0.06683949 -0.037752222 -0.014978371
-0.085664086 0.06210147 -0.086434975 -0.087819345 0.05636713 0.055971585 -0.08628231 -0.022434967
-0.049239207 0.06371035 -0.035524983 -0.03589106 0.055121608 -0.071180604 -0.01789464 0.059068892
-0.07347214 -0.016906478 0.05573816 0.0019036318 0.059484717 0.034774166 -0.050615303 0.009962591
0.008527361 0.08527496 -0.0865611 0.050527066 0.015529635 -0.009069167 -0.040633645 0.011834828
00000000: b9d7 bfbb ee37 a6bd 05c5 b83d 8047 6e3c
00000010: 4e39 b73d 9811 42bd 583c dcbc d08f be3c
00000020: 20b9 c1bc 2396 41bd fa44 0ebd db87 933c
00000030: 5a42 8a3d 2f35 d23d 20df 62bd 4247 1c3d
00000040: 30d7 c3bb e3c9 323d 69b6 80bd e856 aabc
00000050: 9b73 c0bd 89aa 633c ca53 cf3d 1e87 12bd
00000060: b331 cc3d 28a9 6b3d fbfe 253d 90c6 ae3d
00000070: f434 4c3d 3810 c6bb 8908 313d a47f 873d
00000080: 5b4a 8b3d afa4 e83c 08f7 dd3c 3fb5 53bd
00000090: e20e 283d 146d d43d 7bf9 313b c8d2 eabc
000000a0: a369 80ba f7cc a9bd 78fd 3e3a ce2f 4fbd
000000b0: 74f3 633d 0de2 1f3c 86ba b23d 1030 9bbd
000000c0: 02ca 373d 4982 4abd 3581 973d 3e15 a0bd
000000d0: c5dc 0fbd 50a7 67bc 49d1 823d 5a32 7b3b
000000e0: fb37 0f3d bf3b 5fbd f54d 05bd acfd 5cbd
000000f0: 702e d23d f88e bdbd ffbc c1bc dc42 37bd
00000100: 941c 583c 389a 2abc 0344 bdbd 68b1 7bbc
00000110: 0090 debb b7c3 79bd 027c 813d 9175 95bb
00000120: 8012 943d b7e3 7dbd bc0d a7bd 3685 28bd
00000130: 1948 a53c 275e 4abd df39 c1bd c590 873d
00000140: 8d0f 10bd f850 ba3b 0e4c af3d a2b8 3f3d
00000150: cd66 833d d7e3 ae3d 1a60 cf3d 40d7 f8bc
00000160: 3dc4 d43d f9dc 9fbd 10b8 e33b 86d4 583d
00000170: 15e7 0f3d 87a2 28bb dde4 833d 29d3 b13d
00000180: 4030 5bbd a497 5b3d dfc1 4bbd 1677 e43b
00000190: 4dad bc3d c275 56bd 1d96 8a3d c843 32bd
000001a0: 1432 8cbd 338c bc3d 30c7 99bb 2f05 823b
000001b0: e034 80bd e921 8b3d 3be7 b1bd e35e 15bd
000001c0: 4395 ff3a 37a9 903d bbad 423d a634 a93c
000001d0: aa26 79bd 7aa1 0f3c e135 74bd 3b57 af3d
000001e0: fe65 e13c c12b 88ba 0522 923d 95ba 503d
000001f0: 9a44 103d c572 983d d840 323b c677 bd3d
00000200: 8d1d 5fbc e57f 5ebc 564f cf3d 1543 acbd
00000210: 33fa 5bbd d065 483d cd78 193d 7500 34bd
00000220: e788 67bd eac8 753d 3fd6 6fbd 35d0 963d
00000230: abed a03d 65bb c1bc ba7a 76bc 0cf7 813d
00000240: e773 bd3d 6085 c73c 1f8b fe3b fc92 5f3c
00000250: c9de b53d 2795 c1bd b867 5ebd 5bad d33c
00000260: a9ea ad3d a779 903d a9df ab3d 623e 8ebd
00000270: e4fb 77bd 29c7 463d 0842 5ebd 1da1 873d
00000280: 805f b63c f33b 6abd 355f bfbc 5edb 273b
00000290: 4d30 3a3d 3043 3fbd 1258 203d 85ab c03d
000002a0: 6c88 81bc db0d b13d 1dff 893d d8c1 943d
000002b0: 5cce b1bd 57c4 cbbb 263e b43d 34b7 bb3d
000002c0: 31a2 d0bc 8485 cebc 0cf4 c6bc 44f4 283d
000002d0: b97f 9cbc c7f0 5cbd 2fce e93a bae2 3e3d
000002e0: a255 c93d dcde 203d 70dc 043d f212 493d
000002f0: 47cb 893d a94c 9ebd 223c 1c3c 3205 c83b
00000300: b6b1 0c3d bccc 103d 9e6e 023d 5a12 22bd
00000310: 01df 9f3d 494e 593d 52eb b83d 2e27 cd3d
00000320: 903e 433d 62af 153d 041e de3c b740 823d
00000330: a693 803c 47c2 bd3d 6059 7bbd 362f 693c
00000340: c054 b03d 15a6 9c3d d028 7bbd 31c7 96bd
00000350: 638b 593d 677b 14bd 4bef 4c3d 847f b23d
00000360: 284d 68bc 3d94 963d 9a00 d1bc 01d3 ad3d
00000370: 6cb3 0d3c 24e3 88bd 13a2 1abd d767 75bc
00000380: a770 afbd 1c5e 7e3d d204 b1bd a1da b3bd
00000390: 38e1 663d 7642 653d c8b4 b0bd 89c9 b7bc
000003a0: 0daf 49bd 927a 823d a582 11bd 8102 13bd
000003b0: 32c7 613d 23c7 91bd c897 92bc 39f2 713d
000003c0: 9078 96bd 747f 8abc b24d 643d 4983 f93a
000003d0: 3fa6 733d 5b6f 0e3d fe51 4fbd 233a 233c
000003e0: 58b6 0b3c a3a4 ae3d f246 b1bd 78f5 4e3d
000003f0: 0370 7e3c d896 14bc 776f 26bd dee6 413c

seq.6.bias f4 [50]
0.023415532 0.061210312 0.08778884 0.08747983 -0.08401332 -0.037977636 0.051956765 -0.077899404
-0.050378826 -0.035776034 0.084857196 -0.010048975 -0.048070177 -0.033439074 -0.037992235 0.06773112
-0.023375126 0.0055598086 0.0728483 0.01970566 0.03870337 0.0715263 -0.055435885 0.0021762205
0.08307983 0.09194395 0.014756075 0.0852885 -0.07575525 -0.038959417 -0.05130396 0.07023541
-0.031780124 0.08202405 -0.07423025 -0.07476841 0.05837131 0.06881393 -0.053940825 0.0730531
0.08288498 0.015633484 -0.052166484 -0.0059159948 0.06449874 0.060833123 0.081934355 0.08226712
0.0451469 0.04381472
00000000: eed1 bf3c aab7 7a3d a3ca b33d a028 b33d
00000010: 2d0f acbd 708e 1bbd 9ed0 543d b989 9fbd
00000020: 075a 4ebd e489 12bd 9cc9 ad3d 75a4 24bc
00000030: 3ce5 44bd 69f7 08bd bf9d 1bbd 9db6 8a3d
00000040: 317d bfbc 0e2f b63b 7d31 953d c46d a13c
00000050: 6d87 1e3d 617c 923d bd10 63bd ec9e 0e3b
00000060: c225 aa3d 1c4d bc3d 77c3 713c bdab ae3d
00000070: 9225 9bbd e993 1fbd 1a24 52bd 95d7 8f3d
00000080: e02b 02bd 3afc a73d 0806 98bd 2e20 99bd
00000090: c116 6f3d 51ee 8c3d 0ef1 5cbd dd9c 953d
000000a0: 9abf a93d cb11 803c 86ac 55bd f6da c1bb
000000b0: ea17 843d 272c 793d 33cd a73d aa7b a83d
000000c0: f5eb 383d 1077 333d

seq.8.weight f4 [20, 50]
-0.092505164 0.04148791 0.04810894 0.05739008 -0.065297425 -0.07790818 -0.13780198 -0.12709795
0.082030326 0.018567309 0.12535304 -0.12956548 0.10910232 -0.06416635 -0.050306205 0.08203586
0.11869748 0.0061585605 -0.09043301 -0.11011047 0.10194825 0.0880426 0.045172274 -0.12401922
0.12198264 0.07242728 -0.05336012 0.023166403 -0.045376055 0.121043265 0.056886777 -0.07446626
0.077166066 0.11398411 0.06555089 0.13552877 0.10156772 -0.07195657 -0.027130516 0.028075978
0.015909329 0.12014483 0.12706746 0.028329674 -0.10451813 -0.08927499 -0.115389965 -0.07672958
0.08692834 -0.018895932 0.059669502 -0.052275192 -0.0052190456 -0.1247441 0.054146126 0.08527638
0.12072947 0.004947073 0.041294046 -0.042334773 0.08595075 -0.05346448 0.08666672 -0.07354651
-0.08290359 0.14113505 -0.038137145 -0.13471772 -0.018561866 0.12146381 -0.10939022 0.013209547
-0.063134365 0.08974342 -0.11367867 -0.061315447 -0.07341801 -0.12502602 0.13433172 0.094671994
-0.12253791 -0.124890074 0.083206415 -0.054768685 0.0945829 -0.13277361 -0.095989555 0.038315065
-0.12393982 0.06746282 -0.03431099 0.046211716 0.08415601 0.048461355 0.06996547 -0.030458326
-0.0775399 0.06277192 0.0675276 0.11590494 0.11226652 -0.014933425 0.027721819 0.03872201
-0.0761357 0.036072016 0.12938751 0.120292746 0.08270455 -0.104142115 0.006001281 0.0746509
0.038177136 -0.08735643 -0.07858137 0.022764333 0.08358677 0.112404004 0.030840307 -0.08768719
-0.101296484 -0.015453152 -0.11750471 -0.066442624 0.0035292506 0.052121308 0.11541666 -0.015953233
-0.031114325 -0.11235713 0.050238468 -0.13563979 -0.052791968 0.0548024 0.07064682 0.097652145
0.005443187 -0.14095896 -0.07748689 -0.021268671 0.1290857 -0.09379832 0.025418546 0.13828138
0.09247235 0.0021343366 -0.10896719 0.018562594 -0.12025431 0.0578846 -0.014371082 0.027515426
0.037988216 -0.0054850727 -0.053549074 -0.054100268 -0.096180394 -0.06884432 -0.08781935 0.06650147
0.065990314 0.022832707 0.062305734 -0.019590363 -0.11166768 -0.11132328 0.058786258 -0.12945193
0.06077206 0.014143258 0.09262706 -0.03935653 0.025234312 0.11940627 -0.09763518 -0.03838396
-0.03981404 0.12943779 0.11509968 -0.04547581 0.009612545 0.11846565 0.097571865 -0.043392695
0.090714365 -0.02109772 -0.04259234 -0.023983061 0.053130254 0.10061392 -0.13752578 -0.13069688
0.08519353 0.03351645 0.1303358 -0.1384709 0.024697438 -0.05453553 -0.08857341 -0.13652179
0.10704927 -0.08428382 0.08613771 -0.07945353 0.13597141 0.01501438 -0.10782939 -0.019670747
-0.059545748 -0.14018863 0.11898844 0.10658747 -0.0010702908 0.061924785 -0.1321578 0.00087955594
-0.0020830482 -0.08677563 -0.1314491 0.08380987 -0.13987653 0.050341636 0.10178895 0.022436231
-0.109586075 0.047339067 0.035954267 0.0948111 -0.02598738 -0.078527115 -0.12843545 -0.117131
0.061526835 -0.010435015 -0.09134649 0.032795876 -0.088820025 -0.10987058 -0.103550255 0.054053545
-0.048005417 0.03623621 -0.010075122 0.13652293 -0.05329191 -0.031695254 -0.07788148 0.0897242
0.13470192 -0.0424902 -0.025386946 -0.11724452 0.059922434 0.094205484 -0.094998196 0.01946643
00000000: 5973 bdbd 3aef 293d e10d 453d dc11 6b3d
00000010: a8ba 85bd 538e 9fbd f61b 0dbe f725 02be
00000020: 84ff a73d 781a 983c 8c5c 003e d0ac 04be
00000030: 0a71 df3d a669 83bd e10d 4ebd 6b02 a83d
00000040: aa17 f33d c0cd c93b f134 b9bd 9981 e1bd
00000050: 3eca d03d ae4f b43d 9006 393d cafd fdbd
00000060: 09d2 f93d c154 943d 2490 5abd 78c7 bd3c
00000070: 3edc 39bd 88e5 f73d 1c02 693d c481 98bd
00000080: 3e09 9e3d 8070 e93d 8c3f 863d 0ec8 0a3e
00000090: bd02 d03d f75d 93bd d140 debc 98ff e53c
000000a0: 4854 823c 7e0e f63d f91d 023e a213 e83c
000000b0: 9a0d d6bd ced5 b6bd 9351 ecbd 6624 9dbd
000000c0: 7c07 b23d a4cb 9abc 0268 743d 831e 56bd
000000d0: 8704 abbb d679 ffbd 54c8 5d3d 62a5 ae3d
000000e0: 0341 f73d 0e1b a23b f223 293d 3a67 2dbd
000000f0: f206 b03d 92fd 5abd 527e b13d 8d9f 96bd
00000100: 5bc9 a9bd b585 103e b235 1cbd 71f3 09be
00000110: 0e0f 98bc 05c2 f83d fb07 e0bd db6c 583c
00000120: 974c 81bd 66cb b73d 5dd0 e8bd e825 7bbd
00000130: 2e5c 96bd d206 00be 418e 093e 64e3 c13d
00000140: 28f5 fabd 5ec6 ffbd 2068 aa3d 2155 60bd
00000150: aeb4 c13d cef5 07be 2c96 c4bd 42f0 1c3d
00000160: 29d4 fdbd f229 8a3d ae89 0cbd 7f48 3d3d
00000170: fc59 ac3d 6a7f 463d 0e4a 8f3d bd83 f9bc
00000180: 3dcd 9ebd 908e 803d e94b 8a3d 925f ed3d
00000190: fdeb e53d 53ab 74bc de18 e33c f89a 1e3d
000001a0: 09ed 9bbd 40c0 133d 297e 043e 0b5c f63d
000001b0: 0161 a93d 7648 d5bd 65a6 c43b 92e2 983d
000001c0: a15f 1c3d eee7 b2bd 45ef a0bd 447c ba3c
000001d0: 8a2f ab3d 1234 e63d d0a4 fc3c 5795 b3bd
000001e0: 8874 cfbd 382f 7dbc 4fa6 f0bd 1213 88bd
000001f0: 004b 673b 277d 553d 925f ec3d 5bb0 82bc
00000200: 78e3 febc 7f1b e6bd dac6 4d3d 28e5 0abe
00000210: 643c 58bd 7b78 603d 48af 903d d9fd c73d
00000220: c35c b23b 8c57 10be 72b1 9ebd a33b aebc
00000230: 0b2f 043e 5519 c0bd 8e3a d03c a299 0d3e
00000240: 2562 bd3d 3ae0 0b3b 312a dfbd 9510 983c
00000250: e447 f6bd 6718 6d3d b074 6bbc 0868 e13c
00000260: 8899 1b3d 20bc b3bb 4656 5bbd 3e98 5dbd
00000270: 3afa c4bd 40fe 8cbd a2da b3bd ec31 883d
00000280: ee25 873d a80b bb3c 4c34 7f3d f87b a0bc
00000290: 06b2 e4bd 76fd e3bd dcc9 703d 0c8f 04be
000002a0: 20ec 783d 20b9 673c 42b3 bd3d 5034 21bd
000002b0: 30b8 ce3c 468b f43d f4f4 c7bd 8038 1dbd
000002c0: 0c14 23bd 578b 043e 62b9 eb3d d844 3abd
000002d0: f07d 1d3c 1e9e f23d c2d3 c73d 8abc 31bd
000002e0: 74c8 b93d 20d5 acbc 4e75 2ebd 2078 c4bc
000002f0: 1c9f 593d ac0e ce3d 8fd3 0cbe 67d5 05be
00000300: f279 ae3d 8c48 093d bf76 053e 51cb 0dbe
00000310: 4852 ca3c a660 5fbd fa65 b5bd 5ecc 0bbe
00000320: a63c db3d ff9c acbd f868 b03d 88b8 a2bd
00000330: 173c 0b3e e0fe 753c a8d5 dcbd 8c24 a1bc
00000340: 3ee6 73bd 9c8d 0fbe 36b0 f33d 884a da3d
00000350: 0049 8cba d8a4 7d3d 6054 07be 0092 663a
00000360: c083 08bb 6cb7 b1bd 989a 06be 82a4 ab3d
00000370: cb3b 0fbe 0833 4e3d ba76 d03d 30cc b73c
00000380: aa6e e0bd 9ce6 413d c844 133d 522c c23d
00000390: 7ce3 d4bc d3d2 a0bd 9584 03be 61e2 efbd
000003a0: 9003 7c3d a0f7 2abc de13 bbbd f854 063d
000003b0: 46e7 b5bd d403 e1bd 2812 d4bd 4067 5d3d
000003c0: 54a1 44bd 6c6c 143d 2012 25bc abcc 0b3e
000003d0: 9e48 5abd e2d2 01bd 5380 9fbd 52c1 b73d
000003e0: 4def 093e 340a 2ebd 49f8 cfbc e51d f0bd
000003f0: 3a71 753d ceee c03d 6a8e c2bd 1078 9f3c

seq.8.bias f4 [20]
-0.09965557 0.12270624 0.057627834 -0.06867966 -0.072379306 -0.017509077 -0.050333012 0.107423805
0.1418381 0.07968636 -0.037998974 -0.05668576 -0.03442014 0.10330907 -0.04637423 0.09173429
0.08479619 0.07258686 -0.08562363 0.023206238
00000000: 3818 ccbd 694d fb3d 2a0b 6c3d eca7 8cbd
00000010: 9a3b 94bd 326f 8fbc fd29 4ebd 0301 dc3d
00000020: 023e 113e 9a32 a33d d0a4 1bbd 542f 68bd
00000030: 22fc 0cbd b593 d33d e8f2 3dbd 30df bb3d
00000040: a0a9 ad3d 6ba8 943d 715b afbd 021b be3c
