submission/checkpoint_Dueling_Noisy.pth (torch, 778949 bytes, 29 tensors)

seq.0.weight f4 [265, 510]
0	0x3dc34815	0.09535233
1	0x3ae6ec09	0.0017617951
2	0xbdb1caff	-0.086812966
3	0xbd057aec	-0.03258793
4	0xbca9333b	-0.020654311
5	0x3dac311f	0.084078066
6	0x3cfaa456	0.03059594
7	0x3d8cd5f6	0.06876747
8	0xbb80c450	-0.0039296523
9	0x3b8539e5	0.0040657395
10	0xba578bfb	-0.0008222458
11	0xbd7016e7	-0.05861559
12	0xbd8258bc	-0.06364581
13	0xbcf03dce	-0.029326346
14	0xbd0943cf	-0.033511933
15	0x3d6bebb1	0.05759782
16	0x3d8f7b13	0.070058964
17	0xbda15070	-0.0787667
18	0xbcf5ebf3	-0.030019736
19	0xbcd52776	-0.026019793
20	0xbe1352bd	-0.14387031
21	0x3d0081c5	0.031373758
22	0xbd12e446	-0.03586223
23	0x3d07b968	0.0331358
24	0xbc2e11fe	-0.010624407
25	0x3a82be7d	0.0009974983
26	0x3db1a145	0.08673338
27	0xbdcaf8c2	-0.09910728
28	0xbce45d11	-0.027876409
29	0xbcfe68a6	-0.03105576
30	0xbe5354f3	-0.20637874
31	0x3cbfae30	0.023398489
32	0xbdbec391	-0.09314645
33	0xbca6fc1a	-0.020383883
34	0xbc9f351d	-0.019434506
35	0xbe272baa	-0.1632525
36	0x3b0887bf	0.0020832864
37	0x3c7a8f86	0.015293008
38	0x3ca1dd60	0.01975888
39	0x3c1d68dc	0.00960752
40	0xbe343ac3	-0.17600541
41	0x3ad01180	0.0015874356
42	0x3d1a4f4a	0.037673272
43	0xbd29590f	-0.0413447
44	0xbd95a173	-0.073061846
45	0xbea30c67	-0.318454
46	0x3d5db660	0.054129004
47	0xbbdbec3c	-0.006711511
48	0xbca0e07b	-0.01963829
49	0x3c8d3958	0.017239258
50	0xbe14657f	-0.14491843
51	0xbcb33e12	-0.021880183
52	0x3d13cf12	0.03608615
53	0x3bc404c0	0.0059820116
54	0xbd61b470	-0.05510372
55	0xbd26952b	-0.0406696
56	0x3c416ac0	0.011805236
57	0xbdcef94f	-0.101061456
58	0xbcfb6a60	-0.030690372
59	0xbcc1f1b4	-0.023674823
60	0xbe6cbb7b	-0.23118393
61	0xbe32c40e	-0.17457601
62	0x3d56d4b4	0.052448943
63	0x3c5b2d6c	0.013377529
64	0xbd4b143c	-0.049579844
65	0x3d866528	0.06562263
66	0xbcb8c327	-0.022553993
67	0xbe1f2dc6	-0.15544805
68	0x3ce10a50	0.027470738
69	0x3d6014f6	0.05470749
70	0xbe41be0e	-0.18920156
71	0xbe28d076	-0.16485772
72	0x3d824e2f	0.063625686
73	0x3d1646fa	0.036688782
74	0xbcf1b193	-0.02950362
75	0x3d984cd0	0.07436526
76	0xbcca2b2d	-0.024678791
77	0xbe67d6fc	-0.22640604
78	0x3b857af8	0.004073497
79	0x3bd39b98	0.006457757
80	0x3d639c39	0.055568907
81	0xbe0c63fc	-0.13710016
82	0x3da296fc	0.07938954
83	0xbd34ecf2	-0.04417128
84	0xbd93d6ee	-0.07218729
85	0x3cfdcbad	0.03098091
86	0x3da22053	0.079163216
87	0xbe519282	-0.20466045
88	0x3c8b7f36	0.017028432
89	0x3c90385f	0.017605005
90	0xbdea2545	-0.1143289
91	0x3e2d97e0	0.16952467
92	0x3d5f7439	0.054554198
93	0x3c87a2ae	0.016557064
94	0xbde2b19f	-0.11069035
95	0xbcc0f8d4	-0.02355615
96	0x3d87c0a5	0.06628541
97	0xbdb58564	-0.08863333
98	0xbd0d7ca6	-0.034542702
99	0xbc014e2b	-0.007892172
100	0xbca30f9f	-0.01990491
101	0x3de2034c	0.11035785
102	0x3c993d33	0.01870594
103	0xbc3698a4	-0.011144791
104	0xbddaed7f	-0.1068983
105	0xbd35ee7a	-0.044416882
106	0xbd133bab	-0.035945576
107	0xbdfb3cae	-0.12267433
108	0xbb1fe5f0	-0.0024398528
109	0x3d408243	0.046999227
110	0xbc285942	-0.010275187
111	0x3dd32ecc	0.1031166
112	0x3c1112a5	0.008854543
113	0x3d2492c2	0.04017902
114	0xbd1e4cf0	-0.038647592
115	0x3db1f36b	0.086890064
116	0x3c10ba92	0.008833544
117	0xbdfbcdbd	-0.12295101
118	0x3bd3b380	0.006460607
119	0x3d1e35ab	0.0386254
120	0x3c9ce7d8	0.01915352
121	0x3da3767d	0.07981584
122	0x3c469fc4	0.012123052
123	0x3caba5f8	0.020953164
124	0xbdf7dcd4	-0.121026665
125	0xbc1a18cd	-0.009405327
126	0xbd97aa89	-0.07405574
127	0xbe1bc246	-0.15210828
128	0xbc7dcd78	-0.015490882
129	0xbc64b570	-0.013959274
130	0x3d71c3a8	0.059024483
131	0x3e0df073	0.13861255
132	0xbc0db015	-0.008647938
133	0xbb14ed90	-0.0022724606
134	0xbd36964a	-0.04457692
135	0x3e35c74a	0.17751804
136	0xbdfb45d6	-0.122691795
137	0x3cdae978	0.026722655
138	0x3c12d3ac	0.008961599
139	0x3d029755	0.031882603
140	0x3a1f1c1b	0.00060695567
141	0x3df96597	0.1217758
142	0x3dbd3039	0.09237713
143	0xbb51e050	-0.003202457
144	0xbe05f84c	-0.13082999
145	0x3ca2aa2b	0.019856533
146	0xbda16740	-0.078810215
147	0x3b5b8e05	0.0033501398
148	0xbcb44d71	-0.022009583
149	0xbc837a0c	-0.016049407
150	0xbd9b5329	-0.07584221
151	0x3ca497ee	0.020091977
152	0x3d87ef68	0.0663746
153	0x3cc6eee0	0.024283826
154	0xbdafa9af	-0.085772865
155	0xbdd4a3d9	-0.10382814
156	0xbe21c6eb	-0.15798537
157	0xbd4204f2	-0.047367997
158	0xbc196094	-0.009361405
159	0x3c1184e9	0.008881786
160	0xbca04df9	-0.01956843
161	0x3ccf703a	0.025322068
162	0xbbf5ea30	-0.007504724
163	0xbd1c9aea	-0.038233675
164	0xbdf06f38	-0.11739963
165	0x3e1ac33c	0.15113539
166	0xbdd60295	-0.10449711
167	0x3c3ad704	0.011403803
168	0xbd233f44	-0.039855257
169	0xbaef4e22	-0.0018257538
170	0x3da711cc	0.08157691
171	0x3e007afb	0.12546913
172	0x3dcab25f	0.09897303
173	0x3c835eda	0.01603644
174	0xbe062b20	-0.13102388
175	0x3e1179eb	0.14206664
176	0xbdbdd458	-0.09269017
177	0xbcdbd8f8	-0.026836857
178	0x3d110948	0.035409242
179	0xbcef9169	-0.029244142
180	0x3d5acaad	0.053415943
181	0x3df5719d	0.11984561
182	0x3db30b37	0.087423734
183	0x3c4a84a8	0.012360729
184	0xbd5f63d0	-0.054538548
185	0x3be6569c	0.0070293676
186	0xbcd5b065	-0.026085088
187	0xbd69a121	-0.05703843
188	0xbd157786	-0.03649094
189	0x3d0d4f02	0.034499176
190	0x3dfb082d	0.12257419
191	0x3dd9929a	0.10623665
192	0xbd156fab	-0.036483448
193	0x3b016da0	0.001974918
194	0xbdb09772	-0.08622636
195	0x3d4232c5	0.0474117
196	0xbdbfa332	-0.09357299
197	0xbcbd75ac	-0.0231274
198	0xbcd82a8e	-0.02638748
199	0x3b7a05d8	0.0038150456
200	0xbdecbbaf	-0.11559235
201	0x3e0f666b	0.14003913
202	0xbd180060	-0.037109733
203	0xbcf907e6	-0.030399274
204	0xbd5e0b20	-0.05420983
205	0x3bbc51d4	0.0057470594
206	0xbe7bdd1f	-0.2459607
207	0x3cd9df8a	0.02659585
208	0x3c832c20	0.016012251
209	0x3c6a99ec	0.014318924
210	0xbda7ee02	-0.08199693
211	0x3e1c02a0	0.15235376
212	0x3c16c5aa	0.0092024
213	0xbc25a9c0	-0.010111272
214	0xbcefb433	-0.02926073
215	0xbdf64795	-0.12025372
216	0xbe168d08	-0.14702237
217	0xbd0cfee3	-0.034422766
218	0x3d127548	0.03575638
219	0xbcb9a0a2	-0.022659604
220	0xba636882	-0.00086749357
221	0x3db094aa	0.086221054
222	0x3d80528c	0.062657446
223	0x3aa45400	0.0012537241
224	0xbd91ff5c	-0.07128784
225	0xbe4eaa92	-0.20182255
226	0xbe22656e	-0.15859005
227	0x3c11277a	0.00885951
228	0xbc736a6a	-0.014856914
229	0x3b916d81	0.0044381027
230	0x3e3a872a	0.18215623
231	0x3dc8fb23	0.098135255
232	0xbb644735	-0.0034832482
233	0x3d227490	0.039661944
234	0x3a91fadf	0.0011137387
235	0x3d4614d7	0.04835972
236	0xbdd326e5	-0.10310153
237	0xbe0afe33	-0.13573532
238	0xbc99bdde	-0.018767294
239	0x3c7d7323	0.015469345
240	0x3e3c4bd3	0.183883
241	0x3d5c529a	0.053789712
242	0xbcb005b3	-0.021487093
243	0x3894aa00	7.088855e-05
244	0xbc2d18f2	-0.010565029
245	0xbe117762	-0.14205697
246	0xbd953d10	-0.072870374
247	0xbdaac955	-0.08339182
248	0x3a1ffc80	0.0006102994
249	0xbc786ecd	-0.015163136
250	0x3e424ea2	0.18975309
251	0x3e1653eb	0.1468045
252	0x3d960201	0.07324601
253	0xbc54139c	-0.012944128
254	0xbd954351	-0.0728823
255	0xbc6accf2	-0.014331089

seq.0.bias f4 [265]
0	0x3d09094d	0.033456136
1	0xbcf3c2ec	-0.029756032
2	0xbd761af3	-0.060084295
3	0xbd7f61ef	-0.062349256
4	0xbd57d595	-0.052693922
5	0xbd0e958a	-0.03481058
6	0x3ca7eb11	0.02049783
7	0xbd192fb4	-0.03739901
8	0xbd87f7d5	-0.06639067
9	0xbd813ecf	-0.06310808
10	0xbc9e6c94	-0.019338883
11	0xbd18a516	-0.037266813
12	0xbc932748	-0.017963067
13	0x3c9a96b9	0.018870698
14	0x3b245803	0.0025076873
15	0xbc63bef0	-0.0139005035
16	0xbd8869a7	-0.066607766
17	0x3cffec57	0.031240625
18	0xbca899fc	-0.020581238
19	0xbc6aabc9	-0.014323183
20	0xbc339694	-0.010961194
21	0xbcc5e7a0	-0.024158299
22	0xbc705a5b	-0.01466998
23	0xbcd06981	-0.025440933
24	0xbd680b6f	-0.05665153
25	0xbd5cac8a	-0.053875484
26	0x3bf8ac22	0.007588879
27	0xbc28916d	-0.010288578
28	0x3b7f59ca	0.003896343
29	0xbd169c33	-0.036770057
30	0x3bafabf5	0.005361075
31	0xbd04b9f1	-0.03240389
32	0xbb8713ec	-0.004122248
33	0xbd4a83e0	-0.049442172
34	0x3c9677ae	0.018367615
35	0x3cccabc9	0.024984257
36	0x3c9de575	0.019274453
37	0x3c4488a2	0.011995466
38	0xbd405340	-0.046954393
39	0xbd37c136	-0.044861995
40	0xbc80bb5f	-0.015714345
41	0x3bb1e1a1	0.0054285084
42	0xbd0f3fc4	-0.03497292
43	0xbce55fcd	-0.027999783
44	0xbcc2b683	-0.023768669
45	0x3b9e9d1e	0.004840507
46	0xbd007a7a	-0.031366803
47	0xbcf6c8d9	-0.030125069
48	0x3affa35e	0.0019503643
49	0xbd88a50c	-0.06672105
50	0xbcbeb7d6	-0.02328102
51	0x3cf9ba4c	0.030484341
52	0xbd8b28f1	-0.06794918
53	0x3bdd0198	0.0067445748
54	0xbcfc068e	-0.030764844
55	0xbcf7a1b5	-0.030228475
56	0xbd3a8b3c	-0.04554294
57	0xbd0fa758	-0.0350717
58	0xbd727b8a	-0.059199847
59	0xbba29211	-0.00496126
60	0xbd218209	-0.03943065
61	0xbc75ed55	-0.015010198
62	0xbd1c1c54	-0.038112953
63	0xbd402ab4	-0.046915725
64	0xbc4ba598	-0.012429617
65	0xbd5aaeed	-0.05338948
66	0x3c7c6e98	0.015407227
67	0x3c0c3f72	0.008560048
68	0xbd2d2057	-0.04226717
69	0xbb988eeb	-0.004655709
70	0xbca4598a	-0.020062227
71	0xbd4019da	-0.046899654
72	0xbd182e18	-0.037153333
73	0xbcdc407c	-0.026886217
74	0xbb5fb7f1	-0.0034136737
75	0xbc481d6c	-0.012214046
76	0xbd2c93fe	-0.042133324
77	0xbd24fd9d	-0.040280927
78	0x3d157b9b	0.036494832
79	0xbcb4cf80	-0.0220716
80	0xbd025e21	-0.03182805
81	0xbb9f6f08	-0.004865531
82	0xbcb10229	-0.021607475
83	0xbcb5cf9e	-0.022193726
84	0xbcb76f88	-0.02239205
85	0x3d055977	0.032556023
86	0xbd266c85	-0.040630836
87	0x3c06c869	0.008226492
88	0xbbee86d7	-0.0072792578
89	0xbd55445b	-0.052067142
90	0x3d19df39	0.037566397
91	0x3c6545f7	0.013993732
92	0xbaf25ea0	-0.0018491335
93	0xbc447524	-0.011990819
94	0xbcf9d69a	-0.030497838
95	0x3c79d7b1	0.015249179
96	0x3c8cccb6	0.017187458
97	0x3ad3e148	0.0016165162
98	0x3c93adf5	0.018027285
99	0xbcb6c674	-0.022311427
100	0xbd4bd343	-0.04976202
101	0xbcf63ee2	-0.030059282
102	0x3c165d83	0.009177568
103	0xbd429c0d	-0.047512103
104	0x3d17a650	0.037023842
105	0x3c72dd5b	0.014823283
106	0xbd399b5e	-0.045314185
107	0xbc3e49cb	-0.011614273
108	0xbc935292	-0.017983709
109	0xb865502e	-5.4672528e-05
110	0xbd9e8d8c	-0.07741842
111	0xbd2a5e89	-0.041594062
112	0xbc28ca50	-0.010302141
113	0xbc21806e	-0.00985728
114	0xbd6fbc4e	-0.05852919
115	0xbd584287	-0.05279782
116	0xbd67e139	-0.056611273
117	0xbd0a8407	-0.033817317
118	0x3c0d65c8	0.008630224
119	0xbca19e10	-0.01972869
120	0xbd47c669	-0.048773203
121	0xbd685f5a	-0.05673156
122	0xbd66cf1a	-0.05634985
123	0x3c6f4687	0.014604217
124	0xbd3700bd	-0.04467844
125	0xbcd24a28	-0.025670126
126	0xbd5b6f10	-0.053572714
127	0x3c897344	0.016778596
128	0x3cb691ff	0.022286413
129	0xbb8af335	-0.0042404183
130	0x3a8dfcd7	0.0010832798
131	0xbcd05bf8	-0.02543448
132	0xbd6bf81e	-0.05760967
133	0x3b5ffdd1	0.0034178386
134	0xbcbfcb19	-0.023412274
135	0xbcd567f7	-0.02605055
136	0x3cc3223d	0.023820037
137	0xbd511eb2	-0.051054664
138	0xbd54f035	-0.05198689
139	0x3d134f36	0.035964213
140	0xbd041846	-0.03224971
141	0xbd482f24	-0.04887308
142	0xbb4737bc	-0.003039821
143	0x3ca8feb7	0.02062927
144	0x3c3b71bd	0.011440692
145	0x3c3ff8f1	0.011717067
146	0x3ab7caba	0.0014022209
147	0xbca97152	-0.020683918
148	0x3c8fa341	0.0175339
149	0x38f05f4b	0.000114618415
150	0x3b2dc219	0.0026513396
151	0xbd994d35	-0.07485429
152	0xbd5bb9e6	-0.053644083
153	0xbbb62789	-0.005558912
154	0xbc9d58c6	-0.01920737
155	0xbb6915a0	-0.0035565868
156	0xbd2999d2	-0.04140646
157	0x3c0c4dd7	0.00856348
158	0x3ca0517e	0.019570109
159	0xbc416280	-0.011803269
160	0xbcd8c200	-0.026459694
161	0x3bcf4f7e	0.006326615
162	0xbbca00cc	-0.006164646
163	0xbd949cb5	-0.07256452
164	0x3cd8a16b	0.026444158
165	0xbd0e16c2	-0.034689672
166	0xbd1b08d2	-0.03785021
167	0xbd0ba96f	-0.03409713
168	0xbc980942	-0.018559102
169	0xbc99d6fd	-0.018779272
170	0x3b03680f	0.0020051037
171	0x3c920f18	0.017829463
172	0x3c6286c7	0.013826079
173	0xbd154e9c	-0.03645192
174	0xbd4d7d61	-0.0501684
175	0x3d3ca397	0.04605445
176	0xbd14cc00	-0.036327362
177	0x3cf89aec	0.03034731
178	0xbd9b84ea	-0.07593711
179	0xbc305375	-0.010762085
180	0xbc903d3a	-0.01760732
181	0xbd3c0986	-0.04590752
182	0xbd81740b	-0.063209616
183	0xbd012fb6	-0.03153964
184	0xbd4041f2	-0.04693789
185	0xbd617e52	-0.05505211
186	0xbd1fe2e0	-0.039034724
187	0xbcf886ba	-0.03033768
188	0xbac70788	-0.001518474
189	0xbd57fc78	-0.052731007
190	0xbd2cb2d9	-0.04216275
191	0xbcc24758	-0.02371566
192	0xbceb89b7	-0.028752191
193	0xbcc4667c	-0.02397465
194	0xbd054c46	-0.032543443
195	0x3c1c7e9a	0.009551669
196	0xbd0a1e2b	-0.033720177
197	0x3a5b9c9d	0.0008377524
198	0xbd396c67	-0.045269396
199	0xbd827dd7	-0.06371658
200	0x3c611238	0.013737254
201	0xbd04c6d1	-0.03241617
202	0x3c8b8069	0.017029004
203	0xbabbc15a	-0.0014324591
204	0xbd516057	-0.051117267
205	0x3bd0a71c	0.0063675772
206	0x3ca6a038	0.02034007
207	0xbce686d4	-0.028140463
208	0x3c97655a	0.018480945
209	0x3c3eb7cd	0.011640501
210	0x3cef75d0	0.029230982
211	0xbd2e3e71	-0.042540018
212	0xbd4619fd	-0.048364628
213	0xbd1c136f	-0.03810447
214	0xbc5f257f	-0.01361978
215	0xbc0393f0	-0.0080308765
216	0xbd04f953	-0.032464337
217	0xbcd22cbc	-0.025656097
218	0xbce90a6d	-0.028447354
219	0xbd7b65a1	-0.061376218
220	0xbd0adc35	-0.033901412
221	0xbcc080ee	-0.023498978
222	0xbd54186a	-0.051781096
223	0xbca50e54	-0.020148434
224	0xba738717	-0.00092898443
225	0xbd05d6fe	-0.032675736
226	0xbcc52a0d	-0.024067903
227	0x3c2040a7	0.009781039
228	0xbcc79d65	-0.024367044
229	0xbd56c9db	-0.052438598
230	0xbc548498	-0.012971066
231	0xbcd3c339	-0.025849925
232	0x3c6ad387	0.014332659
233	0xbd6f8765	-0.05847873
234	0x3b6403c6	0.0034792288
235	0xbd2556bf	-0.04036593
236	0x3ccb907b	0.024849167
237	0xbd84b7da	-0.064803794
238	0x3c69bd8e	0.014266385
239	0xbbfa6042	-0.0076408694
240	0xbcc8cf22	-0.024512831
241	0xbcbc9143	-0.023018485
242	0xbd5ffcd9	-0.054684494
243	0xbc9ac447	-0.01889242
244	0xbd72070d	-0.059088755
245	0xbd33657f	-0.043797966
246	0x3c530f1c	0.01288202
247	0xbd259739	-0.04042742
248	0x3b8bdf80	0.0042685866
249	0xbd7f9864	-0.06240119
250	0x3c9fbd3c	0.019499414
251	0xbd1f4901	-0.03888798
252	0x3c700729	0.014650145
253	0xbc3b9605	-0.011449342
254	0xbcf0e9c6	-0.029408347
255	0xbc5be180	-0.013420463

seq.2.weight f4 [120, 265]
0	0xbd6dd6bf	-0.058066126
1	0x3d8c0f4e	0.06838857
2	0xbd6be979	-0.057595704
3	0xbd36e9c5	-0.044656534
4	0x3ceb49b3	0.028721666
5	0xbd840eeb	-0.06448158
6	0xbd46e045	-0.048553724
7	0xbc8d4dd6	-0.01724903
8	0x3c07eb02	0.008295776
9	0x3d3c6dd1	0.046003167
10	0xbd0ee759	-0.0348886
11	0xbde883b6	-0.11353247
12	0x3d2b6fa2	0.04185451
13	0xbca047d7	-0.019565506
14	0xbba45728	-0.0050152726
15	0xbd8395ea	-0.06425078
16	0xbc10c84f	-0.00883682
17	0xbdf2c6bd	-0.118543126
18	0xbd7c808c	-0.06164603
19	0xbd22c3fe	-0.039737694
20	0xbb504a2d	-0.0031782493
21	0x3cd7e371	0.02635357
22	0x3d48da02	0.049036033
23	0xbdb7cdd0	-0.089748025
24	0x3d6ccfef	0.05781549
25	0x3ced0e4a	0.028937478
26	0xbd637d21	-0.055539254
27	0x3ca9acca	0.020712275
28	0xbcae9e97	-0.021315856
29	0xbbdc5ea4	-0.006725149
30	0xbc619ec5	-0.013770764
31	0x3e0e1c57	0.13877998
32	0xbc6cf66f	-0.014463051
33	0xbd5cf487	-0.053944137
34	0x3cef7e78	0.02923511
35	0xbd906f0a	-0.07052429
36	0x3d73c7ac	0.059516594
37	0xbd78bca9	-0.060726795
38	0xbd0ee343	-0.034884702
39	0xbd3f53e5	-0.046710867
40	0x3c146e51	0.009059505
41	0xbcecb99d	-0.028897101
42	0xbce754ad	-0.028238619
43	0x3cd0fed7	0.025512142
44	0xbd280827	-0.0410234
45	0x3d3e8c50	0.04652053
46	0xbcdc1f27	-0.026870323
47	0xbd8f62d2	-0.0700127
48	0xbd4e7fb1	-0.050414745
49	0xbccf1ce3	-0.025282329
50	0xbd8393f6	-0.06424706
51	0x3d1b4d93	0.037915777
52	0xbc7bd25c	-0.015369978
53	0xbcf858ca	-0.030315775
54	0xbde82342	-0.1133485
55	0xbc12671c	-0.008935716
56	0xbd9f444f	-0.07776701
57	0xbc89612c	-0.016769968
58	0x3cfaf7ed	0.030635798
59	0xbcfc2a97	-0.030782027
60	0xbd5d090c	-0.053963706
61	0xbcfdc4b9	-0.030977594
62	0xbd6f68e2	-0.058449633
63	0xbd49d4d1	-0.049275223
64	0xbe483eb7	-0.19555174
65	0x3d22339e	0.039600007
66	0xbd4a8a32	-0.0494482
67	0xbc998203	-0.018738752
68	0x3c40b8e5	0.011762832
69	0xbc26e484	-0.010186318
70	0xbc863a6a	-0.016385276
71	0xbd477808	-0.048698455
72	0x3d703478	0.058643788
73	0xbdeaf75d	-0.11472962
74	0xbc9d741c	-0.019220404
75	0x3d69fafa	0.057124116
76	0xbd45cd37	-0.04829141
77	0xbca54ed3	-0.020179188
78	0xbd4e1a2b	-0.050317924
79	0xbe4d14ee	-0.20027515
80	0xbc92152c	-0.017832361
81	0xbd715ffa	-0.05892942
82	0x3cde4eaf	0.027137129
83	0xbd2b4290	-0.041811526
84	0x3e019bb7	0.12657057
85	0xbd3f6fb9	-0.046737406
86	0xbdab98b1	-0.08378733
87	0xbe349728	-0.17635787
88	0xbc96665d	-0.018359357
89	0xbd970290	-0.07373536
90	0xbd06203c	-0.032745585
91	0x3cac73aa	0.021051247
92	0x3c9c1c75	0.019056538
93	0x3d705130	0.058671176
94	0x3d326aaa	0.043558754
95	0xbd00fb68	-0.03148976
96	0xbd1c326b	-0.03813402
97	0x3cf66535	0.030077556
98	0xbd0148fe	-0.03156375
99	0xbc9ac667	-0.018893434
100	0xbcb498d9	-0.02204554
101	0xbab8b463	-0.0014091845
102	0xbd8667bd	-0.06562755
103	0xbd8b0b60	-0.06789279
104	0x3cf339b1	0.029690595
105	0xbd886850	-0.06660521
106	0x3d1fbd0f	0.03899866
107	0x3ceaf545	0.028681407
108	0x3d3b00ab	0.045654934
109	0x3c73eeec	0.014888506
110	0xbd00e4d7	-0.03146824
111	0xbd1e7176	-0.038682424
112	0xbdbffae2	-0.09374024
113	0xbd4a16c4	-0.049338117
114	0xbcb32fb4	-0.021873333
115	0x3cdcf46a	0.026972014
116	0xbc737202	-0.014858725
117	0x3dc09b63	0.09404638
118	0xbd1fc213	-0.039003443
119	0x3c826532	0.015917394
120	0xbb829d73	-0.0039860546
121	0xbcbba458	-0.022905514
122	0xbbb2b37f	-0.0054535265
123	0xbc39a333	-0.011330414
124	0x3da37f9f	0.07983326
125	0x3d3d8558	0.046269745
126	0xbb74824e	-0.0037309113
127	0xbdc8816c	-0.0979031
128	0x3c526d8e	0.012843503
129	0x3ceaff72	0.028686259
130	0x3d0e3381	0.034717087
131	0x3e2dcdc0	0.16973019
132	0x3b0e637e	0.0021726782
133	0xbdc2419d	-0.09485171
134	0xbc87aee8	-0.016562894
135	0x3d66b956	0.056329094
136	0x3c5b9b4a	0.013403723
137	0xbd371dd8	-0.044706196
138	0xbd046971	-0.03232712
139	0xbdd2c068	-0.10290605
140	0xbc6f4c18	-0.0146055445
141	0xbdc67ff0	-0.09692371
142	0xbcd6e531	-0.026232334
143	0xbb153005	-0.0022764218
144	0xbbdab324	-0.0066741873
145	0xbc832ed3	-0.016013538
146	0xbdca322d	-0.098728515
147	0xbd43b825	-0.047783036
148	0xbceeecc5	-0.029165635
149	0xbcf64808	-0.030063644
150	0x3d643fbd	0.055724848
151	0xbd306760	-0.043067336
152	0xbd6a184a	-0.05715207
153	0x3cb338b7	0.02187763
154	0xbba21e68	-0.0049474724
155	0x3c19625f	0.009361832
156	0x3e337e21	0.17528583
157	0xbd0fb3e4	-0.035083666
158	0xbe17c417	-0.14820896
159	0xbd06f31f	-0.032946702
160	0xbd9d4ae7	-0.07680302
161	0x3cfe439c	0.031038098
162	0xbdd01652	-0.10160507
163	0xbda83370	-0.08212936
164	0xbd711d35	-0.058865745
165	0xbd487257	-0.048937168
166	0xbd438d0a	-0.047741927
167	0x3d1c0d8e	0.038098864
168	0x3d9e0cc7	0.07717281
169	0xbddeb8b2	-0.108750716
170	0x3d712ffe	0.05888366
171	0xbc95cee9	-0.018287139
172	0xbd0b0a1f	-0.0339452
173	0x3c835a6f	0.016034333
174	0xbc4ea78a	-0.012613187
175	0xbe0778b3	-0.13229637
176	0xbd827745	-0.06370405
177	0xbd9490b2	-0.07254161
178	0x3c820e0a	0.015875835
179	0xbd281f51	-0.04104549
180	0x3ca74ee0	0.020423353
181	0xbbb0125f	-0.0053732838
182	0x3cb44bd0	0.022008806
183	0xbce3d2be	-0.02781045
184	0x3d6ba249	0.057527814
185	0x3d11f7b0	0.035636604
186	0x3d504216	0.050844274
187	0xbd243cf5	-0.040097196
188	0xbc26ab15	-0.010172625
189	0x3c00bc95	0.007857461
190	0x3d12fe8d	0.03588729
191	0x3ce777a5	0.028255293
192	0xbceaaba5	-0.0286463
193	0x3d973798	0.073836505
194	0xbd9874fd	-0.07444189
195	0xbd50c6fa	-0.05097101
196	0xbc78beb1	-0.015182183
197	0xbd12eae6	-0.035868548
198	0x3cfbf68c	0.030757211
199	0xbdb6b1d0	-0.08920634
200	0xbd2a3c2b	-0.041561287
201	0xbd0ea21d	-0.034822572
202	0xbccf9775	-0.025340775
203	0x3aaabf8b	0.0013027055
204	0xbd40ae8b	-0.047041457
205	0xbd3942bb	-0.045229655
206	0x3c8547e1	0.016269626
207	0xbd02f63a	-0.0319731
208	0xbbda6327	-0.006664652
209	0x3c725a47	0.014792032
210	0xbc876f8b	-0.01653268
211	0x3d48850e	0.048955016
212	0x3c46dd5f	0.01213774
213	0x3d11a35e	0.03555619
214	0x3cc67efc	0.024230473
215	0xbd7f2528	-0.062291294
216	0xbb9d63a9	-0.00480314
217	0xbd17fc67	-0.037105944
218	0xbd1072cf	-0.03526574
219	0x3cbd5545	0.023111949
220	0xbcf4d791	-0.029887946
221	0xbcc604c9	-0.024172204
222	0xbd2443ee	-0.040103845
223	0xbda89065	-0.08230666
224	0x3cf8f437	0.030389888
225	0x3dab2b40	0.08357859
226	0xbdad4970	-0.08461273
227	0x3d389508	0.045064002
228	0xbc92736f	-0.017877309
229	0x3c24594d	0.010031057
230	0x3c41ae9e	0.011821417
231	0x3c85a7a5	0.01631529
232	0xbd7b57fe	-0.061363213
233	0x3d0dade8	0.034589678
234	0x3ce852dc	0.028359823
235	0xbc32cb26	-0.010912692
236	0xbd729201	-0.05922127
237	0xba97c2c4	-0.001157843
238	0xbd25891d	-0.040413965
239	0xbb32ba59	-0.0027271716
240	0xbd753e58	-0.05987391
241	0x3d8cfc6c	0.06884083
242	0xbdbb1c32	-0.09136237
243	0xbe677e03	-0.22606663
244	0xbd80c878	-0.062882364
245	0xbced110a	-0.028938789
246	0xbde60b2b	-0.11232599
247	0x3aa2ee7f	0.0012430697
248	0x3be50591	0.006989189
249	0xbd2ca8bf	-0.042153116
250	0xbb26fdca	-0.002548086
251	0xbccd5ddc	-0.02506917
252	0xbe2d5a20	-0.16928911
253	0xbdc82056	-0.097717926
254	0x3c906290	0.017625123
255	0xbd0d4a22	-0.034494527

seq.2.bias f4 [120]
0	0x3cb0819b	0.021546176
1	0xbd9a0113	-0.07519736
2	0xbd70adef	-0.058759626
3	0xbdd83eae	-0.1055883
4	0xbd678bc1	-0.056529764
5	0xbd5cddfb	-0.053922635
6	0x3c2ef1a8	0.0106777325
7	0xbcac3915	-0.021023313
8	0x3d3eb753	0.04656155
9	0xbd9230d6	-0.07138221
10	0xbd9711ff	-0.07376479
11	0xbd8ec191	-0.069705136
12	0xbd6d5d97	-0.057950582
13	0xbe0ae8a1	-0.13565303
14	0x3c760300	0.015015364
15	0xbd8014d6	-0.06253974
16	0xbd1183c2	-0.035526045
17	0xbda05f5d	-0.07830689
18	0xbd7e6d09	-0.062115703
19	0xba87c9db	-0.001035984
20	0x3cb12203	0.021622663
21	0xbd063a88	-0.032770663
22	0xbe094679	-0.1340579
23	0x3c01135c	0.007878151
24	0xbd59592b	-0.053063553
25	0x3e2f7047	0.17132674
26	0xbcf07794	-0.029353894
27	0x3d1250f8	0.03572175
28	0x3b967299	0.004591298
29	0xbd82e55f	-0.06391405
30	0xbbe2fda8	-0.006927211
31	0x3e06a8ea	0.13150373
32	0xbd831d7a	-0.064021066
33	0xbe163981	-0.14670373
34	0xbd4d9497	-0.050190534
35	0xbd2b7afd	-0.041865338
36	0xbdb47606	-0.08811574
37	0xbdc3ce45	-0.09560827
38	0xbe028234	-0.12744981
39	0x3c5ae65a	0.013360584
40	0xbd23b3c8	-0.039966375
41	0x3e691d01	0.2276497
42	0xbe1e173e	-0.15438554
43	0x3cbc48e6	0.02298398
44	0x3dc3ec9e	0.095666155
45	0xbd7a88f3	-0.06116576
46	0xbda235a6	-0.07920389
47	0xbd7ea496	-0.06216868
48	0xbd912302	-0.07086755
49	0xbd591d23	-0.053006303
50	0xbe1539a7	-0.14572774
51	0xbd821324	-0.06351307
52	0x3d28e92d	0.041238
53	0xbdceb40d	-0.10092936
54	0xbe1823ff	-0.14857481
55	0xbd272f10	-0.040816367
56	0xbd9f9a3f	-0.07793092
57	0xbbad7af7	-0.0052941996
58	0xbd9b6083	-0.075867675
59	0xbde98e1e	-0.1140406
60	0xbc543370	-0.012951717
61	0xbd41c878	-0.047310323
62	0x3dcf3615	0.10117737
63	0xbdc906ab	-0.09815725
64	0xbd9c4c4f	-0.07631742
65	0x3b4daae1	0.003138237
66	0xbda2cffa	-0.07949825
67	0xbcb0aa07	-0.02156545
68	0xbd3e3b0a	-0.046443023
69	0xbd202f53	-0.039107632
70	0xbd2da9c0	-0.042398214
71	0xbdc76b57	-0.0973727
72	0xbbeac477	-0.0071645337
73	0x3dac7014	0.08419815
74	0xbd86fee9	-0.06591589
75	0xbd00e356	-0.031466804
76	0x3d8eb368	0.06967813
77	0xbd2c970b	-0.042136233
78	0xbae6c653	-0.0017606713
79	0xbd99a315	-0.075018086
80	0xbd894a62	-0.067036405
81	0xbd804712	-0.062635556
82	0xbd8745e1	-0.06605125
83	0xbd348115	-0.044068415
84	0xbcd51bff	-0.026014326
85	0xbbd16b22	-0.006390945
86	0xbbb8bad6	-0.005637507
87	0xbdf80719	-0.12110729
88	0xbdbef165	-0.09323386
89	0x3cea5ba5	0.028608153
90	0xbdbf7565	-0.09348563
91	0x3cea262b	0.028582653
92	0xbd94b989	-0.072619505
93	0xbd61ecf8	-0.05515763
94	0xbd403df3	-0.04693408
95	0xbc4af2ba	-0.012386972
96	0xbc9ab662	-0.018885795
97	0x3d84db46	0.064871356
98	0xbdb6a2ba	-0.089177564
99	0xbd769c56	-0.060207687
100	0xbd104f43	-0.03523184
101	0xbe11ec03	-0.14250188
102	0xbd0f1927	-0.034936097
103	0x3d743da4	0.059629098
104	0xbd5b068f	-0.05347305
105	0xbd9980c3	-0.074952625
106	0xbdfb361c	-0.1226618
107	0xbb87e743	-0.0041474416
108	0xbd5e699f	-0.054299947
109	0xbe09762f	-0.1342399
110	0xbc3a0de2	-0.011355849
111	0x3d4e43c4	0.050357595
112	0xbda9b8ae	-0.08287178
113	0xbdc5018a	-0.09619434
114	0xbd6a107c	-0.057144627
115	0xbd604fb8	-0.054763526
116	0x3ca34e9e	0.019934949
117	0xbc99eac9	-0.018788712
118	0x3e2f8e51	0.17144133
119	0x3cb3f03f	0.021965144

seq.4.weight f4 [120, 120]
0	0xbe08e476	-0.13368401
1	0xbda1a6c1	-0.07893134
2	0xbc75cf04	-0.01500297
3	0xbd9f8951	-0.07789863
4	0x3db0b223	0.08627727
5	0xbc17ef1c	-0.009273317
6	0xbdd7012f	-0.10498273
7	0xbe142721	-0.14468051
8	0xbc1148f5	-0.008867492
9	0xbd9bd536	-0.07609026
10	0x3e07d3b6	0.13264355
11	0x3d9e19aa	0.07719739
12	0xbd277cb7	-0.04089042
13	0xbd9020fb	-0.070375405
14	0x3d5e1663	0.05422057
15	0xbe2a7d52	-0.16649368
16	0x3d5356b7	0.05159637
17	0xbda964ec	-0.082712024
18	0xbdb9fd09	-0.09081466
19	0xbdfb47ad	-0.122695304
20	0xbbfe41e0	-0.0077593178
21	0xbdd546bf	-0.10413884
22	0x3d8d4460	0.06897807
23	0xbd6a7d84	-0.057248607
24	0xbd55d092	-0.05220086
25	0xbbada2c2	-0.0052989433
26	0x3cc68c0c	0.024236701
27	0xbe6b607d	-0.22986026
28	0x3cbca0ac	0.023025833
29	0xbcabf0c7	-0.020988835
30	0x3d846ac8	0.064656794
31	0xbcf31041	-0.029670836
32	0xbdc093e5	-0.09403209
33	0xbbc990ef	-0.0061513106
34	0xbdd86971	-0.10566986
35	0x3d9486c2	0.072522655
36	0xbdb0063c	-0.08594939
37	0x3cfb882c	0.03070458
38	0xbda040dc	-0.07824871
39	0x3d236fd3	0.039901566
40	0xbc83838c	-0.016053937
41	0xbd1d452d	-0.03839605
42	0xbdcb3c7b	-0.09923645
43	0xba9aa93d	-0.0011799705
44	0xbdc20d8e	-0.094752416
45	0x3db780d8	0.08960122
46	0xbcf5523e	-0.029946443
47	0xbdc60aae	-0.09670006
48	0x3d21ef1f	0.039534684
49	0xbc1952f5	-0.009358157
50	0xbda0cb56	-0.07851283
51	0x3db3ac0d	0.087730505
52	0x3ddbb556	0.107279465
53	0xbc7c568b	-0.015401493
54	0xba775d03	-0.0009436162
55	0x3e2e1ec0	0.17003918
56	0x3d2350be	0.039871924
57	0xbba02dbb	-0.004888264
58	0x3dad2cd2	0.084558144
59	0x3e0e3e4e	0.13890955
60	0xbd7fb063	-0.062424075
61	0x3cd0815a	0.025452305
62	0x3d49b38e	0.049243502
63	0xbdb442b1	-0.08801783
64	0x3e4ebbcb	0.20188825
65	0x3caa82d9	0.020814346
66	0x3d3852ae	0.045000724
67	0xbd9743c3	-0.073859714
68	0xbe0d28cd	-0.13785096
69	0xbcb60432	-0.022218797
70	0xbc64fda5	-0.013976489
71	0x3d2a3c9a	0.0415617
72	0xbdd0fa52	-0.10203995
73	0x3d50dd18	0.0509921
74	0xbe04ed6b	-0.12981193
75	0x3e6017b6	0.21884045
76	0x3d8cfbe9	0.068839855
77	0x3cb0df75	0.021590928
78	0xbd9facd2	-0.07796635
79	0x3b95a224	0.004566448
80	0xbdfa8f3f	-0.12234353
81	0x3e066755	0.13125356
82	0xbe1327d5	-0.14370663
83	0xbd55cc0f	-0.05219656
84	0xbcd68a03	-0.026188856
85	0xbcffbac6	-0.03121699
86	0xbdb4fddc	-0.08837482
87	0xbc9cd9ed	-0.019146884
88	0x3dd9538b	0.10611638
89	0xbd4ef609	-0.050527606
90	0x3bccb33f	0.0062469537
91	0xbd7ae8c7	-0.06125715
92	0x3b0898cd	0.002084303
93	0xbcf6155d	-0.030039484
94	0xbc89556f	-0.01676437
95	0xbd525ca6	-0.051357888
96	0x3dabf6d3	0.08396687
97	0x3d47b6cc	0.048758313
98	0x3c225508	0.009907968
99	0x3d76425b	0.060121875
100	0xbda0bf4d	-0.07848988
101	0xbb28ba69	-0.0025745875
102	0xbdb8c307	-0.090215735
103	0xbe13cb8a	-0.14433113
104	0x3e368240	0.17823124
105	0xbdd0ea6f	-0.10200965
106	0xbcc9f746	-0.024654042
107	0x3c87b7b4	0.016567089
108	0xbd32d917	-0.043664064
109	0xbd84fd99	-0.064936824
110	0xbe08ca00	-0.13358307
111	0x3b326197	0.0027218813
112	0x3c84c57b	0.016207447
113	0xbcb4ac08	-0.022054687
114	0xbdd822a8	-0.10553485
115	0xbdaebbb3	-0.085318945
116	0xbd6c3866	-0.057670973
117	0xbd15b7e8	-0.03655234
118	0xbd6e7220	-0.058214307
119	0xbcfd76e8	-0.030940488
120	0x3ced5556	0.028971355
121	0xbda6de96	-0.08147924
122	0x3d7a3434	0.06108494
123	0xbc6ad620	-0.014333278
124	0x3d181dba	0.037137724
125	0xbb3ffd00	-0.0029295087
126	0xbd55e5b5	-0.05222102
127	0x3d2f4346	0.042788766
128	0xbcea5460	-0.028604686
129	0x3d9b0d20	0.07570863
130	0xbc9aeb2b	-0.018910965
131	0x3d7c0baf	0.06153458
132	0xbda02ab5	-0.07820646
133	0xbc847d87	-0.016173137
134	0xbda27b8b	-0.0793372
135	0x3d233e4f	0.039854344
136	0x3d2148c8	0.03937605
137	0xbc89d775	-0.01682637
138	0x3b46fa2e	0.003036152
139	0xbd91a909	-0.07112319
140	0xbd1e15f7	-0.038595166
141	0xbcd5336c	-0.026025496
142	0xbd821664	-0.06351927
143	0x3c540bee	0.012942297
144	0xbc852fa2	-0.016258065
145	0xbd206191	-0.039155547
146	0x3c493f31	0.012283132
147	0xbdb952ca	-0.09048994
148	0x3c907364	0.017633148
149	0xbc0013fa	-0.007817263
150	0xbd44e14b	-0.04806642
151	0xbd058a4a	-0.032602586
152	0x3cffbd49	0.031218188
153	0xbc07f2fa	-0.008297676
154	0x3da3c660	0.079968214
155	0x3d9ddc69	0.077080555
156	0x3cd85029	0.02640541
157	0x3d028f76	0.031875096
158	0xbd1eed98	-0.038800806
159	0x3d0e20a4	0.034699097
160	0xbd7e621b	-0.06210528
161	0x3c3d57e9	0.011556604
162	0x3c30e0dd	0.010795799
163	0xbd28c6c4	-0.041205183
164	0xbd9d2f44	-0.07675031
165	0xbdb8e9ce	-0.0902897
166	0x3c935968	0.017986968
167	0x3ab0643f	0.001345761
168	0xbd87159d	-0.06595919
169	0x3cdd38cc	0.027004622
170	0x3ca9a7c6	0.020709883
171	0x3d2355df	0.039876815
172	0x3d8c3167	0.0684536
173	0x3ce1edd9	0.027579235
174	0x3c48badb	0.012251581
175	0x3c68ec66	0.014216518
176	0xbbef07c2	-0.007294626
177	0xbc4063d8	-0.011742555
178	0xbbd285d9	-0.0064246473
179	0xba360ea3	-0.000694493
180	0x3cbf3f4c	0.023345612
181	0xbdb1e853	-0.086868905
182	0xbc0847f7	-0.008317939
183	0xbd6f9a60	-0.058496833
184	0xbda3046e	-0.07959829
185	0x3cfd3a30	0.030911535
186	0x3d89de6a	0.06731875
187	0xbaecde8b	-0.0018071694
188	0x3da09ea4	0.07842758
189	0xbd3406e5	-0.043951888
190	0xbd13a1b2	-0.036042877
191	0xbd9c2e49	-0.07626016
192	0xbd759672	-0.05995793
193	0xbc7dd012	-0.015491502
194	0xbd98fb54	-0.07469812
195	0x3d8fa09f	0.07013058
196	0xbcc76f2c	-0.024345003
197	0xbc021724	-0.0079400875
198	0xbcc97111	-0.024590047
199	0x3c4f4091	0.012649671
200	0xba48b167	-0.00076558295
201	0xbd95e5d5	-0.073192276
202	0xbd556c72	-0.052105375
203	0xbd9053b8	-0.07047218
204	0xbcd39ba1	-0.025831046
205	0x3a4220f8	0.00074054254
206	0x3d96c86e	0.07362448
207	0xbda626f7	-0.08112901
208	0x3cfc554a	0.030802388
209	0xbdcbf13b	-0.099581204
210	0x3caf1138	0.021370515
211	0xbd4d4604	-0.0501156
212	0xbd13cb65	-0.036082644
213	0xbda11f4f	-0.078673
214	0xbd1ac8e6	-0.037789248
215	0x3cce2222	0.02516276
216	0xbda60fd5	-0.081084885
217	0x3cff6d98	0.031180188
218	0x3dadb056	0.08480899
219	0xbd330930	-0.043709934
220	0x3d286b61	0.04111803
221	0x3db5f89e	0.088853106
222	0x3d02bdec	0.031919405
223	0xbdc1474b	-0.09437426
224	0xbda5dd27	-0.08098822
225	0x3d5fb88e	0.054619364
226	0x3a77cdae	0.0009452951
227	0x3d3dab78	0.046306103
228	0xbdcd6511	-0.100290425
229	0x3d6a814c	0.057252213
230	0xbda8e7b0	-0.08247316
231	0x3d4ab942	0.049493082
232	0xbbfbab6b	-0.0076803467
233	0x3c4fef75	0.012691368
234	0x3c8c4c0b	0.017126104
235	0x3d16751d	0.03673278
236	0xbd504103	-0.05084325
237	0x3d7bf404	0.06151201
238	0xbcefea56	-0.029286545
239	0xbd17edcc	-0.037092015
240	0xbd8899e1	-0.06669975
241	0xbb5cf4e2	-0.0033715297
242	0x3c841818	0.01612477
243	0xbdab8ac5	-0.083760776
244	0x3d51040f	0.05102926
245	0x3d8256f6	0.06364243
246	0x3d8f6a85	0.07002739
247	0x3d559045	0.05213954
248	0x3d68a782	0.056800373
249	0x3d377030	0.044784725
250	0x3c2231d4	0.009899575
251	0xbd2359fc	-0.039880738
252	0x3d3d6200	0.04623604
253	0xbd9bd4e6	-0.076089665
254	0xbcbcf450	-0.023065716
255	0x3cb18e86	0.021674406

seq.4.bias f4 [120]
0	0xbd71fac8	-0.059077054
1	0xbd3a3739	-0.04546282
2	0xbdc9bba4	-0.09850243
3	0x3dfac517	0.12244623
4	0xbc747323	-0.014920029
5	0x3b0fbeb5	0.0021933739
6	0x3c5c2a4d	0.01343782
7	0xbda5def4	-0.080991656
8	0xbbe7a7d7	-0.0070695686
9	0xbd508472	-0.05090756
10	0xbdc0bb0a	-0.09410675
11	0xbd793db5	-0.060849864
12	0x3dacec4c	0.084435076
13	0x3d8f5c14	0.069999844
14	0xbdd2e4b5	-0.10297529
15	0x3c7c725a	0.015408123
16	0xbd5a8093	-0.053345274
17	0x3c066bb7	0.008204392
18	0x3bcfefd6	0.0063457293
19	0xbd815ae9	-0.06316168
20	0x3cd81390	0.026376516
21	0xbc506237	-0.012718729
22	0xbd32e216	-0.043672644
23	0x3dd933d9	0.10605592
24	0x3c7be0c9	0.015373417
25	0xbd4f2438	-0.05057165
26	0x3ceb1e94	0.028701104
27	0x3da4c5cf	0.080455415
28	0x3dcdd67f	0.100506775
29	0xbdc89a5d	-0.097950675
30	0x3e082615	0.13295777
31	0x3d819ec3	0.063291095
32	0x3dfc091c	0.12306425
33	0xbd09e8f3	-0.033669423
34	0xbe3864de	-0.18007228
35	0xbb847ce0	-0.0040432066
36	0x3e1dfc27	0.1542822
37	0x3dfe902c	0.12429842
38	0x3c5586f8	0.013032667
39	0x3c24fcc2	0.010070028
40	0xbb126258	-0.002233645
41	0xbd28dade	-0.041224353
42	0x3d168c6b	0.036755007
43	0x3dbeb9dd	0.09312794
44	0xbab04d83	-0.0013450835
45	0xbc71f63b	-0.014768179
46	0xbdb6652a	-0.08906014
47	0x3cf46339	0.02983247
48	0xbd4e64ef	-0.050389227
49	0x3a8fa686	0.0010959662
50	0x3d86f967	0.065905385
51	0xbde303f3	-0.11084738
52	0x3dfd3a65	0.123646535
53	0xba84ef31	-0.0010142085
54	0xbdace7d3	-0.084426545
55	0xbdc6063c	-0.09669158
56	0xbd3dd9d8	-0.04635033
57	0xbd58464f	-0.052801427
58	0x3d893345	0.06699232
59	0x3dafcc31	0.08583868
60	0x3d8c3ab3	0.068471335
61	0xbe17b343	-0.14814477
62	0x3d2cb9b7	0.0421693
63	0xbd9ca79d	-0.07649157
64	0x3d2710f7	0.040787663
65	0x3a16dd86	0.00057550555
66	0x3d0f39d9	0.034967277
67	0x3cb25abf	0.021771787
68	0xbd9eab14	-0.07747474
69	0xbdd7a536	-0.10529558
70	0xbdd0f073	-0.10202112
71	0x3e45e03d	0.19323821
72	0x3d5bd00a	0.0536652
73	0x3d030fad	0.03199737
74	0xbcadf808	-0.021236435
75	0x3d8272a7	0.063695244
76	0xbdf28dcc	-0.11843452
77	0x3cbf0a2d	0.023320282
78	0xbda49c03	-0.080375694
79	0xbdb33413	-0.08750167
80	0xbd26111a	-0.040543653
81	0x3dda2eb1	0.10653437
82	0x3dab6a2a	0.083698586
83	0xbdc1928d	-0.094517805
84	0x3e095ad4	0.13413554
85	0x3e150cd5	0.14555676
86	0xbd309e99	-0.04312
87	0xbc189697	-0.009313247
88	0xbe0dc4e2	-0.13844636
89	0x3d1812aa	0.037127174
90	0x3e0b7448	0.13618577
91	0x3c9524db	0.01820605
92	0xbd5cd072	-0.053909726
93	0x3d493d4e	0.04913073
94	0x3d214e57	0.03938135
95	0x3cc4df4c	0.024032257
96	0x3e46dcb5	0.1942013
97	0x3d6fee59	0.058576915
98	0x3e28e92c	0.16495198
99	0x3cc8e5cc	0.024523638
100	0x3da6dd0b	0.08147629
101	0x3da48539	0.08033223
102	0xbdbc3038	-0.091888845
103	0x3deddeaa	0.116147354
104	0xbd28261c	-0.04105197
105	0x3d7ddcf7	0.061978307
106	0x3d1488e7	0.036263373
107	0x3dfea1a7	0.124331765
108	0xbd5be3cb	-0.053684037
109	0x3e2b0614	0.16701537
110	0xbc806650	-0.015673786
111	0xbd1c3334	-0.03813477
112	0x3b4deb15	0.0031420637
113	0xbe024c6d	-0.12724467
114	0x3d9fff27	0.07812338
115	0xbdedf23b	-0.116184674
116	0x3df38015	0.11889664
117	0xbe22ddcb	-0.1590492
118	0x3e0c8427	0.13722287
119	0xbd819ea7	-0.06329089

seq.6.weight f4 [50, 120]
0	0x3da379c4	0.07982209
1	0xbdb6f52a	-0.0893348
2	0x3c22a9f0	0.009928212
3	0xbc2d1780	-0.010564685
4	0x3d7a2130	0.061066806
5	0xbd745313	-0.05964954
6	0xbccffaf0	-0.025388211
7	0x3d2b0c34	0.041759685
8	0x3d9f9f0e	0.07794009
9	0x3ccc0124	0.024902888
10	0xbd544293	-0.051821303
11	0xbd5e1d33	-0.054227065
12	0x3ce72548	0.02821602
13	0x3d20a690	0.039221346
14	0xbd8cc1ba	-0.06872888
15	0xbd4a723a	-0.04942534
16	0xbce137ac	-0.027492367
17	0x3c9d2e8c	0.019187234
18	0xbb9b80d0	-0.0047455803
19	0x3d6951e4	0.056962863
20	0xbc29d2b0	-0.010365173
21	0xbd861873	-0.06547632
22	0x3ce00344	0.027345307
23	0x3d372f74	0.04472299
24	0xbd1495b3	-0.036275577
25	0x3d221eec	0.03958027
26	0x3db88e08	0.09011465
27	0xbd3a725e	-0.045519225
28	0xbd660685	-0.05615856
29	0xbd82a8c1	-0.063798435
30	0x3d90dc84	0.0707331
31	0xbd8b43aa	-0.06800015
32	0x3be64a30	0.007027887
33	0xbdb3427f	-0.087529175
34	0x3d82d0c2	0.06387474
35	0x3db38610	0.08765805
36	0x3d5f1dfc	0.054471955
37	0xbdb4cae9	-0.088277645
38	0xbd3dcc57	-0.04633745
39	0x3d3574a8	0.044300705
40	0xbd997835	-0.07493631
41	0xbd1ed6d5	-0.0387791
42	0xbd136345	-0.035983343
43	0xbd9def46	-0.077116534
44	0x3caaa498	0.020830438
45	0x3d233b64	0.03985156
46	0x3d0eb9b0	0.034845054
47	0xbd0103e9	-0.03149787
48	0xbcfb6180	-0.03068614
49	0xbc9fb14c	-0.019493721
50	0xbb862520	-0.004093781
51	0xbd56f03b	-0.052475195
52	0x3d9563da	0.07294436
53	0xbd86b9dc	-0.065784186
54	0x3c8ee324	0.017442293
55	0xbd2adf6b	-0.041716974
56	0xbce70684	-0.02820135
57	0xb79b6000	-1.8522143e-05
58	0x3da012c8	0.07816082
59	0xbd8f89af	-0.07008683
60	0xbdaef964	-0.08543661
61	0xbd9c6822	-0.07637049
62	0xbd879c28	-0.06621581
63	0x3bb355d0	0.005472876
64	0xbd558a4b	-0.05213384
65	0x3d7120f0	0.058869302
66	0x3ce5c010	0.028045684
67	0xbb3f4120	-0.0029183105
68	0xbd13a485	-0.03604557
69	0xbd7b62c6	-0.061373495
70	0xbd19021e	-0.037355535
71	0xbd525cd6	-0.051358066
72	0xbc9cab48	-0.019124642
73	0x3da04c26	0.07827024
74	0xbd53933c	-0.051654086
75	0x3d25f248	0.04051426
76	0x3c9b93d4	0.018991388
77	0xbb0b7d60	-0.0021284446
78	0x3cdb0e1c	0.026740126
79	0xbca767a4	-0.020435162
80	0xbd249b6f	-0.040187296
81	0xbd5d68b7	-0.054054942
82	0x3d65b894	0.05608423
83	0xbdb021a9	-0.0860017
84	0xbb2d3b80	-0.002643317
85	0xbd5a9d7b	-0.05337284
86	0x3c6da1e8	0.0145039335
87	0xbda284ab	-0.07935461
88	0xbd425390	-0.047442973
89	0xbc38bfb8	-0.011276178
90	0xbd01bbc9	-0.031673227
91	0xbd4fa48b	-0.05069403
92	0xbc714a80	-0.014727235
93	0xbd6de42d	-0.058078934
94	0x3a914640	0.0011083558
95	0xbdaf8b71	-0.08571518
96	0xbcdb3790	-0.026759893
97	0xbba7f2f0	-0.005125396
98	0xbdadd524	-0.08487919
99	0xbd41d6b4	-0.047323897
100	0xbd829002	-0.063751236
101	0xbd2a871e	-0.041632764
102	0x3d921c0e	0.07134257
103	0x3d460c1c	0.048351392
104	0xbd5eaf42	-0.054366358
105	0x3db77eb6	0.08959715
106	0x3cd2acc8	0.025717154
107	0xbd543e4b	-0.05181722
108	0xbcf238fe	-0.029568192
109	0xbd09c346	-0.033633493
110	0xbd9a5e98	-0.075375736
111	0x3db5735c	0.08859894
112	0xbdb3fdcf	-0.087886445
113	0x3caa2714	0.020770587
114	0xbd63bd7e	-0.055600636
115	0x3da19968	0.07890588
116	0x3db4f36e	0.08835493
117	0x3d283d70	0.041074216
118	0x3d132c5c	0.035930976
119	0x3d5d07b4	0.053962424
120	0xbdcec871	-0.10096825
121	0x3d77b7f8	0.06047818
122	0xbcfea1aa	-0.031082947
123	0xbccca9ae	-0.024983253
124	0xbdc777ab	-0.09739622
125	0x3c9cb3b6	0.019128662
126	0xbd60d4b6	-0.054890357
127	0xbca4b77f	-0.020107029
128	0xbd0ca0b1	-0.034332935
129	0xbc96b5f0	-0.018397301
130	0xbd386e72	-0.045027204
131	0xbd76424c	-0.06012182
132	0xbdc8e7f5	-0.09809867
133	0x3c4536fb	0.012037034
134	0xbda09ffb	-0.07843014
135	0xbdc0a539	-0.09406514
136	0xbd0d4cba	-0.034497
137	0xbda9d77a	-0.08293052
138	0x3da2df52	0.07952751
139	0xbd986c86	-0.07442574
140	0xbd4a88f2	-0.049447007
141	0xbdc7697c	-0.097369164
142	0x3d9ae5f3	0.075633906
143	0x3d8432bf	0.064549915
144	0x3b9ed54b	0.004847204
145	0xbceef566	-0.02916975
146	0x3d7da362	0.061923392
147	0x3d8ccdf4	0.0687522
148	0xbd8bba37	-0.06822627
149	0xbd56907e	-0.052383892
150	0x3c8d4cc9	0.017248528
151	0xbda42aa8	-0.080159485
152	0x3c6cde34	0.014457274
153	0xbd84800a	-0.06469734
154	0xbd079fd1	-0.033111397
155	0x3d1b9478	0.037983388
156	0x3d6fea05	0.058572788
157	0xbc10ba84	-0.008833531
158	0x3ba6751b	0.005079878
159	0x3d868472	0.06568231
160	0x3db728e6	0.08943348
161	0xbd72f96d	-0.059319902
162	0xbdd9ce2a	-0.10635026
163	0xbd05d15d	-0.032670368
164	0xbd34ae58	-0.04411158
165	0xbd6f566c	-0.058432028
166	0x3d59ae9a	0.05314503
167	0xbd949145	-0.072542705
168	0x3ca22dc9	0.019797223
169	0xbd0aea23	-0.033914696
170	0x3c44f870	0.012022123
171	0x3d6accac	0.057324097
172	0x3d92b30e	0.07163058
173	0xbd8f1d5d	-0.069880225
174	0xbd635ffe	-0.055511467
175	0x3b18fda0	0.0023344532
176	0xbcb22b40	-0.021749139
177	0xbd97aaae	-0.074056014
178	0xbd8cd8ce	-0.0687729
179	0xbc88431c	-0.016633563
180	0xbd534488	-0.05157903
181	0x3d8b9baa	0.068168
182	0xbd499b44	-0.04922034
183	0x3d410258	0.047121376
184	0x3a498742	0.00076876965
185	0xbb21feb3	-0.0024718463
186	0xbd62fece	-0.055418782
187	0xbb7c2cab	-0.0038478773
188	0x3d4678f4	0.048455194
189	0x3c6f3b30	0.014601514
190	0xbdbad771	-0.091231234
191	0xbdce614f	-0.10077154
192	0x3d3014e8	0.042988688
193	0xbd81f38a	-0.063452795
194	0xbcdaa88a	-0.026691694
195	0xbd97c679	-0.074109025
196	0x3d91a1c1	0.0711093
197	0xbd873a88	-0.06602961
198	0xbaa06b40	-0.0012238994
199	0xbdb27184	-0.08713058
200	0x3adba02d	0.001675611
201	0x3c8e8af8	0.01740025
202	0xbcc957e3	-0.02457804
203	0xbd603372	-0.054736562
204	0xbd85a0ad	-0.06524787
205	0x3d89ba53	0.06724992
206	0x3da5686e	0.08076559
207	0x3cdd8073	0.027038788
208	0x3d52cacc	0.051462933
209	0xbdb96ab4	-0.09053555
210	0xbda59444	-0.0808492
211	0xbd852309	-0.06500823
212	0x3d023d4c	0.03179674
213	0x3d45572b	0.048178833
214	0xbd2390e1	-0.03993309
215	0xbce4dd78	-0.027937636
216	0xbd89a37f	-0.067206375
217	0xbcee362e	-0.02907857
218	0xbd83546a	-0.06412585
219	0x3d40658a	0.046971835
220	0xbdb11fe2	-0.08648659
221	0x3cd60363	0.026124662
222	0x3caf62c5	0.021409402
223	0x3cc1a62c	0.023638807
224	0x3cfc211c	0.030777507
225	0xbbeb8126	-0.0071870266
226	0xbabff43f	-0.0014644935
227	0x3c8ff962	0.01757497
228	0x3da4fa04	0.08055499
229	0xbca5e04b	-0.020248553
230	0x3c9151ff	0.017739294
231	0x3d19f828	0.037590176
232	0x3acf9cb3	0.0015839547
233	0x3d33bfb8	0.04388401
234	0x3cfe9b83	0.031080013
235	0xbcff66c8	-0.03117694
236	0x3d8f7fa1	0.07006765
237	0x3d3f6f40	0.046736956
238	0x3c97e2a6	0.018540692
239	0xbcb7c399	-0.022432135
240	0x3e111202	0.14167026
241	0x3d96c19c	0.07361147
242	0xbd0d0e71	-0.0344376
243	0x3dd01b92	0.101615086
244	0x3c65ff10	0.014037862
245	0xbda18cc6	-0.078881785
246	0x3c0582dd	0.008148876
247	0xbd67cb0d	-0.05659013
248	0x3cbef88e	0.02331188
249	0x3dc593e0	0.096473455
250	0xbd0e6ee5	-0.034773726
251	0xbcad0acf	-0.021123318
252	0xbc89334b	-0.016748091
253	0x3d36e4e3	0.044651877
254	0xbd84da74	-0.06486979
255	0x3d14fd97	0.036374655

seq.6.bias f4 [50]
0	0xbd35e644	-0.04440905
1	0xbd158605	-0.036504764
2	0x3d369914	0.04457958
3	0xbb8dbd0b	-0.004325514
4	0xbc59ff15	-0.013305445
5	0x3ccc5e39	0.024947273
6	0x3c344fdd	0.011005369
7	0xbcaffef7	-0.021483881
8	0xbdc44b3a	-0.09584661
9	0x3d486db0	0.04893273
10	0xbd20a0e9	-0.039215956
11	0xbcd7e6ab	-0.026355108
12	0xbdbc2d6b	-0.0918835
13	0x3c9b2e76	0.018943053
14	0x3cfeafca	0.031089682
15	0xbc2d01ed	-0.010559541
16	0xbd3d088d	-0.046150733
17	0x3da47069	0.08029253
18	0x3e39bf23	0.18139319
19	0x3d387688	0.045034915
20	0x3e11aa93	0.14225225
21	0x3d6b2bd6	0.057414852
22	0xbd7317c8	-0.05934885
23	0xbcefc3fb	-0.029268255
24	0xbe15ceab	-0.14629619
25	0x3d3b308d	0.0457006
26	0x3e1d73f7	0.15376268
27	0x3db8ae4e	0.09017621
28	0xbae45ac4	-0.001742207
29	0xbc8b932f	-0.017037956
30	0xbdc4d254	-0.096104294
31	0x3c881a4c	0.016614102
32	0xbdb072cb	-0.08615645
33	0x3ded5f14	0.115904
34	0x3deeb8c3	0.11656334
35	0xbdbb2bab	-0.091391884
36	0xbdc92f6f	-0.098235
37	0x3de9cb81	0.114157684
38	0x3d1cae13	0.038251948
39	0x3c86ca12	0.016453777
40	0xb90955c4	-0.00013097288
41	0x3d8c6846	0.06855826
42	0x3e11996f	0.14218687
43	0x3d3dc6ca	0.04633216
44	0x3d7820f1	0.06057829
45	0x3af49bcf	0.0018662157
46	0xbcecdfa8	-0.028915241
47	0x3cfa7ad3	0.030576145
48	0xbc1285b1	-0.008943007
49	0xbca71b27	-0.02039869

adv_1.0.weight f4 [20, 50]
0	0x3dd34f8a	0.10317905
1	0x3cedecf3	0.02904365
2	0xbd88c80e	-0.066787824
3	0xbd48a07a	-0.048981167
4	0x3dd580f0	0.104249835
5	0xbe82d566	-0.25553435
6	0x3d267ffc	0.0406494
7	0x3d4518f0	0.048119485
8	0xbc916d9d	-0.017752463
9	0x3e28ccae	0.16484329
10	0x3d01d5f3	0.03169818
11	0xbd364645	-0.044500608
12	0x3ddab8c5	0.10679773
13	0xbdbad8f2	-0.0912341
14	0x3d5aeb6f	0.053447183
15	0x3d9c51f4	0.07632819
16	0x3e2aaa86	0.16666612
17	0xbe56cf9a	-0.20977631
18	0x3e74dc5e	0.23912188
19	0x3dee6b84	0.11641601
20	0x3e1a4e26	0.15068874
21	0xbd75c71b	-0.060004335
22	0x3e36773b	0.1781892
23	0xbe405594	-0.18782645
24	0x3e176171	0.14783265
25	0x3ba2c648	0.0049674846
26	0x3d61d747	0.055136945
27	0x3e33dac8	0.17563927
28	0x3d14ff88	0.036376506
29	0xbdc95abe	-0.09831761
30	0x3dab0743	0.083509944
31	0xbc976386	-0.018480074
32	0xbe4a3df0	-0.1975019
33	0x3c9a53d7	0.018838806
34	0xbe3cb8b2	-0.1842983
35	0xbd1c9666	-0.03822937
36	0xbdd53b4f	-0.10411703
37	0xbd18dc70	-0.0373196
38	0x3d0752c0	0.0330379
39	0xbd5b0c11	-0.053478304
40	0xbcb0ea8d	-0.021596218
41	0x3db97c12	0.09056868
42	0x3e7ae78e	0.24502394
43	0x3e19c433	0.1501625
44	0x3e27d5f2	0.16390207
45	0xbdf41dad	-0.11919723
46	0x3ca1d53d	0.019755
47	0x3c891948	0.016735688
48	0x3db2ea79	0.08736128
49	0xbd87a400	-0.066230774
50	0xbd8f198d	-0.06987295
51	0x3d4276e5	0.047476668
52	0x3e7304ce	0.23732302
53	0xbd17ed78	-0.037091702
54	0xbe157f96	-0.14599451
55	0xbdfc06c1	-0.12305976
56	0x3de823b6	0.11334936
57	0xbdb0a285	-0.08624748
58	0xbd97d1a0	-0.0741303
59	0x3da3e604	0.080028564
60	0xbd5035fc	-0.050832734
61	0xbdc6091f	-0.096697085
62	0xbcb87550	-0.022516876
63	0x3dfda8ba	0.12385698
64	0x3e8c4fca	0.27404624
65	0xbe179b92	-0.14805439
66	0xbc90278e	-0.017596986
67	0xbddf1e15	-0.108944096
68	0x3decd3e6	0.11563854
69	0x3c83a2d1	0.016068848
70	0x3e7935c2	0.24336913
71	0xbd5d522e	-0.05403345
72	0x3e557e72	0.20849016
73	0x3de16556	0.110056564
74	0x3e00eb99	0.12589873
75	0xbe8ea2be	-0.27858537
76	0x3d077fe2	0.033080943
77	0x3e0b664d	0.13613243
78	0xbd013c82	-0.031551845
79	0x3c13bb53	0.00901683
80	0x3d118bcf	0.035533722
81	0xbd9c0bbb	-0.07619425
82	0xbe072ba4	-0.13200241
83	0xbb28de5e	-0.0025767307
84	0xbdb2c153	-0.0872828
85	0xbd2151c7	-0.03938463
86	0xbde6baa8	-0.112660706
87	0x3d743045	0.059616346
88	0xbd775e72	-0.060392804
89	0x3e1fcf5b	0.15606444
90	0x3b65fb42	0.0035092388
91	0xbd8d1bb9	-0.06890053
92	0x3e7d0c4c	0.24711722
93	0x3dd2feb2	0.103024855
94	0x3cd47061	0.025932493
95	0xbe09978c	-0.13436717
96	0x3dd41b23	0.103567384
97	0xbda5f012	-0.081024304
98	0xbcaa60d4	-0.020798124
99	0xbd852943	-0.06502011
100	0x3d5de518	0.05417356
101	0x3dd1fed5	0.102536835
102	0xbd063b31	-0.032771293
103	0x3d91775e	0.071028456
104	0xbda176b0	-0.07883966
105	0x3dd28810	0.10279858
106	0xbddd535d	-0.10806916
107	0xbd987cf0	-0.07445705
108	0x3e01b691	0.126673
109	0x3dd96d61	0.106165655
110	0xbd8eceab	-0.069730125
111	0x3d8a1947	0.067431025
112	0x3da51162	0.08059956
113	0xba0c9c6c	-0.0005363885
114	0xbe23bcd2	-0.15989998
115	0xbe5b1402	-0.21394351
116	0x3b957400	0.0045609474
117	0xbcc12fde	-0.023582395
118	0xbd18ba8c	-0.03728728
119	0x3ddc6530	0.107614875
120	0xbc3e1735	-0.011602213
121	0xbd2f3574	-0.042775586
122	0xbd4814d8	-0.048848003
123	0xbe009797	-0.12557827
124	0xbd61aa57	-0.05509409
125	0x3d81e9ed	0.06343446
126	0xbd90280c	-0.07038888
127	0xbdb734ce	-0.089456186
128	0xbcedbbdc	-0.029020242
129	0x3cb8779d	0.022517974
130	0x3d1b9e30	0.037992656
131	0x3d7bc5e8	0.061468035
132	0xbe0ce426	-0.13758907
133	0xbda724fe	-0.081613526
134	0x3d69ef9d	0.05711328
135	0xbc3af600	-0.01141119
136	0xbd770ed5	-0.06031688
137	0xbe5c27e7	-0.21499597
138	0x3e2dfdac	0.169913
139	0x3dd60f22	0.10452105
140	0xbd54dda2	-0.051969178
141	0xbe257131	-0.1615646
142	0xbe39d5ee	-0.18148014
143	0x3dad81c6	0.08472018
144	0xbe16c338	-0.14722908
145	0xbd982c68	-0.07430345
146	0xbc27da30	-0.010244891
147	0xbd68146d	-0.056660105
148	0x3d3f7960	0.04674661
149	0x3c7a33fa	0.015271181
150	0x3db01d56	0.085993454
151	0xbd00f64d	-0.03148489
152	0xbe795135	-0.24347384
153	0xbd713ab4	-0.058893874
154	0xbe7ea506	-0.24867639
155	0x3deafa15	0.114734806
156	0xbd2371ca	-0.03990344
157	0x3da716d8	0.08158654
158	0x3db443f2	0.08802022
159	0xbd6dc45c	-0.05804859
160	0x3e18e0d4	0.14929515
161	0xbdd1817c	-0.10229775
162	0x3cecf320	0.028924525
163	0x3d9786d0	0.0739876
164	0xbd1e4601	-0.03864098
165	0xbd9a9431	-0.075477965
166	0xbc5443cb	-0.012955616
167	0x3d9a18e3	0.07524278
168	0x3e8a3691	0.26994756
169	0xbdc7c3e7	-0.09754162
170	0x3e433a27	0.19065152
171	0xbcc8666d	-0.024462903
172	0x3d312f3f	0.043257948
173	0xbdc9bc20	-0.09850335
174	0x3e3a2a99	0.18180312
175	0xbd11620d	-0.0354939
176	0x3df5b23f	0.11996888
177	0x3de3ff6f	0.111327045
178	0x3d96832e	0.07349239
179	0xbd274947	-0.040841367
180	0x3dcbda5b	0.099537574
181	0xbbf45eff	-0.0074576135
182	0xbdab7614	-0.08372131
183	0x3d4a43b5	0.049380977
184	0x3d140eab	0.0361468
185	0x3cb975e6	0.022639226
186	0xbe0037a8	-0.12521231
187	0x3e013b4b	0.12620275
188	0xbc257814	-0.01009943
189	0xbe426fc4	-0.18987948
190	0xbe2ba273	-0.16761188
191	0x3df0ab07	0.11751371
192	0xbdaec62e	-0.085338935
193	0xbcf171b5	-0.029473165
194	0x3d5adc82	0.05343295
195	0xbe04301c	-0.12908977
196	0x3de65b08	0.112478316
197	0x3dbc0cb6	0.09182112
198	0xbe26afce	-0.16278002
199	0xbdb00854	-0.085953385
200	0x3dcdc79e	0.100478396
201	0xbdbe7c52	-0.09301056
202	0xbdd54923	-0.1041434
203	0xbdab890d	-0.0837575
204	0x3d926cbb	0.07149645
205	0x3df76a6f	0.120808475
206	0xbd646d6c	-0.055768415
207	0xbdfdc716	-0.12391488
208	0xbdeea902	-0.116533294
209	0xbceace0b	-0.028662702
210	0xbdc41087	-0.09573465
211	0xbd536fc9	-0.05162028
212	0x3d9b9f7e	0.0759878
213	0x3e32d6fb	0.17464821
214	0x3bf6d248	0.0075323917
215	0xbea4d142	-0.321909
216	0x3dafb8d9	0.08580179
217	0x3e1a6b2b	0.15079944
218	0x3ecc449a	0.3989609
219	0xbe86bbe9	-0.2631524
220	0x3e466bdf	0.19377087
221	0xbcb3966e	-0.021922316
222	0x3e410023	0.18847708
223	0x3da6b7e2	0.081405416
224	0x3dfd972c	0.12382349
225	0xbe300131	-0.17187954
226	0xbd8c370e	-0.06846438
227	0x3e046e01	0.12932588
228	0x3d64bfe3	0.05584706
229	0xbd8b3e81	-0.06799031
230	0xbdae73a5	-0.08518151
231	0xbdf722eb	-0.12067207
232	0xbdb29670	-0.087201
233	0x3d79e127	0.061005738
234	0x3df30b7b	0.11867424
235	0xbdb9b807	-0.090683036
236	0xbe40b18a	-0.18817726
237	0xbe64ecf7	-0.2235602
238	0xbdbd7869	-0.09251482
239	0x3d89dbaf	0.067313544
240	0x3e4e5b4a	0.20152012
241	0x3e8d55b0	0.27604437
242	0xbe3bf8af	-0.18356584
243	0xbd1f0524	-0.03882326
244	0x3eacc7fb	0.33746323
245	0xbd3a83af	-0.04553574
246	0xbcb1b110	-0.021690875
247	0x3aa02eae	0.0012220943
248	0xbdbcf78c	-0.09226903
249	0x3dfc32b7	0.123143606
250	0x3c047be0	0.008086175
251	0xbe08bf94	-0.13354331
252	0xbcf82f3c	-0.03029596
253	0x3d49963b	0.049215537
254	0xbe372bd7	-0.17887817
255	0x3dee3bad	0.11632476

adv_1.0.bias f4 [20]
0	0x3e09f54c	0.1347248
1	0x3dcb68bb	0.09932085
2	0xbe30f169	-0.1727959
3	0x3d2286c3	0.0396793
4	0x3e9912ac	0.29897058
5	0xbe04243a	-0.12904444
6	0x3e36c6d1	0.1784928
7	0x3e3b673c	0.183011
8	0xbd337212	-0.043809958
9	0x3e3ee6c2	0.18642715
10	0x3e96a0c6	0.29419535
11	0x3dc5a043	0.09649708
12	0x3e6a4ec7	0.22881614
13	0x3dc7ea7c	0.09761521
14	0xba876cd2	-0.0010332114
15	0x3e4f4eb9	0.20244874
16	0x3df3f997	0.1191284
17	0x3e94741b	0.2899483
18	0x3e54e22a	0.207894
19	0xbe1c97c3	-0.15292268
