submission/checkpoint_Noisy.pth (torch, 723555 bytes, 22 tensors)

seq.0.weight f4 [265, 510]
-0.039804306 -0.08171831 -0.0074241394 -0.03258793 -0.0019521101 0.0971725 -0.048339587 0.07957452
-0.0039296523 0.02962727 -0.025984583 0.0025376095 -0.0009228838 -0.029326346 -0.00013950869 -0.16569088
-0.09086156 0.012064715 -0.030019736 0.039030552 -0.17064425 0.020335093 -0.031344883 0.0331358
0.024271477 0.009563237 -0.04115795 -0.068368524 -0.027876409 0.012165462 -0.48661444 0.013093978
-0.0749735 -0.020383883 0.041225836 0.05642651 -0.09153286 -0.058094062 0.01975888 0.040772837
-0.30127028 0.0046520834 -0.01635304 -0.0413447 0.009898866 0.0063319798 -0.042057045 -0.046503346
-0.01963829 0.031148218 -0.25939685 -0.012255524 -0.051673703 0.0059820116 0.081676014 0.055895444
-0.14900817 -0.094187304 -0.030690372 -0.040135015 -0.031574182 0.031371053 -0.052285705 0.013377529
0.07864388 -0.0959968 -0.026226807 0.038954087 0.027470738 0.047172412 0.0025050167 -0.060279995
0.008645435 0.036688782 0.1173903 0.016014347 0.09016514 0.025717543 0.004073497 -0.044002406
-0.06780622 0.036425006 0.0642533 -0.04417128 0.115398094 0.12744145 0.037063137 0.049466178
0.017028432 -0.08113007 0.20434338 -0.11582246 0.04803871 0.016557064 0.06067619 -0.023308532
0.09573782 0.075311705 -0.034542702 -0.06229426 0.16125228 0.114807025 -0.05271994 -0.011144791
0.05448274 0.026788767 0.018759634 0.05632881 -0.0024398528 -0.00370939 -0.13191585 -0.049004856
0.024238883 0.04017902 0.10662638 -0.20873678 0.11603145 0.03985394 0.006460607 -0.017748864
-0.06426668 -0.07018571 -0.01584173 0.020953164 0.021444056 -0.24677883 0.036989525 0.057486713
-0.015490882 -0.07462952 0.028963488 0.03585857 -0.012407807 -0.0022724606 0.071333185 -0.23178199
-0.12835582 0.06481647 0.008961599 0.018076109 0.026744962 0.039134886 0.022973858 -0.003202457
0.019837793 -0.11783672 0.033912417 0.04544251 -0.022009583 -0.03456808 0.009780501 -0.095055975
-0.023922669 0.024283826 0.10312708 0.01177806 0.0760653 0.016953526 -0.009361405 -0.049516514
0.04168392 -0.039621525 -0.108720444 -0.038233675 0.08013809 -0.19194794 0.0531836 0.04368485
-0.039855257 -0.028339855 -0.14533041 0.0033616093 0.029930621 0.01603644 0.02058845 -0.07979231
-0.030858992 -0.042877533 0.035409242 -0.042507786 -0.23066269 -0.0831671 0.06145058 0.012360729
0.07552698 -0.3281949 -0.03531312 0.010033042 -0.03649094 0.027830211 -0.10356358 -0.02136022
0.005310424 0.001974918 0.031015513 -0.20853825 -0.07008456 -0.018516399 -0.02638748 0.032511506
-0.13858785 0.049465764 -0.017257292 -0.030399274 0.03791841 -0.021646136 -0.07389647 -0.015123729
0.016012251 0.049245138 -0.07870396 0.009606362 -0.021208378 -0.010111272 0.055887055 -0.10498977
0.014064927 -0.03562343 0.03575638 -0.008438065 -0.23808107 0.04632119 0.040521022 0.0012537241
0.01719726 0.008120643 -0.0252887 0.0345989 -0.014856914 -0.011011405 -0.62621707 0.14030091
0.08092323 0.039661944 0.09631524 0.02404119 0.10421758 -0.0149513325 -0.018767294 0.03250867
-0.109094314 -0.29207098 0.0732755 7.088855e-05 0.09803611 -0.24246018 0.2169592 -0.029193146
0.0006102994 -0.017004794 -0.26937672 -0.16667925 0.053302236 -0.012944128 0.06311207 -0.26817638
00000000: d709 23bd ee5b a7bd 3246 f3bb ec7a 05bd
00000010: f2dd ffba 6002 c73d bbff 45bd f7f7 a23d
00000020: 50c4 80bb e3b4 f23c 9fdd d4bc 064e 263b
00000030: afed 71ba ce3d f0bc 1449 12b9 dfaa 29be
00000040: a015 babd 15ab 453c f3eb f5bc 80de 1f3d
00000050: 5ebd 2ebe c895 a63c 7e63 00bd 68b9 073d
00000060: fad4 c63c 20af 1c3c 3d95 28bd cc04 8cbd
00000070: 115d e4bc a551 473c 8725 f9be 2088 563c
00000080: b58b 99bd 1afc a6bc 6cdc 283d 7c1f 673d
00000090: 9575 bbbd 0af4 6dbd 60dd a13c 6b01 273d
000000a0: 1940 9abe 8170 983b cff6 85bc 0f59 29bd
000000b0: da2e 223c 7f7c cf3b 0244 2cbd 4b7a 3ebd
000000c0: 7be0 a0bc 8c2a ff3c aacf 84be 65cb 48bc
000000d0: cea7 53bd c004 c43b c145 a73d 9ff2 643d
000000e0: 9995 18be 46e5 c0bd 606a fbbc 9d64 24bd
000000f0: ee53 01bd ef7e 003d 8929 56bd 6c2d 5b3c
00000100: 0b10 a13d f899 c4bd 9ad9 d6bc 528e 1f3d
00000110: 500a e13c dc37 413d 352b 243b 28e8 76bd
00000120: 95a5 0d3c fa46 163d 536a f03d 8530 833c
00000130: 80a8 b83d 99ad d23c f87a 853b de3b 34bd
00000140: fddd 8abd 6332 153d 3c97 833d f2ec 34bd
00000150: d655 ec3d 0380 023e 84cf 173d 0c9d 4a3d
00000160: 367f 8b3c 8627 a6bd 643f 513e 5334 edbd
00000170: 3dc4 443d aea2 873c 9987 783d 89f1 bebc
00000180: 3112 c43d 063d 9a3d a67c 0dbd 4428 7fbd
00000190: 511f 253e f21f eb3d ddf0 57bd a498 36bc
000001a0: 4b29 5f3d 1e74 db3c cead 993c 0ab9 663d
000001b0: f0e5 1fbb 3d19 73bb f314 07be 51b9 48bd
000001c0: 9f90 c63c c292 243d ee5e da3d 18bf 55be
000001d0: e6a1 ed3d e33d 233d 80b3 d33b 1166 91bc
000001e0: 409e 83bd 87bd 8fbd 84c6 81bc f8a5 ab3c
000001f0: 72ab af3c 97b3 7cbe 5482 173d 3077 6b3d
00000200: 78cd 7dbc 5dd7 98bd d644 ed3c 70e0 123d
00000210: 1d4a 4bbc 90ed 14bb 2217 923d 4258 6dbe
00000220: b56f 03be 7fbe 843d acd3 123c 5914 943c
00000230: 4018 db3c e74b 203d ac33 bc3c 50e0 51bb
00000240: de82 a23c 6154 f1bd bfe7 0a3d ed21 3a3d
00000250: 714d b4bc 4297 0dbd 653e 203c b5ac c2bd
00000260: 79f9 c3bc e0ee c63c 4a34 d33d c4f8 403c
00000270: 20c8 9b3d 1fe2 8a3c 9460 19bc d4d1 4abd
00000280: c2bc 2a3d 2e4a 22bd d3a8 debd ea9a 1cbd
00000290: 701f a43d 008e 44be 0cd7 593d e3ee 323d
000002a0: 443f 23bd fc28 e8bc 7fd1 14be 724e 5c3b
000002b0: 1031 f53c da5e 833c 1ca9 a83c 276a a3bd
000002c0: ffcb fcbc 5aa0 2fbd 4809 113d a51c 2ebd
000002d0: d732 6cbe 8353 aabd 9ab3 7b3d a884 4a3c
000002e0: e4ad 9a3d 2909 a8be 7da4 10bd a161 243c
000002f0: 8677 15bd 2ffc e33c 2419 d4bd a1fb aebc
00000300: 1103 ae3b a06d 013b 3f14 fe3c 0d8b 55be
00000310: 7e88 8fbd b4af 97bc 8e2a d8bc c92a 053d
00000320: f9e9 0dbe 9d9c 4a3d 2a5f 8dbc e607 f9bc
00000330: 5650 1b3d 3d53 b1bc 0857 97bd 84c9 77bc
00000340: 202c 833c 45b5 493d 8b2f a1bd 0164 1d3c
00000350: 31bd adbc c0a9 25bc d3e9 643d e004 d7bd
00000360: 9470 663c e0e9 11bd 4875 123d cf3f 0abc
00000370: 86cb 73be 4abb 3d3d 5ff9 253d 0054 a43a
00000380: 45e1 8c3c 720c 053c 3f2a cfbc 93b7 0d3d
00000390: 6a6a 73bc 2e69 34bc c34f 20bf 0bab 0f3e
000003a0: 14bb a53d 9074 223d ed40 c53d 08f2 c43c
000003b0: 0770 d53d 6ff6 74bc debd 99bc d027 053d
000003c0: d76c dfbd 548a 95be 7711 963d 00aa 9438
000003d0: 28c7 c83d 7b47 78be 8d2a 5e3e 7726 efbc
000003e0: 80fc 1f3a a34d 8bbc bfeb 89be f7ad 2abe
000003f0: 7253 5a3d 9c13 54bc e740 813d 6a4e 89be

seq.0.bias f4 [265]
0.051982433 -0.025798861 -0.050563823 -0.09223059 -0.037873685 -0.022617875 -0.007227781 -0.05110971
-0.082436554 -0.0521008 -0.0043355827 -0.019713847 -0.05441867 -0.0018299378 0.0036827351 -0.027655251
-0.06379139 -0.025899349 -0.046657328 0.0074420343 -0.004473797 -0.037508547 -0.028340232 -0.053487953
-0.049222928 -0.039546236 0.028800523 -0.026449163 0.0032684223 -0.07294017 0.014580646 -0.008985796
-0.053566504 -0.080323644 0.033740174 0.014529942 0.01583219 0.027774641 -0.047553476 -0.05818837
0.0073968377 -0.0057604667 -0.019834856 -0.0147539815 -0.050306816 -0.025630634 -0.07025535 -0.039352078
-0.004099295 -0.05006313 -0.045284916 -0.004788729 -0.01351126 0.020593686 -0.0022102648 -0.05443109
-0.010120866 -0.038789682 -0.05774766 -0.035945438 -0.04800482 -0.05708843 -0.051006578 -0.046029996
-0.015099042 -0.048818935 0.01376423 0.012308481 -0.04715743 -0.004139886 -0.007656172 -0.050167497
-0.05253074 -0.045333307 -0.012597584 -0.019248703 -0.030492235 -0.04013987 0.017776126 -0.068964034
-0.028348468 -0.0072736484 -0.0040357662 -0.063249096 -0.03971685 0.023315806 -0.032815665 0.015882323
0.04194025 -0.048122317 0.016948543 0.009941339 -0.028639695 0.030152278 -0.04290383 0.0032740035
-0.026487019 0.009223806 0.016629752 -0.04633452 -0.05001585 -0.022261573 0.01856969 -0.012739928
0.035029225 -0.024687344 -0.080238126 -0.018468522 -0.004638976 0.0008688685 -0.04219022 -0.042425524
-0.005744645 0.005212347 -0.052294187 -0.04526444 -0.057169575 -0.019417945 0.004729064 -0.0108574275
-0.054712202 -0.03261333 -0.06471281 -0.012645445 -0.07394602 -0.050134312 -0.08809377 -0.015962793
0.005489557 0.024101632 -0.0222859 -0.054329917 -0.05823909 0.004027839 -0.01606974 -0.027207771
0.036793057 -0.030157536 -0.054435395 0.04760842 0.02277803 -0.06257295 -0.012320452 0.012141626
0.011468782 -0.031533048 0.012273753 -0.028953232 0.022799449 0.03681576 -0.031012982 -0.059178904
-0.03307778 -0.024693167 -0.03548576 -0.0015347875 -0.05714664 -0.0054755174 -0.02180767 -0.047268268
-0.016421009 0.0058217207 0.018950306 -0.05673486 0.019449543 -0.04676257 -0.053261723 -0.032686193
-0.028535325 -0.04666991 0.0048309574 0.0043450524 0.010665683 -0.026946204 -0.04738655 -0.009152141
-0.04726879 0.039807558 -0.04144727 0.013552384 -0.010598998 -0.07406417 -0.077533886 -0.002477693
-0.041109405 -0.045238856 -0.049925413 0.0034995952 0.0008174986 -0.07236786 -0.077511035 -0.021415014
-0.033465642 -0.035909727 -0.052806087 -0.023220576 -0.06891667 -0.077463925 -0.053406265 -0.04363042
0.0056763142 -0.0061622337 0.018648544 0.011194899 -0.06626638 0.0038799914 0.030986328 -0.05067987
0.009209523 0.03790669 0.045745384 -0.013603482 -0.026829725 -0.0447124 -0.012534937 -0.046715863
-0.020178195 -0.0046204464 -0.015009177 -0.04295855 -0.029850325 -0.0353585 -0.013478413 -0.034403194
0.010012386 -0.055631265 -0.023001537 0.02851433 -0.019992137 -0.062418614 0.008523613 0.0026583083
-0.011164452 -0.052865762 -0.004697 -0.028824193 0.04593696 -0.045307003 0.006739502 -0.0017476516
-0.024192773 -0.048411496 -0.053291667 0.0008875595 -0.04624903 -0.035588503 0.014163476 -0.039860677
0.027678842 -0.04036316 -0.011770904 -0.05505211 0.017749356 0.0019105348 -0.025998078 -0.03970772
00000000: 88eb 543d 2258 d3bc 031c 4fbd 64e3 bcbd
00000010: 7021 1bbd 1f49 b9bc 06d7 ecbb 6a58 51bd
00000020: 7fd4 a8bd a667 55bd 8111 8ebb ef7e a1bc
00000030: 1ce6 5ebd 86da efba 0b5a 713b 448d e2bc
00000040: 0fa5 82bd df2a d4bc c11b 3fbd 4fdc f33b
00000050: ee98 92bb 90a2 19bd c629 e8bc 2f16 5bbd
00000060: fb9d 49bd 3cfb 21bd 13ef eb3c eaab d8bc
00000070: 0733 563b a861 95bd a9e3 6e3c 2939 13bc
00000080: 8d68 5bbd b980 a4bd 2333 0a3d fe0e 6e3c
00000090: 82b2 813c a587 e33c 6fc7 42bd ee56 6ebd
000000a0: 2c61 f23b 4cc2 bcbb b57c a2bc afba 71bc
000000b0: 850e 4ebd 56f7 d1bc 09e2 8fbd a52f 21bd
000000c0: 6153 86bb ff0e 4dbd ad7c 39bd c5ea 9cbb
000000d0: 555e 5dbc 17b4 a83c 17da 10bb 22f3 5ebd
000000e0: fdd1 25bc eee1 1ebd cf88 6cbd 863b 13bd
000000f0: b4a0 44bd 8fd5 69bd 46ec 50bd f389 3cbd
00000100: f961 77bc 5df6 47bd 5d83 613c 83a9 493c
00000110: 2628 41bd e1a7 87bb a0e0 fabb 6f7c 4dbd
00000120: 792a 57bd 6baf 39bd 1966 4ebc 75af 9dbc
00000130: daca f9bc b469 24bd 3d9f 913c 043d 8dbd
00000140: 0c3b e8bc c957 eebb 763e 84bb be88 81bd
00000150: 23ae 22bd ca00 bf3c b869 06bd a51b 823c
00000160: 8ac9 2b3d e81b 45bd acd7 8a3c ffe0 223c
00000170: cb9d eabc e901 f73c edbb 2fbd aa90 563b
00000180: 4efb d8bc 721f 173c 1e3b 883c 44c9 3dbd
00000190: 6cdd 4cbd e75d b6bc 761f 983c 22bb 50bc
000001a0: ce7a 0f3d 1d3d cabc e353 a4bd 4c4b 97bc
000001b0: 8d02 98bb c7c4 633a a7cf 2cbd 63c6 2dbd
000001c0: 933d bcbb 56cc aa3b 6e32 56bd 3567 39bd
000001d0: a52a 6abd 6212 9fbc 44f6 9a3b 5ae3 31bc
000001e0: e719 60bd 8e95 05bd 2688 84bd d72e 4fbc
000001f0: 0371 97bd a359 4dbd 826a b4bd 67c4 82bc
00000200: bee1 b33b c970 c53c eb90 b6bc 0c89 5ebd
00000210: 1d8c 6ebd f6fb 833b b0a4 83bc d5e2 debc
00000220: 51b4 163d f00c f7bc a6f7 5ebd 0c01 433d
00000230: fe98 ba3c 3f26 80bd b9db 49bc aced 463c
00000240: 8fe7 3b3c cc28 01bd da17 493c 542f edbc
00000250: e9c5 ba3c 1fcc 163d f00e febc 9465 72bd
00000260: 917c 07bd 5349 cabc 8459 11bd ec2a c9ba
00000270: 9812 6abd f86b b3bb 00a6 b2bc 5f9c 41bd
00000280: 5a85 86bc 22c4 be3b ac3d 9b3c d062 68bd
00000290: a654 9f3c 1c8a 3fbd f728 5abd f5e1 05bd
000002a0: eac2 e9bc f328 3fbd 024d 9e3b f160 8e3b
000002b0: 1ebf 2e3c 49be dcbc 6618 42bd ddf2 15bc
000002c0: eb9c 41bd 400d 233d 9dc4 29bd d20a 5e3c
000002d0: 6ba7 2dbc f5ae 97bd 16ca 9ebd ca60 22bb
000002e0: 5662 28bd 614c 39bd 977e 4cbd 7759 653b
000002f0: 674d 563a 9a35 94bd 1bbe 9ebd 8a6e afbc
00000300: 4513 09bd 1416 13bd 324b 58bd 1439 bebc
00000310: 2f24 8dbd 68a5 9ebd 87c0 5abd d0b5 32bd
00000320: 6000 ba3b 90ec c9bb d5c4 983c cf6a 373c
00000330: abb6 87bd 7447 7e3b 0ad7 fd3c b295 4fbd
00000340: 8ae3 163c 0c44 1b3d 835f 3b3d 24e1 5ebc
00000350: 03ca dbbc 5924 37bd 565f 4dbc 2259 3fbd
00000360: be4c a5bc 1d67 97bb 0de9 75bc 4ef5 2fbd
00000370: ab88 f4bc 13d4 10bd 90d4 5cbc 5dea 0cbd
00000380: fe0a 243c 9cdd 63bd b86d bcbc e296 e93c
00000390: 8dc6 a3bc a9aa 7fbd a0a6 0b3c 0337 2e3b
000003a0: 1beb 36bc c589 58bd 4be9 99bb b720 ecbc
000003b0: 6528 3c3d d693 39bd 0ad7 dc3b 7511 e5ba
000003c0: ec2f c6bc 224b 46bd 5d48 5abd 1cab 683a
000003d0: 9f6f 3dbd 40c5 11bd ed0d 683c f344 23bd
000003e0: bdbe e23c d753 25bd c0da 40bc 527e 61bd
000003f0: 1967 913c e96a fa3a ecf9 d4bc 90a4 22bd

seq.2.weight f4 [100, 265]
0.10272539 0.037230495 -0.028814696 0.0024310315 0.07836642 0.004489538 -0.03672397 0.0048648166
0.13285485 0.09642618 0.003745454 -0.11142131 0.19010867 0.07476531 -0.02618161 0.030053293
-0.023898268 0.007003588 0.032600276 -0.02763316 0.042759567 -0.00089075195 0.11757361 -0.074702136
0.031432636 0.041691672 -0.054875918 0.008162696 -0.05140107 0.040634315 -0.023278344 0.08319065
0.030773008 0.036978986 0.17288221 -0.028071795 0.06356409 -0.045185864 0.016060242 -0.052571803
0.12429203 -0.030684983 0.026546093 0.17760894 -0.047013078 0.022416443 0.0260028 -0.029534277
-0.011363262 -0.027194869 -0.103561744 0.03092599 0.18960036 0.024677359 0.1725163 0.033976
0.092882164 -0.0022479873 0.018649684 0.12625259 -0.02660049 0.049391612 0.08433169 -0.04202644
-0.056807116 0.038709562 0.102041535 -0.048148792 0.004575372 -0.016123315 0.024906201 -0.04238665
0.062785745 -0.05702045 -0.0771151 0.032319203 -0.051141102 -0.22889711 -0.03799906 0.09267917
-0.027897544 0.012942436 0.19220006 -0.035330996 0.12912345 -0.04063384 -0.08406469 -0.050382625
0.09982502 -0.064552724 0.018748505 0.19051899 0.037020743 -0.1040597 0.05429448 -0.0120247295
0.018624203 0.024598734 -0.014680661 -0.015533621 -0.0039323913 0.051435765 -0.049730543 0.004537221
0.033019103 -0.08413669 0.07567601 0.011705541 -0.01062919 -0.025957024 0.030913917 0.020507483
0.030596608 0.050398197 -0.016227746 0.15690114 -0.027291743 0.120033935 0.05481733 0.1514824
-0.003632505 -0.055983935 -0.024294972 -0.053456303 0.18482569 0.13507804 0.07064126 0.01816548
0.042203646 0.14691143 -0.012086528 0.07394634 0.026464997 0.0019191717 -0.0060966755 0.06238386
0.013894381 -0.053621657 -0.032989398 0.20104404 0.15916264 0.17923464 -0.014231099 0.03166245
-0.0063455664 -0.04407138 -0.02109177 0.0059551536 -0.1625273 -0.10904258 0.045710336 0.13887936
-0.048086464 0.20749538 -0.0060939244 -0.0020700064 0.061523296 -0.0028512843 -0.020855235 0.10219136
0.02655469 0.055948954 0.13114695 -0.06517761 -0.06808005 -0.47936785 -0.04580755 0.046477567
0.083517745 0.028827986 0.01873805 -0.019234419 -0.013854358 0.013051766 -0.004939344 0.08079532
-0.03943261 -0.12039097 0.0864775 -0.02656712 0.04538285 -0.019703137 0.10708364 -0.016237417
0.055749808 0.01800992 0.04375841 -0.025506798 0.014405693 0.034422673 0.077831976 0.2770499
-0.031317905 0.10206064 -0.116538465 0.070217215 0.037028354 -0.053071227 -0.010432813 -0.06425567
-0.041081104 0.11492268 -0.024009742 0.08019639 -0.11452819 0.25218618 -0.008665646 0.028296212
0.03265466 -0.012194916 -0.008549992 -0.052757382 0.009768616 0.011027356 0.01862103 -0.06431616
-0.04229668 0.11769649 -0.0041385447 -0.030334907 -0.03419063 0.03127007 -0.37819135 0.06810498
0.09840624 0.11968155 0.015897112 -0.017949395 -0.02555131 0.29106933 0.026103126 0.06885844
0.047406007 0.030896291 0.030957114 -0.007313363 0.1698628 0.0058237375 -0.012974424 -0.0078661
-0.04162981 0.018250873 -0.13354437 0.08411822 0.05696626 0.04231152 -0.109086506 0.17586318
-0.124231525 -0.11553781 0.04578878 -0.016087728 -0.030526048 -0.002062867 0.014240153 -0.2255487
00000000: b061 d23d 017f 183d cc0c ecbc f151 1f3b
00000010: 937e a03d f91c 933b e06b 16bd 0a69 9f3b
00000020: 1a0b 083e 177b c53d 4a76 753b db30 e4bd
00000030: d9ab 423e 8e1e 993d d17a d6bc 5332 f63c
00000040: 4dc6 c3bc 5b7e e53b de87 053d f05e e2bc
00000050: a824 2f3d 5a81 69ba 6fca f03d 6ffd 98bd
00000060: 82bf 003d e3c4 2a3d 92c5 60bd d4bc 053c
00000070: ee89 52bd 2b70 263d 3ab2 bebc dc5f aa3d
00000080: ad17 fc3c 4777 173d 0908 313e d2f6 e5bc
00000090: e42d 823d d014 39bd c590 833c 8855 57bd
000000a0: d28c fe3d 135f fbbc 3177 d93c 1edf 353e
000000b0: c990 40bd b0a2 b73c d303 d53c def1 f1bc
000000c0: fa2c 3abc c6c7 debc 2e18 d4bd 8058 fd3c
000000d0: 9926 423e 2c28 ca3c 1da8 303e 6b2a 0b3d
000000e0: 0139 be3d f852 13bb 39c7 983c 5c48 013e
000000f0: 45e9 d9bc dc4e 4a3d 18b6 ac3d eb23 2cbd
00000100: 94ae 68bd eb8d 1e3d 27fb d03d ab37 45bd
00000110: 01ed 953b 0b15 84bc 1708 cc3c a09d 2dbd
00000120: d095 803d 468e 69bd 86ee 9dbd 2461 043d
00000130: 5579 51bd 0164 6abe e7a4 1bbd 94ce bd3d
00000140: 6489 e4bc 830c 543c 18d0 443e 3cb7 10bd
00000150: f038 043e ab6f 26bd 1c2a acbd 035e 4ebd
00000160: 0f71 cc3d 3834 84bd 7796 993c 6917 433e
00000170: 10a3 173d 411d d5bd e363 5e3d 5f03 45bc
00000180: c991 983c 4983 c93c 2887 70bc bb80 7ebc
00000190: 4adb 80bb 4fae 523d 41b2 4bbd f8ac 943b
000001a0: 0a3f 073d db4f acbd 06fc 9a3d 99c8 3f3c
000001b0: 0e26 2ebc d3a3 d4bc 2f3f fd3c 4fff a73c
000001c0: bda5 fa3c 576e 4e3d 0df0 84bc b1aa 203e
000001d0: ef92 dfbc 5ad4 f53d 2388 603d 341e 1b3e
000001e0: 520f 6ebb 694f 65bd 4006 c7bc fff4 5abd
000001f0: f242 3d3e e651 0a3e 5dac 903d c6cf 943c
00000200: bbdd 2c3d f36f 163e 9306 46bc 2e71 973d
00000210: 1fcd d83c b78c fb3a 9fc6 c7bb 3886 7f3d
00000220: 42a5 633c 62a2 5bbd e41f 07bd 7dde 4d3e
00000230: 88fb 223e 4989 373e 8e29 69bc 7cb0 013d
00000240: 78ee cfbb 3184 34bd a6c8 acbc 7323 c33b
00000250: 8e6d 26be b751 dfbd c33a 3b3d 6436 0e3e
00000260: 50f6 44bd ab79 543e 8baf c7bb f2a8 07bb
00000270: daff 7b3d 9ddc 3abb 99d8 aabc b449 d13d
00000280: 3989 d93c bb2a 653d 634b 063e d77b 85bd
00000290: 8e6d 8bbd b46f f5be b3a0 3bbd 435f 3e3d
000002a0: 5a0b ab3d ab28 ec3c 8a80 993c 8091 9dbc
000002b0: 64fd 62bc 13d7 553c 38da a1bb 0478 a53d
000002c0: 1784 21bd 8a8f f6bd 1e1b b13d 4aa3 d9bc
000002d0: 5ee3 393d 7968 a1bc ab4e db3d 5504 85bc
000002e0: e959 643d 8a89 933c 053c 333d a2f3 d0bc
000002f0: db05 6c3c cafe 0c3d 5f66 9f3d 7cd9 8d3e
00000300: 3447 00bd 2b05 d13d b8ab eebd 0bce 8f3d
00000310: 0bab 173d 3761 59bd 64ee 2abc 7a98 83bd
00000320: a944 28bd 955c eb3d 14b0 c4bc 013e a43d
00000330: c18d eabd 8c1e 813e 5bfa 0dbc 75cd e73c
00000340: e5c0 053d 2fcd 47bc 4415 0cbc 2018 58bd
00000350: 8c0c 203c 15ac 343c 218b 983c 31b8 83bd
00000360: 493f 2dbd db0a f13d a19c 87bb e980 f8bc
00000370: 790b 0cbd 0b15 003d 4ca2 c1be a07a 8b3d
00000380: 3689 c93d 9a1b f53d a93a 823c 9c0a 93bc
00000390: fb50 d1bc 0a07 953e 39d6 d53c a705 8d3d
000003a0: cd2c 423d 381a fd3c c699 fd3c efa4 efbb
000003b0: 84f0 2d3e 0dd5 be3b ae92 54bc d1e0 00bc
000003c0: 0584 2abd db82 953c dbbf 08be 2c46 ac3d
000003d0: 7455 693d d84e 2d3d bf68 dfbd 7a15 343e
000003e0: 196d febd 169f ecbd 048d 3b3d 69ca 83bc
000003f0: c311 fabc 2a31 07bb 884f 693c 3df6 66be

seq.2.bias f4 [100]
-0.05632218 0.022734605 -0.049541473 0.04150969 -0.08656412 0.01042979 -0.018301794 -0.053118534
0.06613449 -0.0040320703 0.01785555 -0.041063253 -0.04636444 0.1521577 -0.05758194 -0.086417384
-0.014380429 -0.0836654 0.09639386 -0.14314419 0.03525821 -0.06703614 -0.052779395 -0.0722363
-0.1330073 0.05018535 -0.07809851 0.01788945 0.013705565 -0.035928078 -0.012669792 -0.02380951
-0.0043453122 -0.11392907 0.08572611 -0.09134176 0.060410228 -0.03899768 -0.09672167 -0.10721994
-0.075880535 -0.015124716 -0.087192945 -0.06457732 -0.08347293 -0.07706416 -0.10564946 0.11648923
-0.067920536 -0.09100141 0.077183686 -0.1441381 -0.11061389 -0.046582516 0.021862278 0.043866348
-0.02173484 -0.013213791 -0.06793494 -0.056136 -0.030061059 -0.05084358 -0.02946279 0.063668236
0.0007207948 -0.028948639 -0.08747863 0.047062226 -0.06785185 -0.035827372 -0.0788506 -0.07945469
0.030701961 0.013926055 -0.09173475 -0.07458182 -0.025351396 -0.04452304 -0.12439244 -0.0018481212
-0.0018573162 -0.05457207 -0.0016825459 0.11026657 -0.04434772 -0.056776643 -0.10522326 0.041564938
-0.07366678 -0.08691353 -0.086604536 -0.102904215 -0.14415413 0.043042928 -0.015762582 -0.046049304
-0.004978659 -0.13881066 -0.080219336 0.091049805
00000000: 16b2 66bd ec3d ba3c 00ec 4abd 1106 2a3d
00000010: 8848 b1bd b6e1 2a3c a5ed 95bc d292 59bd
00000020: 8571 873d 751f 84bb cd45 923c f131 28bd
00000030: a4e8 3dbd 3acf 1b3e 0adb 6bbd 99fb b0bd
00000040: e49b 6bbc c458 abbd 256a c53d 6494 12be
00000050: ea6a 103d 3e4a 89bd 352f 58bd a0f0 93bd
00000060: 1133 08be 278f 4d3d 1df2 9fbd e58c 923c
00000070: 4e8d 603c 5229 13bd f694 4fbc 290c c3bc
00000080: 1f63 8ebb a553 e9bd 2c91 af3d 6311 bbbd
00000090: b770 773d 08bc 1fbd 0316 c6bd 2196 dbbd
000000a0: 4167 9bbd a8cd 77bc 3792 b2bd 1d41 84bd
000000b0: dbf3 aabd d0d3 9dbd be5e d8bd e891 ee3d
000000c0: ec19 8bbd f25e babd 7b12 9e3d f098 13be
000000d0: 8989 e2bd 4fcd 3ebd 8518 b33c 33ad 333d
000000e0: 430d b2bc a87e 58bc 7921 8bbd ddee 65bd
000000f0: 9c42 f6bc 5c41 50bd f35b f1bc 7e64 823d
00000100: b8f3 3c3a b225 edbc ff27 b3bd 52c4 403d
00000110: e9f5 8abd b9bf 12bd 6c7c a1bd 24b9 a2bd
00000120: ae82 fb3c 1c2a 643c 6edf bbbd 5abe 98bd
00000130: bbad cfbc cb5d 36bd 77c1 febd a83c f2ba
00000140: 3171 f3ba f686 5fbd df88 dcba 70d3 e13d
00000150: f4a5 35bd a08e 68bd 4b7f d7bd ff3f 2a3d
00000160: 9cde 96bd b9ff b1bd b85d b1bd 72bf d2bd
00000170: 249d 13be c84d 303d 8820 81bc 329e 3cbd
00000180: 0524 a3bb 6224 0ebe 094a a4bd 5278 ba3d

seq.4.weight f4 [100, 100]
-0.014652295 0.14371116 -0.20046921 -0.08230635 0.043785002 0.23937908 0.06835069 0.06603685
0.026834343 0.103337504 -0.32027066 0.009438197 -0.0019490492 -0.11592261 -0.14883047 0.12324236
0.043829836 -0.13387986 -0.16051604 -0.099064626 0.0008867268 -0.030138776 0.1103462 0.023362413
0.08588797 0.14749497 0.23341557 -0.0945077 0.060653865 -0.10956052 -0.12576756 -0.2468851
-0.07040057 -0.008701796 0.13268054 -0.048041638 -0.21598873 0.01640811 0.043610472 -0.03210445
0.071895145 -0.22057274 -0.06786908 0.10831189 0.08926721 -0.13623193 -0.059030212 -0.2152181
0.28500187 0.0072681145 -0.117974356 -0.08186112 -0.093242176 0.03541091 -0.010890738 -0.06291088
0.028960424 0.083266035 -0.022816613 -0.027704436 -0.06799397 0.040878545 -0.069164336 0.12901863
0.05195681 0.10833077 -0.020666735 -0.061830495 -0.17468329 -0.11747641 -0.38277188 0.1283119
-0.14821845 -0.063418604 0.042658202 0.03786688 -0.16030459 0.13988525 -0.019309865 0.064353414
0.12800606 -0.113310575 0.031392526 0.04508971 -0.005671966 0.042894427 -0.14880982 -0.12152613
0.021439666 0.07148405 -0.09554488 0.033070315 -0.12591739 0.19814317 -0.06963679 0.046910677
0.006366288 -0.07682579 0.08236686 0.06356685 -0.072876506 -0.14732042 0.12678234 0.10858401
0.06242195 -0.1161388 -0.062466186 -0.11860374 0.065755956 -0.22675253 -0.111282185 -0.0261563
0.008708873 0.12866504 -0.14307526 0.0663528 0.030564802 -0.2078556 0.027987106 0.13833836
0.18832956 -0.32125834 -0.14254197 -0.003473272 -0.11443628 0.062424712 0.11427295 -0.08010983
-0.0077664703 -0.12409065 -0.07291702 0.06736669 0.05079585 -0.03623171 0.020354241 0.062180415
-0.070680454 -0.13940737 -0.08163355 -0.0142894285 0.043696888 0.042224385 0.078446 0.018836046
-0.13908543 0.094923206 0.08812833 -0.24708763 -0.022196868 0.0066472273 0.07915824 0.0790205
0.15136938 0.2086884 0.2689851 -0.19822693 0.07045717 0.01420716 0.051180158 0.029872937
-0.04019383 0.049433198 0.066766344 0.067527756 0.059175037 -0.05418597 -0.047319956 0.20079765
-0.00660099 -0.033774048 0.005075893 0.1291446 -0.21079741 0.033117753 0.10995123 0.01202078
0.2697901 -0.22239307 0.10201151 -0.020573637 -0.007252402 -0.00074614596 -0.048757527 0.09882251
-0.032013502 -0.04182 0.14679593 -0.001114609 0.030593986 0.013791551 -0.13130897 0.054489903
-0.15084362 0.07054654 -0.010114873 -0.07683684 0.17748156 -0.04916225 -0.01919568 -0.22908878
-0.028933736 -0.053819608 0.14806472 0.050813586 0.0072147623 -0.15566486 0.013501458 -0.042753756
-0.29104584 -0.080761366 0.103028625 -0.10656552 0.044410743 0.09289195 -0.2615332 -0.05892283
0.12407627 0.05818311 -0.033896863 0.20889822 -0.021423362 -0.11867701 -0.16901153 0.24796335
0.1770102 -0.19106752 0.23601964 -0.20475583 0.042579927 0.049015645 -0.11002326 0.108713746
-0.018753076 -0.07835763 -0.10920602 0.074064486 -0.117908075 0.09315519 0.115934476 -0.17081642
-0.025670327 0.16825417 0.21204934 -0.053523205 -0.07086919 0.11698703 -0.0056454996 0.085069224
-0.043290194 0.13687949 0.18259782 0.057438895 0.093404435 0.12529089 -0.031009033 -0.07211233
00000000: 2e10 70bc 0529 133e cd47 4dbe 3b90 a8bd
00000010: e757 333d ca1f 753e 72fb 8b3d 543e 873d
00000020: b2d3 db3c 9da2 d33d 84fa a3be aba2 1a3c
00000030: 3d77 ffba d568 edbd 0467 18be 7e66 fc3d
00000040: ea86 333d cd17 09be 515e 24be 65e2 cabd
00000050: 3a73 683a 98e5 f6bc 30fd e13d 8862 bf3c
00000060: 08e6 af3d ec08 173e 7e04 6f3e 418d c1bd
00000070: 3070 783d 4461 e0bd 36c9 00be 73cf 7cbe
00000080: 2d2e 90bd fa91 0ebc 68dd 073e 4fc7 44bd
00000090: 262c 5dbe 4d6a 863c e5a0 323d f57f 03bd
000000a0: c33d 933d d2dd 61be f2fe 8abd a0d2 dd3d
000000b0: bad1 b63d 6280 0bbe aac9 71bd 2262 5cbe
000000c0: c4eb 913e 5d29 ee3b 8a9c f1bd cea6 a7bd
000000d0: c1f5 bebd 080b 113d 116f 32bc 6bd7 80bd
000000e0: 693e ed3c 6287 aa3d e8e9 babc 6af4 e2bc
000000f0: 6c40 8bbd 4370 273d 08a6 8dbd 761d 043e
00000100: aad0 543d 86dc dd3d 494d a9bc f941 7dbd
00000110: 2de0 32be 7997 f0bd adfa c3be 3264 033e
00000120: 94c6 17be 9de1 81bd 5eba 2e3d 4d1a 1b3d
00000130: e326 24be 143e 0f3e b92f 9ebc b9cb 833d
00000140: 0514 033e 600f e8bd 7395 003d fdaf 383d
00000150: e6db b9bb 11b2 2f3d 9a61 18be b1e2 f8bd
00000160: 3da2 af3c 3b66 923d 09ad c3bd bd74 073d
00000170: 7df0 00be 0be6 4a3e bc9d 8ebd 6925 403d
00000180: 4b9c d03b d756 9dbd f5af a83d 562f 823d
00000190: 4740 95bd 2adb 16be 3bd3 013e 4b61 de3d
000001a0: 29ae 7f3d 2eda edbd 8bdc 7fbd 85e6 f2bd
000001b0: 0fab 863d d131 68be eae7 e3bd bd45 d6bc
000001c0: a9af 0e3c c5c0 033e 5282 12be fae3 873d
000001d0: 0963 fa3c 19d8 54be 3745 e53c 92a8 0d3e
000001e0: 77d9 403e f97b a4be 86f6 11be d69f 63bb
000001f0: 925d eabd 0eb1 7f3d f007 ea3d 9f10 a4bd
00000200: e07d febb 3d23 febd 8555 95bd 8cf7 893d
00000210: 4f0f 503d b467 14bd f0bd a63c e4b0 7e3d
00000220: eac0 90bd cec0 0ebe 7e2f a7bd 351e 6abc
00000230: 82fb 323d 7af3 2c3d 4ca8 a03d 0d4e 9a3c
00000240: 696c 0ebe 1967 c23d a07c b43d 8a04 7dbe
00000250: 35d6 b5bc fcd0 d93b b71d a23d 80d5 a13d
00000260: 9300 1b3e 69b2 553e 6ab8 893e 00fc 4abe
00000270: d94b 903d 26c5 683c 49a2 513d 17b8 f43c
00000280: 49a2 24bd 777a 4a3d cbbc 883d fe4b 8a3d
00000290: 8661 723d 1cf2 5dbd 92d2 41bd e69d 4d3e
000002a0: 1e4d d8bb a856 0abd ad53 a63b 7b3e 043e
000002b0: 47db 57be 7ba6 073d 1c2e e13d cef2 443c
000002c0: ee21 8a3e 02bb 63be 69eb d03d 0b8a a8bc
000002d0: 8fa5 edbb 0299 43ba f9b5 47bd 7563 ca3d
000002e0: 9720 03bd 734b 2bbd ac51 163e 1218 92ba
000002f0: 3da0 fa3c f5f5 613c dc75 06be ce30 5f3d
00000300: c076 1abe b47a 903d dab8 25bc a25c 9dbd
00000310: babd 353e 5b5e 49bd 4240 9dbc 4096 6abe
00000320: 7106 edbc f371 5cbd 479e 173e e821 503d
00000330: d069 ec3b 9c66 1fbe 3835 5d3c 901e 2fbd
00000340: f603 95be 3766 a5bd ac00 d33d 063f dabd
00000350: 0ae8 353d 223e be3d aee7 85be 1159 71bd
00000360: b31b fe3d 6a51 6e3d 70d7 0abd 6ae9 553e
00000370: 0c80 afbc ef0c f3bd 5c11 2dbe 1bea 7d3e
00000380: 2942 353e 34a7 43be 22af 713e 83ab 51be
00000390: 4a68 2e3d a1c4 483d e053 e1bd 50a5 de3d
000003a0: 0da0 99bc f779 a0bd 68a7 dfbd 1faf 973d
000003b0: ca79 f1bd 26c8 be3d 0e6f ed3d 80ea 2ebe
000003c0: 944a d2bc d24a 2c3e 7623 593e 263b 5bbd
000003d0: de23 91bd e596 ef3d e2fd b8bb c638 ae3d
000003e0: 0f51 31bd 232a 0c3e ecfa 3a3e 0c45 6b3d
000003f0: d34a bf3d 414c 003e a806 febc a1af 93bd

seq.4.bias f4 [100]
-0.07685391 0.13651213 -0.18763718 -0.0069436184 0.11095729 -0.043287408 -0.23542856 0.1435719
-0.14515689 -0.105426855 -0.05051524 -0.07357702 0.105240084 -0.13972288 -0.002211039 0.02437205
-0.053249385 0.052832052 -0.117297396 -0.10748007 0.044283614 0.14804 0.020795858 -0.13469133
0.01143633 -0.051155064 0.049297597 -0.15040852 0.08947252 0.030513253 0.05829796 -0.048824914
-0.20867325 -0.013193583 0.05458245 0.07384489 -0.15154453 -0.16050014 -0.10075684 0.11232115
-0.049170237 0.13150497 -0.06346198 0.053935185 0.021272702 0.023535471 -0.114536226 -0.056367163
0.12174947 0.088476196 0.09392612 -0.003885237 -0.1534819 -0.099758655 -0.07892422 -0.05773216
-0.22845554 0.006315996 -0.08181231 0.037809353 -0.049852744 0.054977454 0.042782266 -0.083711825
-0.12398698 -0.08647444 -0.060666088 -0.051517133 -0.025662044 -0.17136727 -0.06291405 -0.07317757
-0.03698356 -0.10109473 0.1428921 0.11166665 0.033485025 -0.21609993 -0.12249727 0.058476884
-0.0743475 -0.09324149 -0.11280259 0.0075097424 -0.04342676 -0.11452175 -0.08983264 -0.06550009
-0.100093625 0.12734221 -0.09756711 -0.0698839 0.106053025 -0.12638737 -0.07045438 0.0054179174
-0.10331784 -0.05049055 -0.12873915 -0.07797022
00000000: 9565 9dbd d6c9 0b3e f623 40be 4b87 e3bb
00000010: 933d e33d 234e 31bd 2f14 71be 8304 133e
00000020: 02a4 14be 09ea d7bd 11e9 4ebd 8caf 96bd
00000030: 1d88 d73d 8413 0fbe 14e7 10bb e5a7 c73c
00000040: 071c 5abd 6c66 583d 9e39 f0bd 831e dcbd
00000050: bc62 353d cc97 173e 135c aa3c 86ec 09be
00000060: 725f 3b3c f987 51bd 47ec 493d b104 1abe
00000070: 5e3d b73d eef6 f93c d7c9 6e3d a2fc 47bd
00000080: 71ae 55be e629 58bc d991 5f3d fd3b 973d
00000090: 7d2e 1bbe 265a 24be 9a59 cebd a208 e63d
000000a0: bb66 49bd 3da9 063e 5bf8 81bd 24eb 5c3d
000000b0: 1744 ae3c 76cd c03c f891 eabd 41e1 66bd
000000c0: c957 f93d 0233 b53d 565c c03d 769f 7ebb
000000d0: 5c2a 1dbe 444e ccbd 05a3 a1bd 8f78 6cbd
000000e0: 40f0 69be 6af6 ce3b 368d a7bd fbdd 1a3d
000000f0: 6432 4cbd 0a30 613d 753c 2f3d 1b71 abbd
00000100: e3ec fdbd 8319 b1bd 017d 78bd a103 53bd
00000110: 3539 d2bc e77a 2fbe 15d9 80bd 1fde 95bd
00000120: 137c 17bd c10a cfbd 4f52 123e 7cb1 e43d
00000130: 9827 093d 4d49 5dbe d9df fabd 7585 6f3d
00000140: 8143 98bd 65f5 bebd 0b05 e7bd 4914 f63b
00000150: 42e0 31bd 618a eabd 2dfa b7bd e924 86bd
00000160: e3fd ccbd ff65 023e 44d1 c7bd 4a1f 8fbd
00000170: 5432 d93d b16b 01be 634a 90bd c988 b13b
00000180: 4e98 d3bd 2ecf 4ebd 32d4 03be daae 9fbd

seq.6.weight f4 [50, 100]
0.06490759 0.006631841 0.08499516 0.12849632 0.1775737 0.0032724114 -0.07099454 -0.04260997
0.048071764 -0.047262322 -0.119678766 0.026167473 0.010961932 0.16088295 -0.019537356 0.12552194
0.009531968 0.23395245 0.034087107 -0.042414986 -0.06591681 -0.071902156 -0.0044149575 -0.03539417
0.13179435 0.21370131 0.23613873 0.09856777 0.13610913 0.12184062 0.18883972 0.006619909
-0.023205537 0.1483925 0.3344334 0.029613879 0.09131938 0.005344275 0.20746644 0.13010034
-0.03309373 0.13249029 0.04083893 -0.09604135 0.03766625 0.14301468 0.029196223 -0.09858227
0.29469863 -0.07508635 0.057190858 -0.039101616 -0.018466674 0.015499566 -0.06694669 -0.007680029
0.22710979 -0.11725857 -0.077109516 0.056514256 0.25552928 -0.30880958 0.10247538 -0.045674324
-0.052355003 -0.10529154 0.032116443 -0.028833712 -0.029922355 -0.048785977 0.11129731 0.043093473
-0.1288405 -0.013072463 -0.07679601 -0.36242983 0.15006529 -0.06194515 -0.18157974 -0.091518335
-0.036908846 -0.0201442 0.07467781 0.09350688 0.18624443 0.09469431 0.12231294 0.13539271
0.061656773 -0.2654256 0.12941435 -0.056363724 0.17974685 0.05226117 0.047716893 0.22787301
-0.05582711 0.00075038045 0.108995855 0.05088363 0.14727658 -0.13321151 -0.082753986 0.16882724
0.0012240168 0.042134695 -0.2723747 -0.05184656 -0.08761062 0.05641185 -0.11516464 -0.008332858
-0.02509333 -0.0057183793 -0.028713506 0.18751325 0.041282102 0.114319496 0.055184446 0.024153445
0.09874735 -0.14695637 -0.05345337 0.018612336 0.07519037 0.21901649 0.2158911 -0.049173087
0.14685471 0.14831315 0.1337083 -0.18996914 -0.27339303 0.19840647 0.19116369 -0.111571915
0.04828531 0.034470826 0.00017317563 -0.03580368 0.035100147 -0.14692095 0.03463904 -0.060408108
-0.096455224 0.30862692 0.01067472 -0.032760136 0.2376731 -0.2773852 -0.099061154 0.13599929
0.14071386 0.15814811 0.018952703 -0.08451694 -0.14188474 0.100093596 -0.16463436 0.19944288
0.19944654 -0.2788596 0.113200806 -0.07976525 0.018727617 -0.0141179 0.09462625 0.19637418
-0.05161428 0.12619509 0.0474208 0.12467375 -0.08627916 -0.011802762 -0.10220934 -0.09252328
-0.0015763422 0.03660612 -0.1387144 -0.11637478 -0.1586864 -0.04627251 0.020558242 0.08034554
0.32334414 -0.023781553 0.011145925 0.12550968 -0.047603354 -0.2634529 0.1274982 -0.13641493
0.22276136 -0.09241139 -0.116205946 -0.06966633 0.07818084 0.024498818 0.19699253 0.19116992
0.030723896 0.028163645 -0.20610654 0.34301043 0.034067947 0.093552805 -0.34229523 0.011775461
0.10095034 0.063154206 -0.28842518 0.03609835 0.04409983 -0.22087947 -0.07955922 0.21258686
-0.11257693 0.07566627 -0.008063475 0.02105129 0.040387366 -0.38481835 -0.09733395 -0.013543954
-0.15879199 0.289659 -0.014416335 -0.27879998 0.1189938 0.20208512 -0.059143502 0.07254303
-0.18752384 0.15239061 0.083157904 -0.28637958 0.0450796 -0.35119978 -0.15842237 0.10620524
-0.030384557 0.09788253 0.10391251 -0.105646655 0.20768738 0.18845838 -0.119482145 -0.013554347
0.10921041 -0.06616808 -0.045075413 0.20476665 -0.09228628 -0.097550794 0.14042445 0.0043003904
00000000: 45ee 843d ea4f d93b f111 ae3d 8a94 033e
00000010: e1d5 353e f475 563b 9665 91bd cb87 2ebd
00000020: e6e6 443d 2396 41bd 241a f5bd 2b5d d63c
00000030: ad99 333c 80be 243e ce0c a0bc d388 003e
00000040: f92b 1c3c 3b91 6f3e ec9e 0b3d 56bb 2dbd
00000050: 64ff 86bd 7041 93bd 59ab 90bb 7af9 10bd
00000060: 19f5 063e 84d4 5a3e 5ace 713e e6dd c93d
00000070: 3160 0b3e 9387 f93d 335f 413e d2eb d83b
00000080: 8a19 bebc 34f4 173e db3a ab3e ce98 f23c
00000090: a805 bb3d 071f af3b 1572 543e 0639 053e
000000a0: 4b8d 07bd 89ab 073e b946 273d 54b1 c4bd
000000b0: ed47 1a3d 7172 123e eb2c ef3c 80e5 c9bd
000000c0: bde2 963e dfc6 99bd f640 6a3d 0429 20bd
000000d0: 6c47 97bc e4f1 7d3c 591b 89bd c1a8 fbbb
000000e0: 788f 683e 4325 f0bd 98eb 9dbd 7e7b 673d
000000f0: bcd4 823e 4a1c 9ebe 9dde d13d 0015 3bbd
00000100: 3372 56bd 17a3 d7bd 888c 033d ad34 ecbc
00000110: ba1f f5bc ced3 47bd d8ef e33d c882 303d
00000120: c4ee 03be e22d 56bc 3a47 9dbd 6790 b9be
00000130: b7aa 193e 33ba 7dbd 0af0 39be f76d bbbd
00000140: bb2d 17bd 7305 a5bc aef0 983d 8980 bf3d
00000150: dcb6 3e3e 17ef c13d 357f fa3d 63a4 0a3e
00000160: d08b 7c3d dde5 87be 3285 043e a6dd 66bd
00000170: 8f0f 383e cf0f 563d ca72 433d 8b57 693e
00000180: f8aa 64bd 2eb5 443a 3839 df3d 5a6b 503d
00000190: accf 163e 9968 08be ec7a a9bd 0ce1 2c3e
000001a0: 306f a03a 6e95 2c3d b274 8bbe 0f5d 54bd
000001b0: 326d b3bd 1d10 673d 70db ebbd 8a86 08bc
000001c0: 8790 cdbc 3e61 bbbb 9638 ebbc 7903 403e
000001d0: 6c17 293d 5720 ea3d 1609 623d 72dd c53c
000001e0: 0d3c ca3d bb7b 16be ecf1 5abd e678 983c
000001f0: 69fd 993d dc45 603e 8e12 5d3e b869 49bd
00000200: 1561 163e 67df 173e d4ea 083e 4587 42be
00000210: 2cfa 8bbe 112b 4b3e 6ac0 433e d17f e4bd
00000220: d1c6 453d 4831 0d3d 7b96 3539 e1a6 12bd
00000230: 2cc5 0f3d 7272 16be aae1 0d3d 7e6e 77bd
00000240: 518a c5bd 5904 9e3e 05e5 2e3c 7e2f 06bd
00000250: 9460 733e 6f05 8ebe 93e0 cabd 6643 0b3e
00000260: 4b17 103e 94f1 213e b342 9b3c 3817 adbd
00000270: 3c4a 11be dffd cc3d e995 28be c13a 4c3e
00000280: b73b 4c3e afc6 8ebe d3d5 e73d f75b a3bd
00000290: a96a 993c c44e 67bc 68cb c13d 5016 493e
000002a0: 7f69 53bd 4939 013e 503c 423d f354 ff3d
000002b0: 21b3 b0bd 5f60 41bc 2153 d1bd d87c bdbd
000002c0: 449d ceba 4df0 153d 260b 0ebe e755 eebd
000002d0: b07e 22be 3e88 3dbd c269 a83c 348c a43d
000002e0: 5d8d a53e 88d1 c2bc 669d 363c 9c85 003e
000002f0: bcfb 42bd 4ce3 86be e38e 023e 5bb0 0bbe
00000300: 8e1b 643e 2f42 bdbd 62fd edbd 39ad 8ebd
00000310: 471d a03d bfb1 c83c 69b8 493e 0cc2 433e
00000320: aeb0 fb3c 72b7 e63c 980d 53be 109f af3e
00000330: d58a 0b3d 9d98 bf3d 5241 afbe dded 403c
00000340: 0dbf ce3d fe56 813d 77ac 93be dddb 133d
00000350: 06a2 343d 3a2e 62be f2ef a2bd 5fb0 593e
00000360: bc8e e6bd ebf6 9a3d aa1c 04bc c173 ac3c
00000370: 396d 253d e906 c5be 0657 c7bd 76e7 5dbc
00000380: 5e9a 22be 2f4e 943e 7e32 6cbc dfbe 8ebe
00000390: 05b3 f33d 67ef 4e3e 7540 72bd 7191 943d
000003a0: 4006 40be 490c 1c3e b14e aa3d 58a0 92be
000003b0: 63a5 383d 75d0 b3be 7939 22be 2282 d93d
000003c0: 09e9 f8bc a376 c83d 15d0 d43d 465d d8bd
000003d0: 00ac 543e 3cfb 403e 0eb3 f4bd 0d13 5ebc
000003e0: b5a9 df3d 2183 87bd ffa0 38bd 59ae 513e
000003f0: 9700 bdbd b6c8 c7bd 6dcb 0f3e 4aea 8c3b

seq.6.bias f4 [50]
0.15891933 0.043766364 0.07235237 0.20502396 -0.1267218 -0.012507003 0.06677665 0.01001837
-0.09508634 -0.049991403 0.048169468 0.036394797 -0.09876378 -0.14178437 -0.019282185 0.05301516
-0.054126766 -0.031493146 0.116611786 -0.047065854 0.13759883 0.20567635 -0.07120679 0.08244599
0.19520718 0.014992456 0.0406668 0.16893628 -0.09163595 -0.035485722 -0.09723046 0.12962322
-0.04796137 0.038726445 -0.11743743 -0.020574655 0.03820603 0.04100927 -0.046046577 0.028081382
0.07843935 0.044357415 -0.09303311 -0.017555093 0.012865503 0.120425016 -0.15590785 0.14451738
0.08860215 0.20442955
00000000: c0bb 223e 5c44 333d 7b2d 943d cdf1 513e
00000010: 5cc3 01be 2cea 4cbc 32c2 883d 1724 243c
00000020: a1bc c2bd c9c3 4cbd 594d 453d b612 153d
00000030: aa44 cabd ec2f 11be acf5 9dbc 6d26 593d
00000040: 07b4 5dbd f5fe 00bd 29d2 ee3d 20c8 40bd
00000050: b5e6 0c3e d29c 523e ded4 91bd 71d9 a83d
00000060: 64e4 473e eba2 753c 3b92 263d a2fd 2c3e
00000070: a1ab bbbd 7a59 11bd c320 c7bd f3bb 043e
00000080: 2473 44bd 9f9f 1e3d 0983 f0bd 2e8c a8bc
00000090: ed7d 1c3d 56f9 273d 569b 3cbd ed0a e63c
000000a0: cfa4 a03d 1fb0 353d 2588 bebd b3cf 8fbc
000000b0: d5c9 523c 64a1 f63d 4fa6 1fbe 5dfc 133e
000000c0: 0b75 b53d fb55 513e

seq.8.weight f4 [20, 50]
0.1001289 0.0058627147 0.065635055 -0.035014007 -0.03435146 -0.06871818 -0.21453825 0.077993564
0.10425573 0.018567309 0.1803128 -0.19582196 0.042568676 -0.028042883 0.06353935 0.02644596
0.084638186 0.33224043 0.028349796 -0.17377627 0.34990248 -0.024371978 0.0347036 -0.38825643
0.2194976 0.107383706 0.09943171 0.16700086 -0.045376055 0.44483677 -0.03944855 0.17468342
0.17492907 0.1462602 0.22843815 0.40244967 0.16469797 -0.08183727 -0.17043848 0.12607509
-0.22097364 0.018550567 0.050346024 -0.012566304 -0.10300754 -0.13756268 -0.26069844 -0.09167367
0.19438033 -0.036409188 0.051379547 -0.07805794 -0.017508337 -0.19653594 0.023264097 0.0661018
0.13657849 0.24721384 0.033678696 -0.05600776 0.00935161 -0.18237625 0.029962096 0.0019816216
0.04418317 0.12390596 -0.112035 -0.27346557 0.09543506 0.12779482 -0.008755515 -0.15644169
-0.063134365 0.043146472 -0.06773715 -0.06733691 0.11059544 -0.14939557 0.118509725 0.1849311
-0.110215776 -0.10609179 0.12556198 -0.12953867 0.17349316 -0.00551004 -0.21039587 0.104572415
-0.2092766 0.07208153 -0.0693432 0.067422345 0.10908354 -0.052365202 -0.01596721 -0.041262344
-0.13336614 0.1271597 0.1624961 0.014734716 0.25179443 0.006372685 -0.004937882 0.0709257
-0.0559272 0.07388691 -0.018446712 0.26292703 0.06918325 -0.104142115 0.103130214 0.11500718
0.011347539 -0.19967157 -0.106772974 0.05055552 0.105037555 0.5275753 0.029257063 -0.11687891
-0.17696936 0.035482753 -0.12400168 -0.104354896 0.09519362 0.2694171 0.13067405 0.123357505
-0.031114325 0.04867188 0.024077205 -0.094808206 -0.17068624 0.12728839 0.034658123 0.19867529
0.111668944 -0.29249778 -0.101275444 0.027203018 0.05632496 -0.15128656 0.070742995 0.062951095
0.1341677 -0.03261352 -0.26250505 -0.045712974 -0.07622612 0.028762316 0.081899345 0.08900885
0.12689446 -0.22255005 -0.039002106 0.17272297 -0.08801982 0.15967295 -0.08781935 0.06650147
0.19360931 0.120346785 0.00349757 -0.101421975 -0.056681298 -0.16813497 0.06988644 -0.12945193
0.042496137 0.036900785 0.1924327 0.029893763 0.025234312 0.16596499 -0.34248307 -0.12910104
0.084004395 0.2407969 0.11509968 -0.12837717 0.017621128 0.25416592 0.030708369 0.08108872
0.12850946 0.10859907 -0.058164973 0.12778676 0.1337983 0.14747629 -0.063771494 -0.11721375
0.22845188 0.18262425 0.2281861 -0.32533064 0.1504996 -0.3988584 -0.15796037 -0.3510319
0.2015065 0.0029326868 0.12989086 -0.14398901 0.15114577 0.20862983 -0.08034304 0.018872904
-0.08362326 -0.14018863 0.20510763 0.18529513 -0.042125914 -0.050325565 -0.1519179 -0.045301657
0.037278604 -0.069212526 -0.34972048 0.021775138 -0.2963683 0.12513658 0.10178895 0.09362994
-0.17340852 -0.11588125 0.06923209 0.13497685 -0.02598738 -0.17175007 -0.14671288 -0.19468294
-0.01926496 0.055695705 -0.22546203 -0.04273046 -0.10098173 -0.17491932 -0.0069930176 -0.014513623
-0.009209085 0.02786726 0.037762266 0.21933813 0.038865045 -0.10521579 -0.3255408 0.055455048
0.0048035 -0.11732508 0.18147795 -0.024653569 0.11344943 -0.20085967 -0.091858454 0.30642503
00000000: 6110 cd3d 041c c03b ac6b 863d d96a 0fbd
00000010: 1eb4 0cbd 1ebc 8cbd eaaf 5bbe 17bb 9f3d
00000020: 0784 d53d 781a 983c eba3 383e 8d85 48be
00000030: 7e5c 2e3d 30ba e5bc eb20 823d 33a5 d83c
00000040: c956 ad3d 6b1b aa3e d53d e83c 68f2 31be
00000050: 6b26 b33e bea7 c7bc 5d25 0e3d 8cc9 c6be
00000060: fbc3 603e fdeb db3d daa2 cb3d 4602 2b3e
00000070: 3edc 39bd a5c1 e33e ce94 21bd 36e0 323e
00000080: 9b20 333e 3cc5 153e b1eb 693e e20d ce3e
00000090: 96a6 283e 4c9a a7bd 6d87 2ebe d419 013e
000000a0: ea46 62be 5cf7 973c a237 4e3d e6e2 4dbc
000000b0: 9ef5 d2bd 3bdd 0cbe 447a 85be 68bf bbbd
000000c0: a30b 473e cd21 15bd 5c73 523d d7dc 9fbd
000000d0: a56d 8fbc b840 49be 5994 be3c 6160 873d
000000e0: 3bdb 0b3e a025 7d3e acf2 093d 6568 65bd
000000f0: 7f37 193c d7c0 3abe 1273 f53c 18de 013b
00000100: 69f9 343d 68c2 fd3d 9b72 e5bd ae03 8cbe
00000110: 7573 c33d a5dc 023e 4b73 0fbc 4032 20be
00000120: 974c 81bd 5bba 303d c6b9 8abd efe7 89bd
00000130: dd7f e23d 27fb 18be 3ab5 f23d 945e 3d3e
00000140: cfb8 e1bd a746 d9bd 5293 003e c9a5 04be
00000150: 31a8 313e 918d b4bb 0472 57be 102a d63d
00000160: 9b4c 56be 7b9f 933d cf03 8ebd ba14 8a3d
00000170: 3167 df3d e57c 56bd abcd 82bc b402 29bd
00000180: 2291 08be 2736 023e 6165 263e e169 713c
00000190: 33eb 803e f5d1 d03b f5cd a1bb 7e41 913d
000001a0: eb13 65bd 0552 973d 8f1d 97bc 5f9e 863e
000001b0: f3af 8d3d 7648 d5bd ef35 d33d e288 eb3d
000001c0: 07eb 393c b476 4cbe caab dabd 4e13 4f3d
000001d0: ee1d d73d 2d0f 073f 82ac ef3c 365e efbd
000001e0: 7537 35be 5d56 113d 98f4 fdbd 05b8 d5bd
000001f0: dff4 c23d 0af1 893e 6bcf 053e dca2 fc3d
00000200: 78e3 febc 2a5c 473d 8f3d c53c ce2a c2bd
00000210: 60c8 2ebe e357 023e adf5 0d3d 8971 4b3e
00000220: b0b2 e43d 45c2 95be 8069 cfbd ddd8 de3c
00000230: 00b5 663d ddea 1abe b4e1 903d 81ec 803d
00000240: 4263 093e c195 05bd 1067 86be 873d 3bbd
00000250: 711c 9cbd f39e eb3c d8ba a73d 464a b63d
00000260: 9ff0 013e 29e4 63be acc0 1fbd 4ade 303e
00000270: bc43 b4bd 4e81 233e a2da b3bd ec31 883d
00000280: 8541 463e 6078 f63d 7d37 653b 53b6 cfbd
00000290: a62a 68bd 932b 2cbe 9f20 8f3d 0c8f 04be
000002a0: 6e10 2e3d 4725 173d 140d 453e c4e3 f43c
000002b0: 30b8 ce3c baf2 293e f159 afbe 1033 04be
000002c0: 7f0a ac3d 7693 763e 62b9 eb3d 4e75 03be
000002d0: 2f5a 903c 0922 823e 1e90 fb3c d811 a63d
000002e0: fc97 033e 3069 de3d 653e 6ebd 88da 023e
000002f0: 6c02 093e 0604 173e a19a 82bd c30d f0bd
00000300: 4aef 693e da01 3b3e 9ea9 693e bd91 a6be
00000310: 911c 1a3e 2b37 ccbe 5dc0 21be 74ba b3be
00000320: b857 4e3e 5232 403b 1c02 053e db71 13be
00000330: f5c5 1a3e 0fa3 553e e48a a4bd 599b 9a3c
00000340: ac42 abbd 9c8d 0fbe bc07 523e 02be 3d3e
00000350: 398c 2cbd 2e22 4ebd 5e90 1bbe 3b8e 39bd
00000360: 73b1 183d 4cbf 8dbd 900e b3be c661 b23c
00000370: 96bd 97be ce23 003e ba76 d03d 0ec1 bf3d
00000380: 0192 31be 2653 edbd 8ec9 8d3d 5f37 0a3e
00000390: 7ce3 d4bc 40df 2fbe e73b 16be f75a 47be
000003a0: 8dd1 9dbc 2e21 643d 85df 66be 2306 2fbd
000003b0: 82cf cebd 0d1e 33be af25 e5bb 8cca 6dbc
000003c0: b4e1 16bc e149 e43c 9bac 1a3d 2d9a 603e
000003d0: f430 1f3d 607b d7bd 49ad a6be d524 633d
000003e0: ae66 9d3b 2248 f0bd 5bd5 393e 48f6 c9bc
000003f0: 2d58 e83d 28ae 4dbe 4920 bcbd bee3 9c3e

seq.8.bias f4 [20]
0.043077424 0.16175185 0.09934523 -0.11040926 -0.12648048 0.113039106 -0.08003471 0.19130497
0.19769323 0.16660123 -0.055679604 0.029136302 -0.08940249 0.15516171 -0.08937961 0.20512676
0.15895043 0.16444556 -0.110332415 0.086394124
00000000: f471 303d 47a2 253e 8375 cb3d 401e e2bd
00000010: 1984 01be 0c81 e73d 3de9 a3bd 73e5 433e
00000020: 1870 4a3e 8399 2a3e 4c10 64bd 41af ee3c
00000030: a718 b7bd b6e2 1e3e a80c b7bd c00c 523e
00000040: e7c3 223e 6b64 283e f6f5 e1bd 67ef b03d
