submission/checkpoint_PER.pth (torch, 716737 bytes, 12 tensors)

seq.0.weight f4 [265, 510]
-0.298443 0.00339752 -0.046397783 -0.03258793 -0.015651165 -0.21589887 -0.05158488 0.042683132
-0.0039296523 0.0037935178 -0.14345972 -0.10542454 -0.03888271 -0.029326346 -0.015226388 0.06664353
-0.11457584 0.03543755 -0.030019736 -0.03311553 -0.24099967 0.041763544 -0.02031334 0.0331358
-0.008368767 0.072388224 -0.11662071 -0.037050486 -0.027876409 -0.022942439 -0.28956234 0.036880232
0.037658863 -0.020383883 -0.072532065 0.007940874 -0.17480068 0.020041673 0.01975888 0.005207086
-0.113675356 -0.18023281 0.070589565 -0.0413447 -0.074019015 0.13285798 -0.019570518 0.06554123
-0.01963829 0.017418059 -0.038253963 -0.10862416 0.034528274 0.0059820116 -0.0025954507 0.053593807
-0.09269462 -0.029870486 -0.030690372 -0.024212765 -0.06918984 -0.12906657 -0.0016611083 0.013377529
-0.0019186055 -0.053094346 -0.11488227 0.0072591193 0.027470738 0.034649227 -0.016319646 -0.10482637
0.033416923 0.036688782 0.009879606 0.005314062 -0.077515095 -0.058537565 0.004073497 -0.03237164
-0.22846286 0.04710669 -0.019181104 -0.04417128 0.0008806561 -0.0008590227 -0.05371863 -0.04316723
0.017028432 -0.012099721 -0.27687487 -0.048358 -0.0027669573 0.016557064 -0.053315245 -0.004548472
-0.08777253 0.04225968 -0.034542702 -0.015142998 -0.11374971 -0.08638971 -0.019159898 -0.011144791
-0.056887046 0.06243816 -0.085998416 0.0146751525 -0.0024398528 0.0019643758 -0.11823278 -0.11540259
-0.037946716 0.04017902 -0.0046455194 0.057090264 0.10317541 0.016536007 0.006460607 0.012347182
-0.086637646 -0.08096034 -0.033167772 0.020953164 -0.062431484 0.1264279 -0.10640727 0.03116375
-0.015490882 -0.039406613 -0.09524219 -0.06898517 -0.062409885 -0.0022724606 0.009451176 0.05258655
-0.20518112 -0.003502969 0.008961599 0.043688722 0.15304582 -0.08344625 0.02335345 -0.003202457
-0.07036776 -0.07047159 -0.17667785 -0.0043392377 -0.022009583 -0.020302542 -0.05037735 -0.07386592
0.009948801 0.024283826 -0.03558065 -0.027310207 -0.13726416 -0.015467103 -0.009361405 -0.012239983
-0.0614737 -0.0058527733 -0.012865222 -0.038233675 -0.07440981 0.054150634 -0.153037 0.036390513
-0.039855257 0.0067406087 0.14228247 -0.013951393 0.047203742 0.01603644 -0.08921809 0.022247935
0.017374735 -0.023125209 0.035409242 -0.04866452 0.05889053 0.043923814 0.033978485 0.012360729
-0.024781665 -0.004704656 0.016942473 0.0075561963 -0.03649094 0.02747257 0.12125936 0.035245385
-0.043411855 0.001974918 -0.10533557 -0.010273807 -0.07191595 0.020072976 -0.02638748 -0.010047939
0.0033384073 -0.0138640385 -0.027951058 -0.030399274 -0.09554431 -0.025210962 0.018649522 0.08445679
0.016012251 -0.016541172 0.011221136 0.02644912 -0.010290807 -0.010111272 -0.08310393 0.14144558
-0.052577112 -0.061381638 0.03575638 -0.061416876 -0.038251735 0.05362793 0.08641773 0.0012537241
-0.123975575 0.014604467 -0.10910322 -0.015507085 -0.014856914 -0.023327764 0.031309955 0.12494769
0.05077343 0.039661944 -0.019249365 -0.019054724 -0.029682655 -0.06152375 -0.018767294 0.00789517
0.06407694 0.16543452 0.023006061 7.088855e-05 -0.0624354 -0.08477212 -0.08674906 -0.10336517
0.0006102994 -0.0022050831 0.04860644 0.014154099 0.09531756 -0.012944128 -0.096152484 0.055373907
00000000: 85cd 98be eda8 5e3b 9a0b 3ebd ec7a 05bd
00000010: df36 80bc 9814 5dbe ab4a 53bd 82d4 2e3d
00000020: 50c4 80bb ab9c 783b 1be7 12be d2e8 d7bd
00000030: 7a43 1fbd ce3d f0bc 1a78 79bc 677c 883d
00000040: bda6 eabd f726 113d f3eb f5bc 26a4 07bd
00000050: 9ec8 76be 4010 2b3d 2968 a6bc 68b9 073d
00000060: 271d 09bc 4740 943d d7d6 eebd 40c2 17bd
00000070: 115d e4bc c8f1 bbbc 8441 94be ba0f 173d
00000080: 2e40 1a3d 1afc a6bc b18b 94bd 711a 023c
00000090: f3fe 32be 6f2e a43c 60dd a13c 34a0 aa3b
000000a0: a0ce e8bd f38e 38be 4391 903d 0f59 29bd
000000b0: 4897 97bd ec0b 083e 5a52 a0bc 7b3a 863d
000000c0: 7be0 a0bc 51b0 8e3c 30b0 1cbd 5876 debd
000000d0: 856d 0d3d c004 c43b 7018 2abb 2e85 5b3d
000000e0: add6 bdbd f3b2 f4bc 606a fbbc d959 c6bc
000000f0: 67b3 8dbd 072a 04be 8cb9 d9ba 6c2d 5b3c
00000100: b879 fbba 7579 59bd 6547 ebbd e8dd ed3b
00000110: 500a e13c 59ec 0d3d c7b0 85bc 35af d6bd
00000120: 2fe0 083d fa46 163d 12de 213c 9521 ae3b
00000130: 3cc0 9ebd 16c5 6fbd f87a 853b 2098 04bd
00000140: 2bf2 69be f2f2 403d b121 9dbc f2ec 34bd
00000150: d5db 663a 0a30 61ba 1108 5cbd 1fd0 30bd
00000160: 367f 8b3c e83d 46bc 8bc2 8dbe 0a13 46bd
00000170: d755 35bb aea2 873c 1661 5abd 590b 95bb
00000180: 16c2 b3bd 7c18 2d3d a67c 0dbd 561a 78bc
00000190: 9cf5 e8bd 17ed b0bd 38f5 9cbc a498 36bc
000001a0: 6402 69bd 28bf 7f3d f01f b0bd 0d70 703c
000001b0: f0e5 1fbb c2bc 003b 0724 f2bd 3158 ecbd
000001c0: 046e 1bbd c292 243d 7139 98bb 7bd7 693d
000001d0: a14d d33d 8576 873c 80b3 d33b d64b 4a3c
000001e0: 146f b1bd 89ce a5bd eeda 07bd f8a5 ab3c
000001f0: 28b8 7fbd 5176 013e 0eec d9bd 1f4b ff3c
00000200: 78cd 7dbc d468 21bd 560e c3bd 1948 8dbd
00000210: 82a1 7fbd 90ed 14bb 1bd9 1a3c ff64 573d
00000220: 001b 52be 1192 65bb acd3 123c f2f2 323d
00000230: 0bb8 1c3e dee5 aabd bc4f bf3c 50e0 51bb
00000240: f91c 90bd 6953 90bd 0aeb 34be 2a30 8ebb
00000250: 714d b4bc 8451 a6bc 7b58 4ebd 0447 97bd
00000260: 4c00 233c e0ee c63c 04bd 11bd a8b9 dfbc
00000270: fa8e 0cbe bb69 7dbc 9460 19bc 368a 48bc
00000280: d9cb 7bbd 9fc8 bfbb a7c8 52bc ea9a 1cbd
00000290: 2c64 98bd 0ecd 5d3d bbb5 1cbe 380e 153d
000002a0: 443f 23bd 53e0 dc3b 7fb2 113e 6294 64bc
000002b0: b658 413d da5e 833c f9b7 b6bd 4d41 b63c
000002c0: 7655 8e3c 1471 bdbc 4809 113d 7354 47bd
000002d0: 3237 713d 75e9 333d 062d 0b3d a884 4a3c
000002e0: eb02 cbbc 8429 9abb f1ca 8a3c f899 f73b
000002f0: 8677 15bd 280e e13c d456 f83d 775d 103d
00000300: a1d0 31bd a06d 013b 2dba d7bd 7853 28bc
00000310: ab48 93bd 1570 a43c 8e2a d8bc 1ca0 24bc
00000320: 2ec9 5a3b fe25 63bc 9ef9 e4bc e607 f9bc
00000330: bcac c3bd 3887 cebc e2c6 983c aef7 ac3d
00000340: 202c 833c 5a81 87bc dbd8 373c d3ab d83c
00000350: c69a 28bc c0a9 25bc 6532 aabd 1cd7 103e
00000360: 195b 57bd 506b 7bbd 4875 123d 4390 7bbd
00000370: daad 1cbd f6a8 5b3d c7fb b03d 0054 a43a
00000380: e8e6 fdbd 9347 6f3c 8271 dfbd 6e11 7ebc
00000390: 6a6a 73bc de19 bfbc de3e 003d 93e4 ff3d
000003a0: cdf7 4f3d 9074 223d d8b0 9dbc a718 9cbc
000003b0: 0a29 f3bc 5400 7cbd debd 99bc be5a 013c
000003c0: c53a 833d ab67 293e 3577 bc3c 00aa 9438
000003d0: 43bc 7fbd 019d adbd 7ea9 b1bd 1eb1 d3bd
000003e0: 80fc 1f3a 2883 10bb 8c17 473d 98e6 673c
000003f0: da35 c33d 9c13 54bc 98eb c4bd c0cf 623d

seq.0.bias f4 [265]
0.040284645 -0.047052328 -0.05497813 -0.030729933 -0.06530644 0.0033625136 0.029201273 -0.044443384
-0.055022158 -0.020356577 0.012795474 -0.038140938 -0.026272537 0.011060242 0.0022495757 -0.020485332
-0.056134425 0.020726766 -0.015850129 -0.0038956585 -0.0153454235 -0.03492736 -0.013302403 -0.013014796
-0.00066895597 -0.02818946 -0.0011388037 0.0057687066 -0.005399413 -0.053863786 0.012477739 -0.028747972
0.02389884 -0.07274923 0.0062153623 0.068172485 0.01699756 0.021341829 -0.045077715 -0.032946397
-0.014245129 0.0067869388 -0.023477629 -0.041775208 -0.0014134042 0.0679983 -0.03334447 -0.005242313
0.028265735 0.015838157 -0.028620528 0.036573496 -0.020754594 0.019907769 0.041758236 -0.032095086
-0.012505866 -0.01290339 -0.07864181 -0.021463206 -0.042485386 -0.0030384643 -0.06122613 -0.022272564
-0.012114699 -0.035309583 0.04785054 0.018754298 -0.042452097 0.009029272 0.02714796 -0.058393486
-0.045328982 -0.0073267263 -0.00028285143 -0.0051102787 -0.039787296 0.007997163 0.034175348 -0.009991286
-0.047737718 0.029620552 0.010900251 -0.042373627 -0.012238138 0.0549888 0.019113151 0.016907206
-0.0058491034 -0.010382939 0.04524616 0.02674783 -0.0060225725 0.06528353 0.0011334262 0.025368422
0.03679784 0.014970904 0.020057011 0.006447527 -0.030333497 -0.014648301 0.018390594 0.029638777
0.03318004 0.0050486187 -0.035275463 -0.027318256 0.035217736 0.03586686 -0.031854413 -0.030225199
-0.010879029 -0.0025207468 -0.06343095 -0.034564957 -0.029418746 -0.010912215 -0.0008938041 -0.0034069344
-0.025731288 -0.046717457 -0.019745458 0.023009151 -0.025175514 -0.0054681264 -0.029052882 0.03094813
0.029504374 0.07706843 0.058514234 -0.004776623 -0.040874124 0.013876841 -0.017620547 -0.032823265
0.05424067 -0.020923693 -0.054572154 0.042545017 0.012500881 -0.07509629 0.013474634 0.034176663
0.016528616 0.025914833 0.008182762 -0.0049631875 0.019508192 0.013054924 -0.009489461 -0.030526549
0.027538365 0.036240734 -0.02033757 0.005163405 -0.0077012503 0.018423626 0.004126236 0.04861676
0.021880336 0.031690985 0.014205793 -0.07258474 0.022181204 -0.015983574 0.038192276 -0.022154883
0.006843725 -0.022244772 0.013730427 0.062320106 0.032741647 -0.014305251 -0.0338526 0.035894606
-0.04997708 0.035462696 -0.0054807565 0.027324246 0.027453588 -0.046342522 -0.0794661 -0.0066775037
-0.03855595 -0.0636337 -0.048969552 -0.025833774 0.02334453 -0.055521734 -0.032893904 -0.0031384244
-0.02591605 -0.015509363 -0.023322633 0.06631298 0.023137385 0.0058243815 -0.0312718 -0.039134964
0.033114452 -0.022238897 0.014163014 0.039327372 -0.060782265 0.0081367185 0.03242599 -0.022857307
0.022364598 0.038256727 0.048024654 -0.02486743 -0.042475622 -0.028682595 -0.0063131987 -0.008558774
0.015257816 0.020968879 0.026014013 -0.044303644 -0.012077817 -0.02946003 -0.010044979 -0.029236909
0.050208513 -0.0067798826 -0.012675415 0.0033328575 -0.027451087 -0.032304365 0.01983033 0.052636188
0.03545754 -0.025997441 -0.028221017 -0.03723931 0.044860505 -0.06843575 0.019628085 0.016276404
0.0077597634 0.0289255 -0.026912946 0.0287811 -0.050023668 -0.044507075 0.004993955 -0.05324586
4.7947684e-05 -0.05454213 0.019989753 -0.024312299 -0.013958772 0.013449329 -0.008213262 -0.044753518
00000000: 8301 253d f1b9 40bd bf30 61bd 57bd fbbc
00000010: 62bf 85bd 9e5d 5c3b 8237 ef3c 440a 36bd
00000020: ea5e 61bd d6c2 a6bc 1ca4 513c ac39 1cbd
00000030: 8139 d7bc 0436 353c 9e6d 133b dbd0 a7bc
00000040: 36ed 65bd 2ecb a93c 21d8 81bc 4e4e 7fbb
00000050: 5f6b 7bbc fe0f 0fbd 52f2 59bc 033c 55bc
00000060: e05c 2fba 95ed e6bc e943 95ba 6b07 bd3b
00000070: 8fed b0bb 46a0 5cbd 6e6f 4c3c de80 ebbc
00000080: 80c7 c33c 8cfd 94bd 3daa cb3b 049e 8b3d
00000090: 783e 8b3c 0fd5 ae3c 69a3 38bd cdf2 06bd
000000a0: 6764 69bc f864 de3b 2854 c0bc 7b1c 2bbd
000000b0: fa41 b9ba b142 8b3d 3694 08bd b5c7 abbb
000000c0: 8b8d e73c 06bf 813c 9975 eabc 17ce 153d
000000d0: 8a05 aabc 9e15 a33c af0a 2b3d 2376 03bd
000000e0: 67e5 4cbc be68 53bc f50e a1bd 9bd3 afbc
000000f0: 2805 2ebd f920 47bb 40c8 7abd f474 b6bc
00000100: bb7c 46bc c8a0 10bd eefe 433d 9da2 993c
00000110: 40e2 2dbd 83ef 133c 6665 de3c 022e 6fbd
00000120: e2aa 39bd 0915 f0bb ad4b 94b9 2074 a7bb
00000130: 01f8 22bd 8806 033c 73fb 0b3d 7eb2 23bc
00000140: a088 43bd cda6 f23c f796 323c f88f 2dbd
00000150: 7982 48bc f03b 613d 2f93 9c3c fb80 8a3c
00000160: d6a9 bfbb 341d 2abc 0a54 393d 441e db3c
00000170: 0059 c5bb 5fb3 853d 798f 943a 70d1 cf3c
00000180: 55b9 163d 8648 753c 9a4e a43c c745 d33b
00000190: f47d f8bc 6dff 6fbc dfa7 963c 05cd f23c
000001a0: cbe7 073d e26e a53b 017d 10bd 89ca dfbc
000001b0: 7940 103d 21e9 123d c679 02bd d69a f7bc
000001c0: f43d 32bc 1d33 25bb 16e8 81bd fc93 0dbd
000001d0: 95ff f0bc 26c9 32bc 2e4e 6aba e046 5fbb
000001e0: 6cca d2bc ce5a 3fbd 3ac1 a1bc b07d bc3c
000001f0: e13c cebc f82d b3bb 4f00 eebc ef86 fd3c
00000200: 28b3 f13c 0ed6 9d3d 9fac 6f3d 3885 9cbb
00000210: a06b 27bd b15b 633c f758 90bc b071 06bd
00000220: 772b 5e3d 2a68 abbc 0d87 5fbd af43 2e3d
00000230: 7fd0 4c3c 15cc 99bd b6c4 5c3c d4fc 0b3d
00000240: 0567 873c 584b d43c fe10 063c 3ca2 a2bb
00000250: a5cf 9f3c 52e4 553c af79 1bbc d012 fabc
00000260: 2398 e13c 2a71 143d fa9a a6bc c831 a93b
00000270: c55a fcbb 25ed 963c 6035 873b 5e22 473d
00000280: 643e b33c 68ce 013d 6abf 683c 4fa7 94bd
00000290: 5bb5 b53c fcef 82bc 816f 1c3d 287e b5bc
000002a0: 5441 e03b ab3a b6bc 96f5 603c 5e43 7f3d
000002b0: 1b1c 063d 9260 6abc 06a9 0abd 3906 133d
000002c0: c4b4 4cbd 5541 113d eb97 b3bb 19d7 df3c
000002d0: 59e6 e03c a8d1 3dbd 1fbf a2bd f6ce dabb
000002e0: d8ec 1dbd 6352 82bd 4c94 48bd 5aa1 d3bc
000002f0: 073d bf3c c26a 63bd c2bb 06bd 06ae 4dbb
00000300: e54d d4bc fc1a 7ebc 1b0f bfbc 1acf 873d
00000310: 9d8a bd3c 74da be3b dc16 00bd fc4b 20bd
00000320: 05a3 073d 592e b6bc fc0b 683c bd15 213d
00000330: d3f6 78bd df4f 053c 1dd1 043d 3f3f bbbc
00000340: f635 b73c 16b3 1c3d 80b5 443d c8b6 cbbc
00000350: ebfa 2dbd c3f7 eabc f3de cebb 1a3a 0cbc
00000360: ebfb 793c edc6 ab3c 571b d53c bd77 35bd
00000370: 09e2 45bc 2956 f1bc b293 24bc 3e82 efbc
00000380: 71a7 4d3d c729 debb 8bac 4fbc 126c 5a3b
00000390: 1ae1 e0bc 9551 04bd 3773 a23c 0b99 573d
000003a0: ed3b 113d 96f8 d4bc c32f e7bc 3f88 18bd
000003b0: a6bf 373d 0b28 8cbd 14cb a03c 1856 853c
000003c0: 9d45 fe3b 2cf5 ec3c 8a78 dcbc 57c6 eb3c
000003d0: 9ee5 4cbd 0d4d 36bd 55a4 a33b 5518 5abd
000003e0: 6f1b 4938 9267 5fbd 8dc1 a33c 962a c7bc
000003f0: 55b3 64bc 935a 5c3c eb90 06bc 774f 37bd

seq.2.weight f4 [100, 265]
0.109564446 0.17236061 0.0037693633 0.03993265 0.12825066 0.032312177 -0.01783372 -0.0060409727
0.1699754 0.014442018 -0.03659944 -0.13225098 0.04252433 0.029988926 0.104833595 -0.078308746
0.11833047 0.057345472 0.11075018 -0.0045649856 -0.02257814 -0.23455212 0.049560793 0.06549566
0.064219534 -0.045750108 0.064247556 -0.009299719 0.073523216 -0.009819173 -0.13544309 0.13546439
0.004692579 0.23909168 0.23112613 -0.024415031 -0.06582017 0.031733487 0.028903684 0.05287469
0.11162495 -0.059019625 -0.02596009 0.18038997 0.050442412 0.047750454 0.15636976 -0.037875563
0.051713396 -0.008151556 -0.057767738 -0.005797685 0.027422447 0.012891587 0.038011473 0.11607149
-0.055581786 0.080232255 0.26218748 0.0031834915 0.008564502 0.023475325 -0.31163734 -0.25543755
-0.017441025 0.034309354 -0.005051775 -0.012767284 0.0034722942 -0.10683632 -0.039774153 -0.034590602
0.17434628 -0.050906613 -0.0260559 0.25708595 0.13304628 -0.007465861 -0.122867234 0.07996482
0.24552502 -0.20873547 0.025119727 -0.2755597 0.10133933 -0.05875073 0.0033516504 -0.37162164
0.012772429 -0.005888261 -0.0048199496 0.063403405 0.040476702 0.035675164 0.13707273 -0.034377858
-0.15303704 0.02857659 0.049511015 -0.026107782 -0.24795838 0.06046779 0.06213145 -0.032608524
0.033013154 -0.07220475 -0.09201484 0.0017812018 0.029994523 0.00022621358 0.25758776 0.017442737
0.21345428 -0.1538077 -0.04322817 0.019061832 0.012080402 0.030922757 0.14325027 0.012699745
-0.006270731 -0.016747102 -0.022382887 -0.007909356 0.057646252 0.15818028 0.0020606124 -0.02101981
0.007499373 0.06073035 0.059094068 0.05844281 0.059352465 0.10754924 0.07767258 0.17396457
0.0100854505 -0.17978439 0.06466167 -0.22456056 0.10353552 0.13761853 -0.11058606 -0.027872061
0.026985183 -0.08726852 -0.024727875 0.043853205 -0.117164195 -0.028868224 0.053156648 -0.02135993
-0.015850523 0.02308514 -0.21287408 0.02777369 0.09761001 0.10209995 -0.0010100956 0.034176137
0.0072446037 0.06202859 0.08527268 -0.2020955 0.14110142 -0.117930524 -0.02951386 0.14825436
0.04905419 0.09993502 0.11628771 0.06505738 0.01966978 0.06979273 -0.010256736 0.11092909
-0.070101745 -0.1251365 0.11323151 -0.0086209215 0.04460738 -0.0055478797 0.23214501 0.08988446
0.05383028 -0.060369942 -0.2643408 -0.23323677 0.04465854 0.029367143 0.09768972 0.13138324
-0.30846417 0.37554833 -0.047571175 0.0384339 0.036272753 -0.03446773 0.051047686 -0.124465056
0.06815464 -0.035878785 -0.027890442 0.048308592 -0.20712687 -0.032157376 0.01097261 -0.012366117
-0.1448604 0.17583255 0.051139217 0.04538514 0.26251477 0.028161563 -0.030019697 -0.033311117
-0.0020564985 -0.031452283 -0.03006434 0.13483666 0.04052546 -0.051028952 -0.14801969 0.08838405
0.09491823 0.0248719 0.05414068 0.055738483 -0.006673693 0.04296301 0.030049527 0.062890776
-0.035767198 0.07934495 0.41239342 -0.018527366 0.075346574 -0.20003036 -0.28831744 0.0106798615
0.013836058 0.028824523 -0.0290338 0.083509155 -0.041360773 -0.018875793 0.0551587 0.16647027
0.034822375 -0.12652856 -0.0037238884 0.0014493979 -0.16416739 -0.017684475 -0.14900817 -0.24923393
00000000: 5363 e03d 4d7f 303e 6c07 773b 6b90 233d
00000010: 2454 033e c659 043d 0618 92bc 5af3 c5bb
00000020: 080e 2e3e 379e 6c3c 4be9 15bd cd6c 07be
00000030: fe2d 2e3d 56ab f53c ffb2 d63d 5660 a0bd
00000040: 3f57 f23d 16e3 6a3d fed0 e23d e095 95bb
00000050: cbf5 b8bc 6e2e 70be 4200 4b3d 9722 863d
00000060: 8885 833d 7764 3bbd 3994 833d d95d 18bc
00000070: 5793 963d 99e0 20bc 98b1 0abe 2db7 0a3e
00000080: 35c4 993b 73d4 743e 54ac 6c3e 0802 c8bc
00000090: bacc 86bd f9fa 013d 6bc7 ec3c 2293 583d
000000a0: 9f9b e43d 90be 71bd 41aa d4bc 26b8 383e
000000b0: b49c 4e3d fb95 433d 651f 203e 6823 1bbd
000000c0: 6dd1 533d 1b8e 05bc dd9d 6cbd 82fa bdbb
000000d0: 0aa5 e03c 3c37 533c ebb1 1b3d e4b6 ed3d
000000e0: baa9 63bd cf50 a43d 703d 863e 20a2 503b
000000f0: 2052 0c3c 534f c03c ee8e 9fbe b6c8 82be
00000100: 7be0 8ebc f787 0c3d 5c89 a5bb df2d 51bc
00000110: 6e8f 633b 00cd dabd 39ea 22bd e0ae 0dbd
00000120: d587 323e 7483 50bd 2f73 d5bc c5a0 833e
00000130: 493d 083e 2ea4 f4bb d1a1 fbbd 98c4 a33d
00000140: e96a 7b3e c0be 55be e3c7 cd3c 2916 8dbe
00000150: ff8a cf3d 9ba4 70bd 5da7 5b3b 3145 bebe
00000160: 7343 513c 50f2 c0bb abf0 9dbb a5d9 813d
00000170: e6ca 253d 1f20 123d cb5c 0c3e cccf 0cbd
00000180: beb5 1cbe 7419 ea3c 10cc 4a3d fddf d5bc
00000190: cde8 7dbe 13ad 773d 8c7d 7e3d 8490 05bd
000001a0: cd38 073d 15e0 93bd 4772 bcbd 3777 e93a
000001b0: 13b7 f53c bf33 6d39 8be2 833e 12e4 8e3c
000001c0: c293 5a3e c47f 1dbe 0610 31bd 8f27 9c3c
000001d0: e1ec 453c b951 fd3c 33b0 123e 9712 503c
000001e0: b47a cdbb 3831 89bc 515c b7bc 3e96 01bc
000001f0: 7a1e 6c3d 03fa 213e 570b 073b bd31 acbc
00000200: 4dbd f53b 63c0 783d 9f0c 723d ba61 6f3d
00000210: 921b 733d c742 dc3d cd12 9f3d c523 323e
00000220: 723d 253c 6619 38be 566d 843d 34f3 65be
00000230: 6e0a d43d dfeb 0c3e f27a e2bd f353 e4bc
00000240: 0810 dd3c d6b9 b2bd 1d92 cabc 6b9f 333d
00000250: c8f3 efbd 0e7d ecbc c9ba 593d 05fb aebc
00000260: f5d8 81bc 0c1d bd3c aafb 59be a685 e33c
00000270: c2e7 c73d c719 d13d 2f65 84ba 47fc 0b3d
00000280: 2464 ed3b b111 7e3d 71a3 ae3d 1ff2 4ebe
00000290: e47c 103e 8f85 f1bd 0dc7 f1bc fecf 173e
000002a0: 0ced 483d bbaa cc3d 4028 ee3d ce3c 853d
000002b0: 8522 a13c 7eef 8e3d de0b 28bc ca2e e33d
000002c0: 8191 8fbd c823 00be ece5 e73d c43e 0dbc
000002d0: 3ab6 363d fdca b5bb 6cb7 6d3e 5815 b83d
000002e0: 247d 5c3d 7946 77bd ad57 87be 9fd5 6ebe
000002f0: e0eb 363d 5d93 f03c 8c11 c83d 5489 063e
00000300: 04ef 9dbe df47 c03e fed9 42bd dd6c 1d3d
00000310: bd92 143d 092e 0dbd 6117 513d 89e7 febd
00000320: a994 8b3d a2f5 12bd 7f7a e4bc 3bdf 453d
00000330: 1119 54be 74b7 03bd 76c6 333c 419b 4abc
00000340: 4956 14be 730d 343e 5b77 513d c5e5 393d
00000350: 5668 863e 14b3 e63c deeb f5bc 3d71 08bd
00000360: 52c6 06bb 1cd4 00bd 7e49 f6bc 9f12 0a3e
00000370: 06fe 253d bc03 51bd 7992 17be b202 b53d
00000380: 7d64 c23d 28c0 cb3c 9ec2 5d3d 094e 643d
00000390: ffae dabb fbf9 2f3d 6d2a f63c e1cc 803d
000003a0: a080 12bd 9b7f a23d 3b25 d33e b4c6 97bc
000003b0: 4e4f 9a3d c2d4 4cbe 589e 93be 96fa 2e3c
000003c0: a2b0 623c 6821 ec3c 4bd8 edbc d906 ab3d
000003d0: ea69 29bd 68a1 9abc 17ee 613d 2f77 2a3e
000003e0: e8a1 0e3d b490 01be 7b0c 74bb b9f9 bd3a
000003f0: 7f1b 28be 08df 90bc 9995 18be 2e37 7fbe

seq.2.bias f4 [100]
0.03719862 0.033121202 0.10916633 0.122325234 -0.009812098 0.11250705 -0.038393363 0.07032174
0.1325303 0.094414726 0.0052521704 0.02698525 0.026051618 0.09982411 0.010511581 -0.040307894
0.022043345 0.049898468 0.10761442 0.086181514 0.019361675 0.019352319 0.03866983 0.046654977
-0.06493313 0.0032539067 0.08732886 -0.05081126 0.038914137 0.040510416 0.062713616 -0.07080671
0.030530434 -0.015141021 0.01683858 0.04488134 -0.026071863 -0.061224915 0.079707965 0.016645031
-0.01616607 0.08023707 0.025409712 0.0004306162 0.08321981 0.05880839 -0.056584448 0.13613316
-0.054527156 0.00037640054 0.07586679 -0.05991169 0.008763438 0.002599802 0.09855372 0.033995472
0.119173005 0.06988128 -0.014759261 0.030131545 0.0013155624 0.051636748 0.00018523344 0.030670036
-0.0020821332 0.087754816 -0.06680032 0.13087384 0.041495685 0.01095601 0.03164805 0.042737663
0.11573825 0.059246913 -0.051599223 0.0044138725 0.06546799 0.016419144 0.007524647 0.0707994
0.028715324 0.073396794 0.046646826 0.10376219 0.049588095 -0.0021199954 0.06506723 0.06298708
0.0263185 -0.06366225 0.00714235 -0.07366813 -0.00036267753 0.02175594 0.011498627 0.013261354
0.008961796 -0.015314917 -0.032942094 0.09042177
00000000: 955d 183d 19aa 073d 9992 df3d a785 fa3d
00000010: ecc2 20bc 196a e63d 5c42 1dbd d804 903d
00000020: 06b6 073e 825c c13d 661a ac3b 2c10 dd3c
00000030: 346a d53c 9570 cc3d c438 2c3c e419 25bd
00000040: 3f94 b43c 5662 4c3d f364 dc3d ef7f b03d
00000050: 609c 9e3c c188 9e3c 4164 1e3d 4a19 3f3d
00000060: a9fb 84bd 7f3f 553b 79d9 b23d 781f 50bd
00000070: 6e64 1f3d 40ee 253d ff6f 803d 1c03 91bd
00000080: f61a fa3c 0c12 78bc 10f1 893c 7fd5 373d
00000090: a994 d5bc fac6 7abd ee3d a33d 295b 883c
000000a0: b56e 84bc 5553 a43d 0728 d03c 54c4 e139
000000b0: 266f aa3d 11e1 703d 18c5 67bd 7e66 0b3e
000000c0: de57 5fbd a057 c539 0c60 9b3d f665 75bd
000000d0: 8694 0f3c 7161 2a3b 88d6 c93d d63e 0b3d
000000e0: fa10 f43d eb1d 8f3d d4d0 71bc 6ed6 f63c
000000f0: f36e ac3a 0e81 533d 393b 4239 ba3f fb3c
00000100: 6674 08bb ccb8 b33d 9bce 88bd cb03 063e
00000110: 61f7 293d d680 333c 63a1 013d b00d 2f3d
00000120: 2d08 ed3d e4ac 723d b559 53bd 3fa2 903b
00000130: 1514 863d 7181 863c 5091 f63b 47ff 903d
00000140: 663c eb3c 0f51 963d be10 3f3d 4581 d43d
00000150: e31c 4b3d 9fef 0abb f841 853d 5fff 803d
00000160: e599 d73c 5b61 82bd 600a ea3b 51df 96bd
00000170: c125 beb9 8339 b23c bd64 3c3c 2646 593c
00000180: 7fd4 123c 6beb 7abc 4aee 06bd 0d2f b93d

seq.4.weight f4 [100, 100]
-0.08745372 -0.011832152 0.12762453 -0.039795555 0.0526697 0.42217273 -0.049091354 0.029728057
0.100296125 -0.005947441 -0.26806936 0.05804127 -0.08446818 -0.12567323 0.09302411 0.034104683
0.038697068 -0.031630814 -0.061304968 -0.13473205 -0.058591045 -0.07447633 0.04179347 -0.14304973
0.036065914 0.09265638 0.15253022 0.066123106 0.04850899 -0.16461027 0.006556848 -0.060056634
-0.06721067 -0.097160466 0.06633345 -0.08131143 -0.04609621 -0.023497216 0.11418868 -0.06592476
0.089446515 -0.016087629 0.03693953 0.046541724 0.024838695 -0.19902603 -0.059030212 0.006607819
0.032259636 -0.058345847 -0.03469105 -0.09265356 -0.16535303 0.0066927643 -0.053799845 -0.07067968
0.15817067 0.21561079 0.056231078 -0.0014555609 0.09318531 0.0016272131 0.004565359 0.06246716
-0.0368115 -0.14965673 0.0026776374 0.0025109581 -0.13645089 0.071160905 -0.06168406 0.16299926
-0.12587754 -0.16741541 -0.006765643 0.020886244 -0.06286663 0.1301437 0.08283427 0.101656854
0.15790236 -0.04464903 0.16062786 -0.10250753 -0.010495634 0.08485166 -0.1317102 0.007898362
0.06875276 0.030441351 -0.084639445 0.07390468 0.038642235 0.054576118 -0.027592272 0.09516138
-0.0795518 -0.07440027 0.07918298 0.1195452 0.10462792 0.042322222 0.100192755 0.12864862
0.06769305 0.06340176 -0.0010849861 0.13001603 0.10807275 0.035104103 -0.05578442 0.08422588
0.22004154 0.08483072 0.05963545 0.05749476 0.04048442 0.08512273 0.035796892 0.13434657
0.05215186 0.105734676 -0.0650001 0.20748794 -0.065390445 0.0008511622 0.027338803 -0.006289616
0.034599736 -0.036227886 0.06480151 0.057629894 0.11727907 -0.0297039 -0.057016067 0.02767265
-0.017470328 -0.06904983 -0.0552346 0.021127587 0.070164494 0.10531151 0.11709308 0.029760871
0.12433666 -0.0005491815 0.069447346 -0.03747716 -0.038898554 -0.009717595 0.032235093 0.03787985
0.13050136 0.002814227 0.08381869 -0.060275093 0.07464399 0.012648528 0.08114852 0.0703926
-0.08958515 0.028228803 -0.015844658 0.005985569 -0.034013223 -0.07053097 -0.014336847 0.103438444
0.05244338 0.05491181 0.13467547 0.10451098 0.022658017 0.03311253 0.07231105 -0.0051819747
0.079556435 0.06818836 0.08112204 0.06359378 0.11765068 0.20124964 -0.023063593 0.057632532
0.16142221 -0.062143736 0.12184811 0.10182698 0.045971736 -0.014682097 -0.068033785 -0.0708646
0.15329255 -0.015117989 0.039498474 0.0059326133 0.092520714 -0.031807207 0.077135086 -0.005806389
-0.0023728819 0.005591644 0.096857734 0.08143827 0.04288107 0.03203765 0.013678467 0.110818274
0.069089666 -0.054631412 0.08923329 0.053777035 0.13899752 0.023501318 -0.003498585 0.0009266381
-0.024894759 0.19942783 -0.060131267 0.11980005 -0.029790677 -0.08885664 0.010823433 0.17143542
0.106516 -0.05369024 0.06476667 0.033350024 0.05215542 -0.027329316 -0.09489807 0.09788903
-0.026768653 -0.06533812 0.057789892 -0.034454055 0.029827505 0.038558528 -0.009475334 0.056747865
-0.012414698 0.035202757 0.035367064 -0.07095874 0.14258341 0.035421435 0.026870677 0.051137023
0.10236131 -0.06267137 0.11169184 -0.073193796 0.08597022 -0.034420762 0.010204673 -0.027234932
00000000: f01a b3bd a4db 41bc 01b0 023e aa00 23bd
00000010: 2fbc 573d 0627 d83e 0414 49bd 4188 f33c
00000020: 0e68 cd3d c0e2 c2bb 6340 89be afbc 6d3d
00000030: a7fd acbd 7cb0 00be 6d83 be3d 5ab1 0b3d
00000040: d180 1e3d 508f 01bd eb1a 7bbd 33f7 09be
00000050: 2afd 6fbd 0c87 98bd a12f 2b3d a17b 12be
00000060: dab9 133d a1c2 bd3d e230 1c3e 8d6b 873d
00000070: 5db1 463d 988f 28be d4da d63b f2fd 75bd
00000080: bfa5 89bd 11fc c6bd d5d9 873d 9b86 a6bd
00000090: 61cf 3cbd 3c7d c0bc c1db e93d 9003 87bd
000000a0: bc2f b73d 34ca 83bc e84d 173d 89a2 3e3d
000000b0: 857a cb3c 7bcd 4bbe aac9 71bd 6786 d83b
000000c0: ae22 043d 0efc 6ebd 3418 0ebd 26c1 bdbd
000000d0: 4e52 29be fa4e db3b 3a5d 5cbd 82c0 90bd
000000e0: 7ef7 213e 13c9 5c3e 8f52 663d 85c8 beba
000000f0: f1d7 be3d 3648 d53a 0299 953b 91dd 7f3d
00000100: a8c7 16bd 9d3f 19be 4d7b 2f3b e38e 243b
00000110: c8b9 0bbe cfbc 913d 6da8 7cbd 47e9 263e
00000120: 0be6 00be f26e 2bbe 54b2 ddbb a119 ab3c
00000130: 38c0 80bd 6444 053e 04a5 a93d 7831 d03d
00000140: 28b1 213e e7e1 36bd a17b 243e 78ef d1bd
00000150: e1f5 2bbc b5c6 ad3d 0adf 06be 2268 013c
00000160: 3fce 8c3d 2460 f93c 7257 adbd 565b 973d
00000170: 5247 1e3d 358b 5f3d 3009 e2bc f8e3 c23d
00000180: 0eec a2bd 2b5f 98bd b02a a23d 1dd4 f43d
00000190: 2a47 d63d 115a 2d3d dc31 cd3d 77bc 033e
000001a0: a7a2 8a3d c8d8 813d 1836 8eba ec22 053e
000001b0: 3f55 dd3d 52c9 0f3d 347e 64bd 9e7e ac3d
000001c0: 9252 613e bbbb ad3d 4d44 743d a07f 6b3d
000001d0: fed2 253d d354 ae3d c39f 123d 2692 093e
000001e0: 309d 553d 6c8b d83d c61e 85bd b877 543e
000001f0: 6deb 85bd 8720 5f3a a0f5 df3c 2019 cebb
00000200: 74b8 0d3d b163 14bd a7b6 843d 530d 6c3d
00000210: 0230 f03d 9855 f3bc ae89 69bd c1b1 e23c
00000220: ef1d 8fbc ff69 8dbd ad3d 62bd c313 ad3c
00000230: 67b2 8f3d 90ad d73d 7fce ef3d 12cd f33c
00000240: 38a4 fe3d f2f6 0fba 693a 8e3d a781 19bd
00000250: 1754 1fbd 8c36 1fbc f208 043d e727 1b3d
00000260: 26a2 053e e56e 383b 22a9 ab3d 04e3 76bd
00000270: f3de 983d c63b 4f3c 3231 a63d ff29 903d
00000280: 6b78 b7bd 1740 e73c a8cc 81bc 9822 c43b
00000290: 7351 0bbd 8b72 90bd 18e5 6abc 89d7 d33d
000002a0: dfce 563d 35eb 603d 5ee8 093e da09 d63d
000002b0: 4e9d b93c 01a1 073d d117 943d 8ecd a9bb
000002c0: 7cee a23d 57a6 8b3d 5023 a63d 753d 823d
000002d0: d7f2 f03d 6314 4e3e dcef bcbc 1710 6c3d
000002e0: dd4b 253e 6e8a 7ebd 808b f93d aa8a d03d
000002f0: dc4c 3c3d 2e8d 70bc 4c55 8bbd 7621 91bd
00000300: b9f8 1c3e 71b1 77bc 27c9 213d 5e66 c23b
00000310: 807b bd3d 4648 02bd 00f9 9d3d 8543 bebb
00000320: 5a82 1bbb 1c3a b73b 595d c63d 1cc9 a63d
00000330: 10a4 2f3d e939 033d a61b 603c b1f4 e23d
00000340: e27e 8d3d 30c5 5fbd f1bf b63d 4f45 5c3d
00000350: 5e55 0e3e d685 c03c 8448 65bb a1e9 723a
00000360: 18f0 cbbc cf36 4c3e 344c 76bd bb59 f53d
00000370: 940b f4bc 78fa b5bd c554 313c c48c 2f3e
00000380: 1025 da3d 4cea 5bbd 63a4 843d 099a 083d
00000390: eca0 553d bbe1 dfbc eb59 c2bd 0b7a c83d
000003a0: ef49 dbbc fecf 85bd 18b5 6c3d b21f 0dbd
000003b0: d058 f43c 8cef 1d3d 6e3e 1bbc 7370 683d
000003c0: 0467 4bbc c430 103d 0edd 103d d152 91bd
000003d0: 6301 123e 1116 113d e51f dc3c 0e75 513d
000003e0: cea2 d13d d959 80bd b1be e43d a1e6 95bd
000003f0: 2811 b03d c9fc 0cbd 8031 273c cb1b dfbc

seq.4.bias f4 [100]
0.1302136 0.17238347 -0.047278337 0.17751701 0.15369883 0.035481043 -0.059021607 0.16674118
-0.026393875 -0.08971926 0.05634043 -0.03285237 0.1578715 0.0023826181 -0.013803288 0.04282995
-0.0064245146 0.11634509 -0.07853887 -0.085674904 0.22291334 0.13388568 0.09283289 -0.07906661
0.020856202 0.07990612 -0.022259861 0.15041253 0.034906518 0.14360774 0.019508757 -0.06432253
-0.03802125 0.09643405 0.12642199 0.09354739 -0.10327662 -0.012026988 0.12777855 0.089820385
-0.0020363603 0.08683615 -0.0699291 0.14015678 -0.008378729 0.03051995 -0.03256162 0.15296894
0.028597353 0.10977542 0.10285289 0.020900333 -0.042038012 -0.1018095 0.034065407 0.07063782
-0.005391543 0.18284354 0.0460465 0.04753136 -0.018389713 0.051767487 0.13048096 0.020417951
-0.07036006 -0.05632995 -0.092691176 0.035933778 0.15336704 -0.009490791 0.06362844 -0.06417059
-0.006617301 0.18448783 0.08424756 0.014576307 0.09687687 0.0085675595 -0.016041072 0.07505855
-0.061777472 0.05824231 -0.03968873 -0.034935553 0.092413336 -0.04521864 -0.04861437 -0.013290923
-0.10829332 0.18321384 -0.013250236 0.038853966 0.17608646 0.022266371 0.05964565 -0.005995936
-0.07728308 -0.0043289755 0.012557048 0.03657175
00000000: b756 053e 4b85 303e eea6 41bd 05c7 353e
00000010: 3a63 1d3e 9254 113d a4c0 71bd 33be 2a3e
00000020: f837 d8bc bbbe b7bd 39c5 663d 3590 06bd
00000030: 11a9 213e b325 1c3b 3027 62bc 756e 2f3d
00000040: bc84 d2bb 5646 ee3d fdd8 a0bd 5376 afbd
00000050: 6543 643e 5419 093e 2c1f be3d aded a1bd
00000060: a0da aa3c d2a5 a33d 505a b6bc be05 1a3e
00000070: 23fa 0e3d e80d 133e d4d0 9f3c 88bb 83bd
00000080: 2cbc 1bbd 377f c53d c474 013e c695 bf3d
00000090: b182 d3bd d80c 45bc 61d8 023e c0f3 b73d
000000a0: 7574 05bb 27d7 b13d fd36 8fbd 4285 0f3e
000000b0: f046 09bc f904 fa3c 555f 05bd e4a3 1c3e
000000c0: ff44 ea3c efd1 e03d 89a4 d23d 2d37 ab3c
000000d0: 0d30 2cbd 8081 d0bd 2b88 0b3d 90aa 903d
000000e0: 8aab b0bb 563b 3b3e 419b 3c3d 3eb0 423d
000000f0: 06a6 96bc 250a 543d cd9c 053e 8c43 a73c
00000100: ef18 90bd 3cba 66bd dfd4 bdbd 4c2f 133d
00000110: 400c 1d3e 437f 1bbc a14f 823d df6b 83bd
00000120: f2d5 d8bb 61ea 3c3e fc89 ac3d 76d1 6e3c
00000130: 6167 c63d f35e 0c3c 9168 83bc 4cb8 993d
00000140: 600a 7dbd 7d8f 6e3d a690 22bd 9518 0fbd
00000150: 3443 bd3d 2e37 39bd dd1f 47bd 2cc2 59bc
00000160: e3c8 ddbd 699c 3b3e 8517 59bc 5625 1f3d
00000170: 0250 343e f767 b63c ff4e 743d 8f79 c4bb
00000180: 9746 9ebd 14da 8dbb 14bc 4d3c 42cc 153d

seq.6.weight f4 [50, 100]
0.030703118 -0.08322579 0.08107434 0.01720138 0.07442163 -0.051877197 -0.1821998 0.020651566
-0.022557234 -0.047262322 -0.03354644 0.0114638135 0.07831727 0.10263232 -0.06305223 0.06719521
-0.012607144 0.027731389 -0.08939112 -0.020793393 -0.084818594 0.009278746 0.09939157 -0.026634477
0.09694754 0.06285675 0.015677437 0.0925132 0.051740404 -0.006914836 0.06085282 0.06096541
0.031514212 0.024545535 0.019841194 -0.057521943 0.04672829 0.0991904 0.0024711466 -0.025988828
-0.008881102 -0.08737286 0.0012654974 -0.073265694 0.046778806 0.0077397274 0.074713685 -0.22466095
0.04202624 -0.05761275 0.08599585 -0.079131916 -0.042781007 0.007394285 0.0725052 0.0033707053
0.028938223 -0.36322942 -0.06501956 -0.06546391 0.110943675 -0.1397497 -0.017051604 -0.051399328
0.005715209 -0.007051412 -0.098407656 0.06573127 -0.020219168 -0.06968907 0.0686021 -0.0063007437
0.03268187 -0.5134637 -0.08028931 -0.03755678 0.022360262 -0.055438947 -0.10907212 0.042030815
-0.026143353 -0.0029757689 0.053756256 0.037695512 0.06276569 0.099453926 0.0984179 -0.021149188
0.12041806 -0.09190918 -0.005516933 0.048916586 0.049739137 0.0012886485 0.022638563 0.06700448
-0.043902613 0.05274627 -0.11225513 0.020829106 0.10297581 -0.06305085 0.054669555 -0.04151827
-0.08157824 0.07477851 -0.001516389 -0.0073291846 -0.06677616 0.06793577 -0.101331264 -0.044132072
0.0087148165 0.0561533 0.052555915 0.022858376 -0.07089356 -0.00413293 -0.091677375 0.0856156
0.081827 -0.012727564 0.06934771 0.053067647 0.03825167 0.067985445 -0.01895597 0.08218199
-0.000120737874 -0.021992823 0.09771921 -0.08737773 -0.07060789 0.041964103 0.030409846 -0.05564061
-0.06623662 0.04943106 -0.0670519 0.076969676 0.061815266 -0.024518713 -0.012657236 0.054742463
0.084497474 0.023126299 0.0025404056 -0.008607389 0.09549517 -0.109355226 -0.06576906 0.02799191
0.08424265 0.10441951 0.08060502 -0.08121289 -0.06952162 -0.01146321 -0.05580535 0.06482044
0.012485224 -0.076112755 -0.023813063 -0.00908384 0.044220753 -0.02203451 0.037396133 0.10794792
-0.07978271 0.074546285 0.059973203 0.07149262 -0.11454429 -0.026436467 0.087829426 0.096183755
-0.033549994 -0.025856713 -0.03884488 0.021946747 -0.016028365 -0.06574711 0.006308338 0.050232794
0.08636383 0.037227586 0.026175492 0.04376793 0.06507094 -0.14735934 0.007934482 -0.0062488653
0.024271546 0.03530006 0.0029084552 -0.028606253 0.078062065 0.040994108 0.078601785 0.09526518
0.028737178 0.019196343 0.0118060205 0.044104014 -0.009574596 0.06838838 -0.059603624 -0.010476619
0.076206215 0.07648865 -0.0786576 -0.082005695 0.03799472 -0.036394164 0.043697078 0.092231885
-0.036413137 0.044558305 -0.043666158 0.084875114 -0.014027092 -0.09142683 -0.04205806 -0.0050697774
-0.087204 0.03637851 -0.10253754 -0.10622098 0.063520566 0.035310246 -0.084127076 -0.0245561
-0.0579661 0.039880637 -0.0548958 -0.057634808 0.048014674 -0.09432037 -0.043336768 0.06347823
-0.098844975 -0.024379011 0.060233563 -0.020208703 0.052937057 0.038352482 -0.058463402 -0.0049838787
0.008251581 0.053701997 -0.10759809 0.052463267 0.00885465 -0.01019227 -0.06388243 -0.012959897
00000000: 1b85 fb3c 4872 aabd 4e0a a63d e9e9 8c3c
00000010: 5e6a 983d 2f7d 54bd 9692 3abe 792d a93c
00000020: f3c9 b8bc 2396 41bd fe67 09bd b8d2 3b3c
00000030: ce64 a03d e530 d23d 8721 81bd a49d 893d
00000040: 328e 4ebc f02c e33c b112 b7bd e856 aabc
00000050: 5fb5 adbd e205 183c cf8d cb3d 8c30 dabc
00000060: 6f8c c63d 0abb 803d f86d 803c 9077 bd3d
00000070: bfed 533d d995 e2bb ce40 793d deb6 793d
00000080: 0c15 013d b813 c93c 008a a23c 219c 6bbd
00000090: 2a66 3f3d 5624 cb3d f6f2 213b 86e6 d4bc
000000a0: 0b82 11bc 8bf0 b2bd 0cdf a53a 530c 96bd
000000b0: 229b 3f3d 8a9d fd3b 7d03 993d 850d 66be
000000c0: b523 2c3d 59fb 6bbd 981e b03d ea0f a2bd
000000d0: 233b 2fbd c24b f23b 9b7d 943d 0de7 5c3b
000000e0: da0f ed3c 35f9 b9be fa28 85bd f111 86bd
000000f0: 7036 e33d 8c1a 0fbe ceaf 8bbc 1a88 52bd
00000100: a646 bb3b 880f e7bb f489 c9bd 1e9e 863d
00000110: aba2 a5bc 25b9 8ebd 427f 8c3d 7876 cebb
00000120: 6ddd 053d 5b72 03bf b96e a4bd 23d5 19bd
00000130: de2c b73c f313 63bd 3461 dfbd 8128 2c3d
00000140: 962a d6bc 1e05 43bb 852f 5c3d 9c66 1a3d
00000150: 4c8b 803d 80ae cb3d 538f c93d 1041 adbc
00000160: be9d f63d e13a bcbd 63c7 b4bb c25c 483d
00000170: 44bb 4b3d dee7 a83a 8274 b93c a539 893d
00000180: 3ad3 33bd 790c 583d 05e6 e5bd cda1 aa3c
00000190: fbe4 d23d ce20 81bd 2fed 5f3d 100f 2abd
000001a0: 7e12 a7bd 7a25 993d 92c1 c6ba a829 f0bb
000001b0: f0c1 88bd e921 8b3d c486 cfbd d5c3 34bd
000001c0: 97c8 0e3c 0101 663d df44 573d 7d41 bb3c
000001d0: a530 91bd 886d 87bb 59c1 bbbd 3b57 af3d
000001e0: ea94 a73d 4687 50bc 2c06 8e3d 765d 593d
000001f0: c8ad 1c3d f43b 8b3d 8d49 9bbc 084f a83d
00000200: a734 fdb8 4b2a b4bc 0221 c83d 18f3 b2bd
00000210: df9a 90bd 8de2 2b3d 121e f93c 69e7 63bd
00000220: 11a7 87bd 3978 4a3d 8252 89bd 47a2 9d3d
00000230: 0132 7d3d 78db c8bc 4c60 4fbc a239 603d
00000240: 030d ad3d 5d73 bd3c ef7c 263b 0206 0dbc
00000250: f992 c33d a2f5 dfbd eeb1 86bd 4a4f e53c
00000260: 6987 ac3d e5d9 d53d 3f14 a53d f252 a6bd
00000270: 5a61 8ebd 30d0 3bbc 2794 64bd 94c0 843d
00000280: d38e 4c3c 01e1 9bbd 9d13 c3bc 63d4 14bc
00000290: d220 353d b781 b4bc b02c 193d cd13 dd3d
000002a0: 1e65 a3bd b9ab 983d 76a6 753d b96a 923d
000002b0: 3296 eabd 4a91 d8bc eadf b33d fdfb c43d
000002c0: b86b 09bd 75d1 d3bc cf1b 1fbd aac9 b33c
000002d0: eb4d 83bc 6ca6 86bd 2db6 ce3b e7c0 4d3d
000002e0: 85df b03d f47b 183d fc6d d63c 0046 333d
000002f0: ea43 853d 5ee5 16be a1ff 013c 48c3 ccbb
00000300: 1fd5 c63c cc96 103d c89b 3e3b a957 eabc
00000310: 01df 9f3d 70e9 273d f9f9 a03d 641a c33d
00000320: 3b6a eb3c a641 9d3c 0a6e 413c 69a6 343d
00000330: c4de 1cbc 350f 8c3d ee22 74bd 20a6 2bbc
00000340: 0112 9c3d 15a6 9c3d 3c17 a1bd 9af2 a7bd
00000350: 5aa0 1b3d 0c12 15bd b5fb 323d 12e4 bc3d
00000360: f125 15bd c582 363d 49db 32bd 01d3 ad3d
00000370: e3d1 65bc fd3d bbbd 1345 2cbd 6020 a6bb
00000380: 0398 b2bd a201 153d 34ff d1bd 638a d9bd
00000390: 1217 823d 7aa1 103d d14a acbd e029 c9bc
000003a0: dc6d 6dbd e159 233d 6bda 60bd 7a12 6cbd
000003b0: 09ab 443d 0a2b c1bd e581 31bd e000 823d
000003c0: 3c6f cabd 7eb6 c7bc 78b7 763d b98c a5bc
000003d0: 87d4 583d 7e17 1d3d 5277 6fbd ce4f a3bb
000003e0: a431 073c a0f6 5b3d 635c dcbd b9e3 563d
000003f0: 1813 113c 7bfd 26bc cbd4 82bd bf55 54bc

seq.6.bias f4 [50]
0.0981794 0.06361968 0.07477523 0.18340929 -0.08401332 -0.037977636 0.20353074 -0.082692936
-0.058686953 -0.035776034 0.0669538 -0.019825324 0.10529501 -0.03707479 -0.04384373 0.056075137
-0.037940197 0.059711274 0.07029491 0.0036712086 0.034613654 0.1410126 -0.055435885 -0.016600344
0.14598982 0.15985388 0.006927577 0.081376135 -0.07575525 -0.0408338 0.024495475 0.07063598
-0.047637034 0.13822158 -0.083891265 -0.0813251 0.15202545 0.056351442 -0.04699427 0.04844777
0.2161794 0.0060720947 -0.08525117 -0.025526866 0.13412271 0.16314085 0.1691646 0.17443152
0.03998192 0.05675656
00000000: 4812 c93d 094b 823d c123 993d a5cf 3b3e
00000010: 2d0f acbd 708e 1bbd 5d6a 503e ea5a a9bd
00000020: bb61 70bd e489 12bd 131f 893d b868 a2bc
00000030: e9a4 d73d bcdb 17bd 7c95 33bd 0baf 653d
00000040: 2e67 1bbd cf93 743d c7f6 8f3d a998 703b
00000050: 0cc7 0d3d 9b65 103e bd10 63bd 72fd 87bc
00000060: 5b7e 153e bcb0 233e ba00 e33b 88a8 a63d
00000070: 9225 9bbd 5841 27bd bcaa c83c 99a9 903d
00000080: 0d1f 43bd f589 0d3e 2fcf abbd c68d a6bd
00000090: 8fac 1b3e c5d0 663d 107d 40bd 2b71 463d
000000a0: 225e 5d3e 6cf8 c63b 2a98 aebd b81d d1bc
000000b0: 7757 093e 650e 273e 7c39 2d3e 2d9e 323e
000000c0: 15c4 233d 9179 683d

seq.8.weight f4 [20, 50]
-0.12999348 0.039866164 0.040499784 0.013168135 -0.065297425 -0.07790818 -0.17866583 -0.1308188
0.07150874 0.018567309 0.12002278 -0.13499345 0.06951749 -0.066893786 -0.049205083 0.07051297
0.10375064 -0.037018508 -0.087411456 -0.11011047 0.10194825 0.042345017 0.045172274 -0.12140863
0.11777173 0.033839166 -0.062021144 0.011367752 -0.045376055 0.117769815 0.01098488 -0.0806789
0.077166066 0.071154915 0.06555089 0.13845192 0.060690045 -0.081165954 -0.038730394 0.0041059284
-0.022821877 0.111001566 0.10334103 0.022494385 -0.1448535 -0.13200596 -0.1617454 -0.116174385
0.08692834 -0.039157182 0.033552803 -0.06284189 -0.015730165 -0.08750767 0.054146126 0.08527638
0.1530609 0.0052331686 0.033077814 -0.042334773 0.07522812 -0.062098112 0.12777483 -0.078289546
-0.08611503 0.13022682 -0.041107867 -0.15782715 -0.022020182 0.11667023 -0.11139618 0.020939983
-0.063134365 0.080981195 -0.14024468 -0.016535481 -0.07785876 -0.13512269 0.13433172 0.092891805
-0.11234793 -0.13387848 0.083206415 -0.025826845 0.0945829 -0.13493161 -0.061143838 0.030323222
-0.13280573 0.06083214 0.0053780056 0.03637978 0.0744373 0.043985646 0.10548083 0.0026804702
-0.07256659 0.057545703 0.062003076 0.10772731 0.15843752 -0.006073338 0.048705954 0.0958252
-0.0761357 0.036072016 0.18569139 0.10854151 0.09462343 -0.104142115 0.017844545 0.08692246
0.07351003 -0.07610159 -0.084720805 0.0129815 0.09440687 0.16644873 0.033531107 -0.06913159
-0.10162893 0.042244524 -0.11750471 -0.05756354 -0.021615209 0.11116196 0.12308113 0.0018001354
-0.031114325 -0.10943107 0.10110581 -0.12456208 -0.06824035 0.117440455 0.08749577 0.10309865
0.06519853 -0.1245691 -0.07611578 -0.0006149745 0.18532822 -0.07570767 0.03862945 0.13874803
0.15629545 0.053936455 -0.04751557 0.0590779 -0.11664564 0.11515221 -0.014371082 0.027515426
0.037988216 -0.0054850727 -0.053549074 -0.054100268 -0.096180394 -0.06884432 -0.08781935 0.06650147
0.065990314 0.022832707 0.062305734 -0.019590363 -0.11166768 -0.11132328 0.058786258 -0.12945193
0.06077206 0.014143258 0.09262706 -0.03935653 0.025234312 0.11940627 -0.09763518 -0.03838396
-0.03981404 0.12943779 0.11509968 -0.04547581 0.009612545 0.11846565 0.097571865 -0.043392695
0.090714365 -0.02109772 -0.04259234 -0.023983061 0.053130254 0.10061392 -0.13752578 -0.13069688
0.08519353 0.03351645 0.1303358 -0.1384709 0.024697438 -0.05453553 -0.08857341 -0.13652179
0.10704927 -0.08428382 0.08613771 -0.07945353 0.13597141 0.01501438 -0.10782939 -0.019670747
-0.059545748 -0.14018863 0.11898844 0.10658747 -0.0010702908 0.061924785 -0.1321578 0.00087955594
-0.0020830482 -0.08677563 -0.1314491 0.08380987 -0.13987653 0.050341636 0.10178895 0.022436231
-0.109586075 0.047339067 0.035954267 0.0948111 -0.02598738 -0.078527115 -0.12843545 -0.117131
0.061526835 -0.010435015 -0.09134649 0.032795876 -0.088820025 -0.10987058 -0.103550255 0.054053545
-0.048005417 0.03623621 -0.010075122 0.13652293 -0.05329191 -0.031695254 -0.07788148 0.0897242
0.13470192 -0.0424902 -0.041424956 -0.094231434 0.048059788 0.11513347 -0.094998196 0.01946643
00000000: 031d 05be b44a 233d 1ae3 253d 29bf 573c
00000010: a8ba 85bd 538e 9fbd 2df4 36be 5df5 05be
00000020: 2d73 923d 781a 983c 81ce f53d b93b 0abe
00000030: 305f 8e3d 9cff 88bd 458b 49bd 1b69 903d
00000040: 377b d43d b8a0 17bd c704 b3bd 9981 e1bd
00000050: 3eca d03d f871 2d3d 9006 393d 16a5 f8bd
00000060: 4e32 f13d f09a 0a3d e209 7ebd cf3f 3a3c
00000070: 3edc 39bd 4d31 f13d edf9 333c fb3a a5bd
00000080: 3e09 9e3d abb9 913d 8c3f 863d 57c6 0d3e
00000090: 2096 783d 563a a6bd c3a3 1ebd 068b 863b
000000a0: f2f4 babc ca54 e33d 76a4 d33d 2546 b83c
000000b0: 7a54 14be 922c 07be 96a0 25be d6ec edbd
000000c0: 7c07 b23d 4863 20bd aa6e 093d 40b3 80bd
000000d0: 8cdc 80bc 3937 b3bd 54c8 5d3d 62a5 ae3d
000000e0: ffbb 1c3e 007b ab3b 9a7c 073d 3a67 2dbd
000000f0: 3311 9a3d 975a 7ebd 68d7 023e 4556 a0bd
00000100: 145d b0bd 2e5a 053e b960 28bd 719d 21be
00000110: ab63 b4bc cdf0 ee3d ae23 e4bd 548a ab3c
00000120: 974c 81bd 78d9 a53d 4d9c 0fbe 6b75 87bc
00000130: 6a74 9fbd 9a5d 0abe 418e 093e 0f3e be3d
00000140: ac16 e6bd 7117 09be 2068 aa3d d292 d3bc
00000150: aeb4 c13d 832b 0abe f671 7abd 6868 f83c
00000160: 3afe 07be 1f2b 793d fb39 b03b f702 153d
00000170: 9572 983d 4b2a 343d 5506 d83d d4aa 2f3b
00000180: cb9d 94bd 0bb5 6b3d f0f6 7d3d 23a0 dc3d
00000190: 723d 223e da02 c7bb e57f 473d 0140 c43d
000001a0: 09ed 9bbd 40c0 133d e225 3e3e 034b de3d
000001b0: eec9 c13d 7648 d5bd b92e 923c 6704 b23d
000001c0: 6d8c 963d 27db 9bbd 1a82 adbd 5bb0 543c
000001d0: 6458 c13d 8971 2a3e ea57 093d dd94 8dbd
000001e0: d422 d0bd 9808 2d3d 4fa6 f0bd bfc7 6bbd
000001f0: 6112 b1bc e2a8 e33d f611 fc3d 85f2 eb3a
00000200: 78e3 febc 661d e0bd 9010 cf3d 671a ffbd
00000210: 99c1 8bbd 9f84 f03d fb30 b33d 6325 d33d
00000220: cf86 853d 161e ffbd 97e2 9bbd 3d36 21ba
00000230: aec6 3d3e 9f0c 9bbd ea39 1e3d f713 0e3e
00000240: ea0b 203e 79ec 5c3d b09f 42bd abfb 713d
00000250: e9e3 eebd ecd4 eb3d b074 6bbc 0868 e13c
00000260: 8899 1b3d 20bc b3bb 4656 5bbd 3e98 5dbd
00000270: 3afa c4bd 40fe 8cbd a2da b3bd ec31 883d
00000280: ee25 873d a80b bb3c 4c34 7f3d f87b a0bc
00000290: 06b2 e4bd 76fd e3bd dcc9 703d 0c8f 04be
000002a0: 20ec 783d 20b9 673c 42b3 bd3d 5034 21bd
000002b0: 30b8 ce3c 468b f43d f4f4 c7bd 8038 1dbd
000002c0: 0c14 23bd 578b 043e 62b9 eb3d d844 3abd
000002d0: f07d 1d3c 1e9e f23d c2d3 c73d 8abc 31bd
000002e0: 74c8 b93d 20d5 acbc 4e75 2ebd 2078 c4bc
000002f0: 1c9f 593d ac0e ce3d 8fd3 0cbe 67d5 05be
00000300: f279 ae3d 8c48 093d bf76 053e 51cb 0dbe
00000310: 4852 ca3c a660 5fbd fa65 b5bd 5ecc 0bbe
00000320: a63c db3d ff9c acbd f868 b03d 88b8 a2bd
00000330: 173c 0b3e e0fe 753c a8d5 dcbd 8c24 a1bc
00000340: 3ee6 73bd 9c8d 0fbe 36b0 f33d 884a da3d
00000350: 0049 8cba d8a4 7d3d 6054 07be 0092 663a
00000360: c083 08bb 6cb7 b1bd 989a 06be 82a4 ab3d
00000370: cb3b 0fbe 0833 4e3d ba76 d03d 30cc b73c
00000380: aa6e e0bd 9ce6 413d c844 133d 522c c23d
00000390: 7ce3 d4bc d3d2 a0bd 9584 03be 61e2 efbd
000003a0: 9003 7c3d a0f7 2abc de13 bbbd f854 063d
000003b0: 46e7 b5bd d403 e1bd 2812 d4bd 4067 5d3d
000003c0: 54a1 44bd 6c6c 143d 2012 25bc abcc 0b3e
000003d0: 9e48 5abd e2d2 01bd 5380 9fbd 52c1 b73d
000003e0: 4def 093e 340a 2ebd 37ad 29bd 69fc c0bd
000003f0: 57da 443d 19cb eb3d 6a8e c2bd 1078 9f3c

seq.8.bias f4 [20]
-0.13097946 0.19185965 0.1614578 -0.06867966 -0.072379306 -0.089390166 -0.050703064 0.10077781
0.081713706 0.25653353 -0.037998974 0.09498503 0.0053495304 0.206208 -0.04637423 0.0824001
0.09484608 0.2809429 -0.09456589 0.009903503
00000000: 7b1f 06be db76 443e 3255 253e eca7 8cbd
00000010: 9a3b 94bd 3112 b7bd 04ae 4fbd 9964 ce3d
00000020: 8459 a73d 5d58 833e d0a4 1bbd 8387 c23d
00000030: 1d4b af3b 3128 533e e8f2 3dbd 62c1 a83d
00000040: a93e c23d bfd7 8f3e c3ab c1bd 4d42 223c

out.weight f4 [5, 20]
0.051052127 0.057048336 0.11976601 0.027865916 -0.05414614 -0.031397633 0.028972477 0.010685976
-0.081555516 -0.013884216 0.22046685 0.065454535 0.21362993 0.07953178 0.097945124 0.14430328
0.23077354 0.0217441 0.15634242 0.13591196 0.038991947 -0.08966109 0.12662467 0.2207439
0.006131172 -0.05393522 0.0011535138 -0.14619555 -0.03309753 -0.13040124 -0.06644718 0.15694226
0.24585238 0.039741985 0.088115364 -0.19936894 0.05316594 0.0019012673 -0.10901705 -0.013612702
-0.20446181 0.19200778 0.13237035 -0.03374462 -0.21566448 0.2634533 -0.1421381 -0.046768222
0.19513933 0.15695576 -0.07599074 0.14004017 -0.08722652 0.1390483 0.093669355 -0.18021007
0.18562075 -0.004542442 -0.03261208 -0.1718732 0.21558532 -0.020770168 0.2021831 -0.10173425
-0.016843587 -0.045288105 0.16609952 0.091748446 -0.048294097 0.08345626 -0.18320799 0.2397765
-0.05106833 0.15454817 0.2161487 -0.023147384 0.2068554 0.004864721 0.21359146 0.08275349
-0.035079207 -0.19031213 0.056452572 -0.0002040565 -0.051172763 0.024016041 0.040079772 -0.064912535
0.049743596 0.12822959 0.22198921 0.17706606 0.16977748 0.031729218 0.14462641 0.13178141
-0.053245388 0.19311322 0.03616592 0.0790458
00000000: 091c 513d 84ab 693d e247 f53d 1047 e43c
00000010: 58c8 5dbd ce9a 00bd b057 ed3c 3b14 2f3c
00000020: 9406 a7bd 9f7a 63bc 10c2 613e 070d 863d
00000030: cec1 5a3e 8fe1 a23d 7497 c83d 3dc4 133e
00000040: e64f 6c3e af20 b23c 3a18 203e 812c 0b3e
00000050: 05b6 1f3d 3ca0 b7bd e6a9 013e b00a 623e
00000060: 00e8 c83b 2deb 5cbd 8031 973a 49b4 15be
00000070: 4791 07bd e787 05be 7615 88bd 79b5 203e
00000080: bac0 7b3e 7ec8 223d d475 b43d 5f27 4cbe
00000090: 87c4 593d f233 f93a 5544 dfbd cf07 5fbc
000000a0: 705e 51be b09d 443e 188c 073e cc37 0abd
000000b0: 26d7 5cbe 5ae3 863e a68c 11be 0990 3fbd
000000c0: 9bd2 473e 03b9 203e 08a1 9bbd b166 0f3e
000000d0: d1a3 b2bd ad62 0e3e b8d5 bf3d fd88 38be
000000e0: 5e13 3e3e c4d8 94bb 3f94 05bd 87ff 2fbe
000000f0: 66c2 5c3e 3326 aabc 1609 4f3e 0c5a d0bd
00000100: 90fb 89bc 0580 39bd fe15 2a3e 9ce6 bb3d
00000110: 08d0 45bd 1eeb aa3d e09a 3bbe f987 753e
00000120: 062d 51bd e041 1e3e 1656 5d3e 959f bdbc
00000130: e7d1 533e 3d68 9f3b b8b7 5a3e a97a a93d
00000140: 37af 0fbd 2fe1 42be d03a 673d 00f8 55b9
00000150: 889a 51bd 4abd c43c b02a 243d ddf0 84bd
00000160: f1bf 4b3d 9e4e 033e 2451 633e ce50 353e
00000170: 26da 2d3e 7ff6 013d f218 143e b5f1 063e
00000180: d617 5abd 79bf 453e b722 143d c4e2 a13d

out.bias f4 [5]
0.043621648 -0.2548632 -0.19752273 0.014050406 -0.0027935144
00000000: 9dac 323d 6e7d 82be 6643 4abe ad33 663c
00000010: 6513 37bb
