submission/checkpoint_PER_Noisy.pth (torch, 723363 bytes, 22 tensors)

seq.0.weight f4 [265, 510]
00000000: badd 11be fd24 6ebe 8430 8a3d ec7a 05bd
00000010: fd0a 463c ac30 e43a 535a 10bf 98dd 223e
00000020: 50c4 80bb e9d0 683d aeeb 96be c839 84be
00000030: 50c9 9d3d ce3d f0bc db6b 463c 3a8a 913d
00000040: ae24 d7be 8a78 c73d f3eb f5bc bdd5 ea3c
00000050: cf6b 3ebc 30f0 d3be d447 0f3e 68b9 073d
00000060: 91e6 8cbb c71f 353f 0dd7 16bd 0e90 eabd
00000070: 115d e4bc be60 c33d 5053 b03e c0e5 fabe
00000080: 9e59 d23d 1afc a6bc dad5 b8bd eb1e aa3e
00000090: fc4f e43a 1ac7 01bd 60dd a13c ffe1 f23d
000000a0: b36a bc3d d6e2 09be 79df 233e 0f59 29bd
000000b0: c0ab e7bd 47a6 5c3d f833 96be d22c e63d
000000c0: 7be0 a0bc 9dd1 963d a360 88be 4f3e e0be
000000d0: 2827 1d3e c004 c43b 023b 153d a2bb 0a3e
000000e0: f428 6cbe 04b0 143d 606a fbbc 7822 dc3c
000000f0: 3508 d2bc c49d 10bd ab06 b83d 6c2d 5b3c
00000100: 7c2f 343d e289 393f 270c 813d 3f4b 9ebd
00000110: 500a e13c a4fc 603d e6a9 563d c938 533e
00000120: 61fa b63d fa46 163d 096b 2c3d 15a4 163f
00000130: 5ad4 4fbd 8796 14be f87a 853b 3e0a 073d
00000140: 8a38 b1be 2c68 ef3c f8f6 fa3d f2ec 34bd
00000150: 3edb a13d ed34 1ebc 9ad7 753d 77db 21bd
00000160: 367f 8b3c 3cb4 ac3d 5dc6 90be 91cf 5e3e
00000170: 4ab2 193e aea2 873c b967 f6bc ec42 2ebe
00000180: 6bcd b6bc 5fe9 0b3c a67c 0dbd 8dc2 b93d
00000190: dd01 a7be a734 2e3d 11b3 af3d a498 36bc
000001a0: 29aa 32bc 7c64 cebe ff59 33be 9882 6cbc
000001b0: f0e5 1fbb 52f1 e63d c401 59be 9079 7e3d
000001c0: e656 a4bb c292 243d 2449 8f3d bb37 8cbe
000001d0: c750 b1be 5203 67bd 80b3 d33b eff4 133e
000001e0: bd26 763a e906 cb3d 8aa8 7ebd f8a5 ab3c
000001f0: bac0 ddbd adea 84be b2f0 81be a775 e4bc
00000200: 78cd 7dbc c4d2 653d 289c 41bf 1705 063f
00000210: a5d5 c7bd 90ed 14bb a3e5 8bbb dec6 afbe
00000220: fe70 00bf 3d95 a23c acd3 123c 6bc6 9a3d
00000230: cfd5 f8be 64a5 a43e 4897 e13c 50e0 51bb
00000240: 6566 8ebd baea 713e 5d40 ccbd 521f 07be
00000250: 714d b4bc 4362 7d3c 6914 0fbe 4dd5 9c3e
00000260: c3e3 b73a e0ee c63c 8df1 d7bc b848 1d3d
00000270: c86d 8dbd 53c7 3abd 9460 19bc f07b e7bc
00000280: b7bf 1abf f270 893e d6e3 9e3c ea9a 1cbd
00000290: bcd3 14bd 9c25 b43d e2eb adbd d149 393d
000002a0: 443f 23bd 49f8 97bc 3ea6 dcbc 6f82 183e
000002b0: ac74 363d da5e 833c ed7d 97bd 1c33 1b3d
000002c0: e941 56be 60b3 60bd 4809 113d deac 13bc
000002d0: 96f9 40bb 093b 883e 88c9 13be a884 4a3c
000002e0: 2574 bb3c 3f47 bc3d 3bf4 723d 2fec 9e3c
000002f0: 8677 15bd 4838 e03b 8bee 443e e721 d93e
00000300: 90dc 77be a06d 013b 6c43 b1bd c6e4 fcbd
00000310: 89ad 30be 092f 5e3d 8e2a d8bc 270a dabc
00000320: 285f 0f3d 02ec 2b3e 8e7a 0ebc e607 f9bc
00000330: 1107 51bd a51c debe f346 3d3d b4a9 e63c
00000340: 202c 833c d42c d5bb fe5e 86ba 02c3 c23e
00000350: 4d30 97bc c0a9 25bc 2912 19bd 9853 363e
00000360: c609 1bbe 8ad9 6cbd 4875 123d 2b66 3fbd
00000370: 684b de3d 90dd 013f 5950 28be 0054 a43a
00000380: 2cbf 74bd 0182 223e f355 d4bd 553e e63d
00000390: 6a6a 73bc 7f6b c6bd 170d c73d 37c0 a83e
000003a0: 0428 17bd 9074 223d c015 9dbc 762a fa3e
000003b0: 2674 463d 0975 7fbc debd 99bc 7bf9 b8bd
000003c0: 0350 6e3c 908f 0f3f e8fa 03be 00aa 9438
000003d0: 35c8 89bd 8c79 413d 67f6 213e 4b87 0bbe
000003e0: 80fc 1f3a 8334 82bc 329d 24be 1a69 113f
000003f0: 92dc 30be 9c13 54bc 7582 dcbd fc6e 4e3d
-0.14244738 -0.23256297 0.06747535 -0.03258793 0.012087581 0.0017409525 -0.56387824 0.15904844
-0.0039296523 0.056839857 -0.29476684 -0.25825334 0.07704413 -0.029326346 0.012110676 0.07106443
-0.42020172 0.09739788 -0.030019736 0.028666371 -0.011622383 -0.41394186 0.13992244 0.0331358
-0.0042999466 0.70751613 -0.036826182 -0.114532575 -0.027876409 0.095399365 0.34438562 -0.4900341
0.10270999 -0.020383883 -0.09025164 0.33226714 0.0017418857 -0.03168402 0.01975888 0.118595116
0.09200039 -0.13465437 0.16003217 -0.0413447 -0.113120556 0.053869512 -0.29336524 0.112390175
-0.01963829 0.07364199 -0.26636228 -0.43797538 0.15346968 0.0059820116 0.036433227 0.13548139
-0.23062497 0.036300674 -0.030690372 0.026871905 -0.025638679 -0.035306707 0.08985647 0.013377529
0.043990597 0.7247602 0.06301146 -0.07729196 0.027470738 0.054928437 0.05240812 0.2062713
0.08934475 0.036688782 0.042094264 0.5884412 -0.050739624 -0.14510547 0.004073497 0.032968752
-0.34613448 0.029224478 0.12254137 -0.04417128 0.07903145 -0.009656173 0.060020067 -0.03951594
0.017028432 0.084328145 -0.2827634 0.21758868 0.15009418 0.016557064 -0.030078756 -0.17017716
-0.022314748 0.008539527 -0.034542702 0.09070311 -0.3261861 0.042530682 0.08579076 -0.011144791
-0.010904827 -0.40311038 -0.175148 -0.014435433 -0.0024398528 0.11276497 -0.2119208 0.06212765
-0.005015242 0.04017902 0.06996372 -0.2738627 -0.3463194 -0.05639965 0.006460607 0.14448904
0.0009389928 0.099134274 -0.06217245 0.020953164 -0.10827775 -0.25960293 -0.25378948 -0.027888132
-0.015490882 0.056109205 -0.756289 0.52351516 -0.09757546 -0.0022724606 -0.004269318 -0.3433141
-0.5017241 0.019846553 0.008961599 0.075573765 -0.48600623 0.32157433 0.027537957 -0.003202457
-0.06953124 0.23624697 -0.09973214 -0.13195542 -0.022009583 0.015465322 -0.1397263 0.30631486
0.001402967 0.024283826 -0.026360298 0.038399428 -0.06905705 -0.045600247 -0.009361405 -0.02825734
-0.60448784 0.26843983 0.01939575 -0.038233675 -0.036334738 0.08796236 -0.08492257 0.045236412
-0.039855257 -0.018551009 -0.02693474 0.14893506 0.04454486 0.01603644 -0.07397065 0.03789054
-0.2092358 -0.054858565 0.035409242 -0.009013383 -0.002944564 0.2660754 -0.14432347 0.012360729
0.02288253 0.091932766 0.059314948 0.01939973 -0.03649094 0.0068426467 0.19231622 0.42408678
-0.24205232 0.001974918 -0.08655438 -0.123483226 -0.17253698 0.054244075 -0.02638748 -0.02661617
0.035002857 0.16789249 -0.0086962115 -0.030399274 -0.05103213 -0.4338123 0.04621024 0.028157093
0.016012251 -0.006505588 -0.0010251699 0.38039404 -0.018455649 -0.010111272 -0.037370834 0.17805326
-0.15140447 -0.05782465 0.03575638 -0.046728294 0.10854226 0.507287 -0.164369 0.0012537241
-0.05975263 0.15869905 -0.10367956 0.11242358 -0.014856914 -0.09688472 0.097192936 0.32959148
-0.036903396 0.039661944 -0.01917541 0.4886052 0.04845061 -0.015591868 -0.018767294 -0.090319596
0.0145454435 0.56078434 -0.12888682 7.088855e-05 -0.067276396 0.047235057 0.15816651 -0.13625829
0.0006102994 -0.01589418 -0.1607559 0.56801 -0.17271641 -0.012944128 -0.1076707 0.05039881

seq.0.bias f4 [265]
00000000: 7072 18bc 7454 13bd e6d9 8fbd 8fc4 7cbd
00000010: c0cb 40bd 27dc 30bd 7589 a7bb ca6d 6dbd
00000020: 06e3 9bbd e7e1 abbd 082e 66bd 9986 b3bd
00000030: e2b3 b4bc f5ef 3bbd 201f 06bd 1bb3 8cbd
00000040: 9648 69bd 2992 fabc b6e1 85bd 076c 9c3a
00000050: cd45 dfbb 1e8a 88bd ba49 52bd afda 4bbd
00000060: 3738 7abd feba 61bd 35e0 193d e00c f6bc
00000070: ed4f 0fbc 0fd1 65bd 22c2 0e3d 9950 d2bd
00000080: 5acd 5dbb 95c0 8fbd ecf4 913c fd3a 41bc
00000090: d919 5f3b 6cef b83c 4c3d a6bd 10b4 c5bd
000000a0: db61 35bc 1723 c93c e792 55bd 55d1 75bd
000000b0: 9ea4 03bd 5c58 93bc 7fbc 93bd 7548 50bd
000000c0: c822 8e3b c6c7 61bd a22a 62bd 32d2 b13d
000000d0: 241c b9bd c2c6 0abd d292 1cbd 35bb 6abd
000000e0: 1edd 10bc d58a 07bd 8e7a 14bd af25 dbbc
000000f0: bc1f 86bd 4433 73bd d169 c1bd 7d52 e8bc
00000100: 23fc 303c ec85 68bd aa65 09bd f609 c1bc
00000110: c910 27bd 9e9b c3b9 987c 24bb 15bf 67bd
00000120: 3db2 a1bd 384f 11bd 351c 80bc 0872 5dbc
00000130: 32d2 9b3b 8853 1abd 2a26 c2bc fdbc d2bd
00000140: 12f6 08bd 2c93 e0bb ee6e c2bb 786d 52bd
00000150: b831 3dbd 1d54 5b3d 8439 2dbd 2209 1bbd
00000160: 5330 953c 9ea4 28bd 11b3 13bd 8d08 c3bc
00000170: 0d75 64bc 22a5 d0bc 1bac 63bd 3cce 1d3b
00000180: 8166 e4bc 9462 a3bb 0185 6e39 94b5 19bd
00000190: d153 28bd 72bb a7bc 34a1 cb3a 49de 85bd
000001a0: 5433 53bc 7a9b 17bb 85ce 5fbd 6fcf bfbc
000001b0: 88fc 6bbd 58d6 213d da03 b8bd 0fdf 16bd
000001c0: f526 0dbc 3bec bb3c ef2a 8ebd 195a 5dbd
000001d0: 18eb 2cbd 4972 19bd e79c 62bc d6ab 313c
000001e0: 6f0d c7bd fbe4 ebbd 95a0 92bd 63f3 fa3b
000001f0: 3814 94bd 8b2c f4bc 2497 3dbd 26ef 26bd
00000200: 8306 d63c 8fc6 3cbd b0ed 60bd 7115 59bd
00000210: ad65 5fbd 648f 6abd c0ca d4bc 46ef e3bc
00000220: 2ffd 253d 9a38 b4bc 939c a9bd 2ebe 803c
00000230: b77e a1bc 42de 51bd cecf d5bb c0b0 e83c
00000240: 5ce5 58bd 93ac 86bc 2e23 863d 3ad3 d7bc
00000250: 9542 f73c 79ed c1bb 8502 88bd 424f cbbc
00000260: 0cc7 ca3c 545e c0bc 5127 bbbc 20f8 79bd
00000270: 72a9 78bd 0a27 4cbd d537 fbbd c030 85bd
00000280: bc05 f03b fc6e 9f3b 7391 ebbc caa9 63bd
00000290: bd70 b1bc 96a4 19bd 31a0 7ebd a2c7 fbbc
000002a0: 0ba8 c7bc 0d1d 5cbd b70e 863c e9a6 913b
000002b0: 88a9 e8ba 872b a4bd b29b 69bd c8de c83d
000002c0: 8547 42bd 9b6a 6b3c 8026 83bd 3149 02bd
000002d0: b3a1 01bd 9e35 5cbd a3d8 6abd 9abb 8eba
000002e0: 9149 53bd 1ba5 c9bd c4e2 413d 2654 d03b
000002f0: f758 fe3a 9f7d 34bd 74dd 57bd d15a 03bd
00000300: e516 54bd 8780 88bd f049 48bd b939 b13b
00000310: 8df7 6ebd af0a f7bc d754 5cbd d577 50bd
00000320: 88d5 ba3c 179a 863b cbaf c23b 6056 c3bc
00000330: 8b3a f2bc 17e5 41bd 56e2 bf3c 5d4d d6bc
00000340: 5664 40bc f37e acbc 56f0 243c 7c87 cbbd
00000350: cede e5bc 0393 87bd 85d3 19bd 676d 65bd
00000360: d60c f7bc c47a 00bc 0eda 04bd 6ce0 afbd
00000370: e9ba f0bc 1b5a a6bc e4fd 443b acf9 a3bc
00000380: 0d21 00bd b114 c0bd 7004 00bd aac4 923a
00000390: f3f3 18bd b13d d5bd 549c d83b beef f63a
000003a0: 0ea5 87bc 1bd7 7cbd b36e 653d 4481 ffbc
000003b0: 0dd1 413c 0385 73bd 3a8f 4fbb 9166 90bc
000003c0: aab9 84b8 c193 d6bd dd62 2ebd eb36 fb3c
000003d0: 902d 61bd 0f7d 94bd b451 963b 1405 9fbd
000003e0: d932 32bd f9cd bdbd 616c 2d3d 6c56 7dbd
000003f0: 8df6 313c 5729 13bd 28cc 73bd fcbf 7bbc
-0.009304628 -0.035969213 -0.07023983 -0.06171089 -0.04706931 -0.043178704 -0.0051128217 -0.05796603
-0.07611661 -0.08392697 -0.056196243 -0.08765907 -0.022058431 -0.045883138 -0.032744527 -0.06870099
-0.05695399 -0.030587273 -0.065371916 0.001193405 -0.006813741 -0.06666969 -0.051339842 -0.0497691
-0.061088767 -0.05510997 0.037567336 -0.030035436 -0.008747083 -0.056107577 0.03485311 -0.10269279
-0.0033844323 -0.07019154 0.017816983 -0.011793849 0.0034042506 0.022575103 -0.0811716 -0.09653485
-0.011070694 0.024552865 -0.05214205 -0.060014088 -0.032139413 -0.017986469 -0.07213687 -0.05085035
0.0043376423 -0.05512216 -0.05521644 0.0868267 -0.090385705 -0.033880956 -0.038225956 -0.05730744
-0.008841781 -0.033091385 -0.03624969 -0.026751367 -0.065490216 -0.059375063 -0.09444011 -0.028359646
0.010802302 -0.056768343 -0.03354422 -0.02356432 -0.040787492 -0.00037309242 -0.0025098678 -0.056578714
-0.078953244 -0.03547594 -0.01563845 -0.013515957 0.004755282 -0.037677318 -0.023699839 -0.10289953
-0.033437796 -0.0068534818 -0.005933634 -0.05137393 -0.046189994 0.053547014 -0.04229118 -0.037850507
0.01821152 -0.041172616 -0.036059443 -0.023807788 -0.013943923 -0.025469366 -0.055584054 0.0024079224
-0.027880909 -0.0049861167 0.00022746997 -0.037526682 -0.04109556 -0.020475123 0.0015535713 -0.06536538
-0.012890656 -0.0023133443 -0.05464031 -0.023414342 -0.05761388 0.039511055 -0.089851096 -0.03683382
-0.008615245 0.022939792 -0.06941783 -0.054041002 -0.04221639 -0.037462506 -0.013831354 0.010844192
-0.09719359 -0.11518284 -0.07159535 0.0076584085 -0.07230419 -0.029806396 -0.046286717 -0.040755413
0.026126152 -0.046087798 -0.054914176 -0.052998964 -0.054540325 -0.057265654 -0.025975585 -0.027824055
0.040524658 -0.021999646 -0.08281817 0.015715685 -0.019713743 -0.051237352 -0.0065250164 0.028404593
-0.05295311 -0.016439712 0.06549679 -0.026345838 0.030183116 -0.0059182015 -0.066411056 -0.024818067
0.024753116 -0.02348248 -0.022845896 -0.061027646 -0.06070847 -0.049841918 -0.122665085 -0.06503439
0.0073249023 0.0048655253 -0.028755879 -0.055581845 -0.021660203 -0.037510477 -0.06216449 -0.03073484
-0.024372121 -0.053738642 0.016364438 0.004444946 -0.001775072 -0.08016115 -0.05703325 0.09808117
-0.047431488 0.014368678 -0.06403828 -0.031808082 -0.03164835 -0.05376207 -0.057335507 -0.001088965
-0.05158383 -0.098459445 0.0473354 0.0063576875 0.0019405176 -0.044065114 -0.05270143 -0.03206903
-0.051779646 -0.0666514 -0.048898637 0.0054084924 -0.05834155 -0.030156462 -0.053791847 -0.05089553
0.022806898 0.0041077244 0.0059413663 -0.023844898 -0.029568931 -0.047337618 0.023423355 -0.026159937
-0.011742672 -0.021056628 0.010067066 -0.09937951 -0.028060343 -0.06619837 -0.037555236 -0.056012537
-0.030157488 -0.00784177 -0.032434516 -0.08587727 -0.029386 -0.020306638 0.0030058557 -0.020016514
-0.03128152 -0.093789466 -0.031254232 0.0011197526 -0.037342023 -0.10412157 0.0066104326 0.0018839759
-0.016558196 -0.061728578 0.056013774 -0.031189568 0.011829627 -0.05945302 -0.0031671063 -0.017627032
-6.328833e-05 -0.104774006 -0.042574752 0.030665835 -0.054975092 -0.072504155 0.0045873765 -0.077646405
-0.043505523 -0.09267802 0.042339686 -0.061849996 0.010862005 -0.035928097 -0.05952087 -0.015365597

seq.2.weight f4 [100, 265]
00000000: 7dea d6bd 2e36 78bd ca96 efbc 8d3e de3c
00000010: 53c4 44be 80ff 15bc 192c 4cbe b7a4 88bc
00000020: 4924 353d 8168 c8bd 69c1 22bd 9bef 56bd
00000030: c3b0 af3d 8996 a6be feb9 8fbd 2849 023e
00000040: 567d 42be f55f bcbd 2a5f c8bd 0ff1 6abd
00000050: f111 88bc ccc1 56bc 6644 913e 0868 f1bd
00000060: 6fda 373d 16bb fa3c 8378 0e3e 0a9d efba
00000070: f89d eabc 30d8 743b d0d9 19be 6e1b e33a
00000080: 090d 403e e02f 173c 678a a43e 44a3 0dbe
00000090: 22b2 723d 2db9 52bd 6bcf f6bd 91a5 56bd
000000a0: 8f27 593c e46d 3ebb 3855 1cbe 4712 973c
000000b0: 6dae 32bd d618 adbe 943d 103e 2dd3 88bd
000000c0: 3b51 d9bc 444b 94bd dd40 10bd dc6c da3d
000000d0: c8bd 79bc 9a36 f8bb 712e e53c a2c6 823e
000000e0: 18f4 42bd 56a8 81bd 5f64 9dbe c89f 4abc
000000f0: 193a 203d 7f0f 273d d548 313d f77b 7bbd
00000100: 01b2 88be 2a61 753e c197 8fbe f5fb f03c
00000110: 6401 1b3d 0720 76bc e314 21be 5fa1 8fbe
00000120: 0224 703e 8af6 8ebe 7a41 02bd f467 3c3e
00000130: 8fc5 8bbe ec1c 99bc f467 3dbd ca94 c63d
00000140: 2284 babc ff60 48be 7855 cdbd 4bc7 a6be
00000150: 8d6c 9d3c f5fe b6be 3210 1bbc d852 a8bc
00000160: 1c27 1f3e 253b 5fbd 7175 f9bd 10cd 8dbe
00000170: f3ba 353d 8d3f 8e3e 6dfe b03d b47a 5fbe
00000180: eaff 27be 3afc 053d 2841 1b3e b4b1 b03c
00000190: e27b e43d 6616 4fbc f8d5 67bd 9132 d6bc
000001a0: 1c8b 1b3d 5714 cfbb 5a7b 1b3d 58b9 953b
000001b0: 20e7 1dbe 9cca d93c 83af 6dbe 8f80 10bf
000001c0: dc73 b23c a8d9 91bd d5b8 dcba 30ca 523d
000001d0: a632 97bc b98c e73c a371 a93c 9309 193b
000001e0: 3a7e 70be f04a e93c 3451 07bd 4dd7 383a
000001f0: 4ec3 043d e2ca 333d a647 563c 868b 843d
00000200: 2591 a03b b3d8 d23d 7e2a 3f3c 6275 243d
00000210: 806a 053b ef93 75be fd55 23bc 2001 7d3d
00000220: c525 283d 6fb1 7b3e 9b13 26be 1ca7 55bd
00000230: 5897 6abd f659 87bd 1223 80be 17ef 57be
00000240: 46e6 6cbd 0377 24bd dc69 85bd 6de3 223c
00000250: 368f 29be 6c4f d7bc db32 153d 139c 7dbe
00000260: 3006 23be ffdd 423b 662b eabb 4ba9 95bd
00000270: e567 6e3d 6632 31be 51e6 25be c336 4fbc
00000280: 5a54 67bd 7a62 553d 488f a5be 08f3 85bd
00000290: 8175 36bc 9577 77bd 77ea 1cba a9be a53e
000002a0: 266b 053d 84cb fcbe 708e 53be ce88 02bd
000002b0: a1a4 b43d 4794 3abd b70c bbbc cb1f 78be
000002c0: 8bf4 43bd 2d57 6fbd 67d6 333d 56ad 053e
000002d0: 7fab 163e d602 04bc 6449 193d 7ce8 05bd
000002e0: 05f8 413d 923d b7bd 63d0 563c 7d42 533d
000002f0: 8167 8dbc 7d2c 623d 6004 f03c 2620 c4bd
00000300: ecf9 e6bc f5e5 1cbd 8d7e cfbe ace8 4c3c
00000310: cdd0 643e 8fb7 953d da9e 99be 0c2f 5fbd
00000320: 25d3 08bd c5e0 f83c 6179 d6bc fc28 3d3e
00000330: 609a 143e dad0 cebd 69d6 2b3c baef 2abd
00000340: 5ffb 02be f8e3 5ebd c24f 193e 3c6b 523e
00000350: 15c8 b63c 25e9 763e f9e9 3bbc d55a 34be
00000360: 076e 41bd 1bb5 73be c328 e6bb 444c 783e
00000370: fbb0 d8bc f0c8 7ebd 8019 66be b570 30bd
00000380: 8d26 933e 3687 90bd 0a2f 923c 08fa 5dbd
00000390: daea a9bc 6d2b 28be 1f95 df3c aa15 70be
000003a0: ff89 61be f2e1 293e fe91 8ebe 7493 42bb
000003b0: d9db e73c dd5c 853d f871 1abd 674e 48ba
000003c0: a743 9c3d 0046 523c 46cf 64be 376c 043e
000003d0: 6fe7 e23d 6fc9 6abd 5839 05bd 168d 2fbc
000003e0: 9d51 42bd fe61 bebd e804 9b3d 4bc0 8ebd
000003f0: 98f6 ff3b ffbc 10be 3c81 04be ddcf 313c
-0.10493944 -0.060598545 -0.029246707 0.027129436 -0.19215517 -0.009155154 -0.19938697 -0.016680105
0.044224057 -0.097855575 -0.03973523 -0.0524746 0.085786365 -0.32536724 -0.07017897 0.1272322
-0.18993124 -0.0919799 -0.09783776 -0.057358798 -0.016610118 -0.013107728 0.28372496 -0.117874205
0.04488605 0.030606788 0.13913159 -0.0018281054 -0.028639778 0.0037360303 -0.15024495 0.00173269
0.18754973 0.009227723 0.32136843 -0.13831812 0.059251912 -0.05144613 -0.120512806 -0.05240399
0.01325406 -0.00290572 -0.15266883 0.018441333 -0.043623377 -0.3380801 0.1408599 -0.066809036
-0.026527992 -0.07240918 -0.03521811 0.106652945 -0.015243001 -0.0075748684 0.027976247 0.2554217
-0.047596067 -0.06330936 -0.3074064 -0.012367196 0.039117906 0.040786263 0.04328235 -0.06139752
-0.26698306 0.23962846 -0.28045467 0.029417017 0.037843123 -0.015022284 -0.15730624 -0.28052804
0.23451236 -0.2792247 -0.031800725 0.1839903 -0.27299163 -0.018690549 -0.046241716 0.09696348
-0.022768084 -0.19568251 -0.100260675 -0.32573923 0.0192168 -0.35741392 -0.0094643105 -0.020547315
0.15542263 -0.054499764 -0.12180603 -0.27695513 0.04436774 0.2778286 0.08642278 -0.21824151
-0.16406217 0.032711245 0.15161574 0.02156911 0.11156441 -0.012639618 -0.05660054 -0.026147159
0.037974462 -0.0063195634 0.037959434 0.004569214 -0.15420198 0.02658587 -0.23211484 -0.56446165
0.021783762 -0.07121593 -0.0016839752 0.051462352 -0.018456768 0.028265344 0.020684069 0.0023351654
-0.23485652 0.028478116 -0.033036426 0.0007051125 0.03241282 0.043894656 0.013078606 0.064719245
0.004900115 0.10295238 0.011667846 0.040151007 0.0020357668 -0.23982213 -0.009969232 0.06176865
0.041051645 0.24579404 -0.16218416 -0.05216132 -0.05727324 -0.066089556 -0.25026757 -0.210873
-0.057836793 -0.04015256 -0.06514332 0.009941918 -0.16558537 -0.026282988 0.036425453 -0.24766569
-0.15920329 0.002973437 -0.007146287 -0.07307681 0.05820455 -0.17304382 -0.1620114 -0.012647334
-0.05647693 0.052095868 -0.32335877 -0.06540495 -0.011136414 -0.060416777 -0.0005985866 0.32372025
0.032572888 -0.4937402 -0.20659804 -0.03186875 0.08820463 -0.045551565 -0.022833211 -0.24230878
-0.047840636 -0.058432747 0.043905642 0.13054404 0.14713858 -0.008057317 0.037423506 -0.032692418
0.04735567 -0.089472905 0.013111207 0.05157708 -0.017261269 0.05521821 0.029298961 -0.09576444
-0.028195344 -0.03830524 -0.40526238 0.012506645 0.22345276 0.07310402 -0.30004007 -0.054488227
-0.033404488 0.030380616 -0.026180925 0.18472666 0.14512014 -0.10098429 0.010488131 -0.041732527
-0.12791203 -0.054416627 0.14971831 0.20548719 0.022312203 0.24112375 -0.011469358 -0.17612775
-0.04722407 -0.23799555 -0.007023902 0.24247843 -0.026451578 -0.062203348 -0.22470665 -0.043076236
0.2874035 -0.070570394 0.017844696 -0.054193527 -0.020741869 -0.16422816 0.027292786 -0.23445764
-0.22025298 0.16590098 -0.27845758 -0.002968994 0.028303074 0.06511853 -0.037706345 -0.00076410774
0.07630091 0.012834072 -0.22344694 0.12931906 0.11079299 -0.05732101 -0.03252539 -0.01071479
-0.047441114 -0.09296034 0.07569295 -0.06970271 0.0078113787 -0.14134596 -0.12939924 0.010852781

seq.2.bias f4 [100]
00000000: e859 adbd 5ce1 563d 9fb4 38be ca95 f83c
00000010: b510 c43b 0b0f d8bd 6920 bebd 6a21 943d
00000020: 27f0 663c 8b70 6d3d d5d1 ccbc fdeb 9ebc
00000030: 2d6c ffbd 63c1 43bc 7407 2cbe 0305 16be
00000040: 3e16 2b3c 104b 8ebe 727d 9f3d 64d8 fc3c
00000050: e2d8 74bc 1842 48be 0fdd d4bd af28 44be
00000060: 9c1d 11be 45d1 7fbd fa8e c13d e8ff d13a
00000070: 9177 66bd 8743 23be 708f 8cbd 1197 0cbe
00000080: 90be 20bd 74f3 e5bd ba25 9cbc f0b7 0bbe
00000090: f7ec 9e3d 2189 14be a891 3abe 6cd5 71be
000000a0: 9b21 9bbd 64b7 84bd abfb 3bbe fa0b 24be
000000b0: c0af 7bbe 7107 35bd 0609 8fbe 6cf8 1cbd
000000c0: 9247 d83d 62f0 3abe 83cb 1bbe 8771 32bc
000000d0: f3b8 48be 1e03 9ebd e855 61bd 9953 9b3d
000000e0: 1fad 99bd d174 083e f3b2 83bd 99e6 5c3d
000000f0: 7487 c43c 560b f0bd dfd0 953b 3400 103e
00000100: 3f94 b23d 5961 1ebe 22c2 a53c ac94 cebd
00000110: 7a1e 15be 884b 50be ad9f 14be a279 303d
00000120: 897c b83b 8c45 6cbc 799e b73d 6a6f 203c
00000130: df98 cdbd 1157 cfbd a85b 0dbe 3895 e4bd
00000140: ee8b 22bc e992 48be 2268 193e 5b04 95bd
00000150: 2301 34bd 3158 45be 61f9 5abd 049b 873d
00000160: 63d2 5ebe 7428 8fbe 2b51 36be 44ab a2be
00000170: 5ccf ee3c 3637 d63b cb7b 10be 94e9 afbd
00000180: b971 1dbe 33e4 a8bd 6620 0bbe 7ef9 0e3d
-0.08464414 0.052461013 -0.18037651 0.030344862 0.005983437 -0.10549744 -0.092835255 0.07232936
0.014095343 0.057968657 -0.0250024 -0.019399637 -0.12471805 -0.011947962 -0.16799718 -0.1465035
0.010442315 -0.27791643 0.07787599 0.030864902 -0.014944287 -0.19556463 -0.10393726 -0.19156145
-0.14171451 -0.062455434 0.09451099 0.00160217 -0.05626637 -0.15943728 -0.06863296 -0.13729502
-0.039244235 -0.112280756 -0.019060958 -0.13644385 0.07760041 -0.14505436 -0.18219626 -0.2361657
-0.07574769 -0.064802915 -0.18357722 -0.16020194 -0.24578762 -0.04419655 -0.27936572 -0.03832285
0.10560526 -0.18255761 -0.15214352 -0.010891325 -0.19601803 -0.07715438 -0.055013567 0.07584304
-0.07503723 0.13325812 -0.06430616 0.053930853 0.02399037 -0.11720912 0.0045720185 0.14062577
0.08719682 -0.15466823 0.020234171 -0.10086951 -0.14562407 -0.20341313 -0.14514036 0.043084748
0.00563008 -0.014420878 0.08965773 0.009792188 -0.100389235 -0.101240285 -0.13804495 -0.11161274
-0.009921057 -0.19587292 0.1498113 -0.07276221 -0.043946397 -0.19271924 -0.053460483 0.06621364
-0.21759944 -0.2796055 -0.178044 -0.3177129 0.029151611 0.0065373434 -0.14109723 -0.08589473
-0.15375413 -0.082466505 -0.13586578 0.034905903

seq.4.weight f4 [100, 100]
00000000: c2d0 cfbd f712 4bbd 56c4 383e 986f ea3c
00000010: 28ca ef3d 0b5c 933e 57e6 0abd c2f6 4c3d
00000020: 22fd a63d c28d e8bd 2b05 1cbe 3b69 313c
00000030: 95f7 09be 63c0 34bd 4e1b 943e 3991 cabd
00000040: aeb0 743d 37e0 713e 8558 27be 97f9 9ebe
00000050: 4388 c9be 4488 80be 8af7 4a3e d41d 003e
00000060: c70c 873e 81bf f1bd 4766 d83c 061a c73e
00000070: e3a6 263d 207c ea3e e8d5 233e d5ed 01bf
00000080: b634 963e 5c69 08be 4ebf c33d 311c 403e
00000090: 2c87 093e f397 59be 944a bdbe f951 85bd
000000a0: 911f db3e e03a 193e a5c9 8d3e c1ac 2bbb
000000b0: 5bfe 26be 9638 8cbe fc2e 633e 1004 c1bd
000000c0: 936a 12bd 39c1 3b3e 3b51 a13c 7dca d3be
000000d0: 0dc5 043d 073d 663e 1f2b 0dbe 761b 8cbc
000000e0: bdbf 8b3e 881c a8bc a256 1f3d 9659 c2bd
000000f0: b004 5ebe 2427 47be 558d 0a3d 9ce6 3c3e
00000100: 40e7 31bd 7f40 b7bd d4cc 5abd 0e4c bd3e
00000110: ef7a f4bd b962 8d3c 9726 84bd fc66 51bb
00000120: c1a2 89be 450e 48bd 90fc b8be f44e 343e
00000130: d824 353e 9fc2 863d c56a e4bd d3db 413e
00000140: 0f6e 1ebe 26f4 eb3d fce7 043d 5263 3dbd
00000150: fff6 bd3d 736d 643d d19b 1b3e 630b 80be
00000160: d79b d43e 4ca1 2e3e dd04 b6be c9d8 bc3d
00000170: caa4 81bc 96b8 b03e f762 4fbe 1f2a a53d
00000180: 0cbc 77be d92f e5bd 3e29 d43d e250 26be
00000190: 4c0e 13bd b9c4 bb3d 181c 96be 261f a1bd
000001a0: 980a ecbd c427 3dbe e8d1 583c b0a5 5abe
000001b0: 92e0 e13e 293b 5cbc 8acf 8fbe 18dd c03c
000001c0: 4b48 b8bd ef2c 0dbd 2442 603e 9d91 3d3e
000001d0: b47b aa3a f56a 843d 4677 02bf 6051 cd3a
000001e0: 339e 1a3b f4bb 6cbd d967 19be 9b3d 99bd
000001f0: 13c3 c7bd 31a1 b03d 0b28 90be b183 0ebe
00000200: 20f8 2b3c 0790 ffbd 5727 043e db95 09bc
00000210: 2049 31bd 962f a4be 6ccf 09be 76e3 3a3d
00000220: e2cc 4fbe e580 1cbe 5e29 81be 51fa f2bc
00000230: 5e41 9d3c 7d5c 7a3d 78b5 613d beec a4be
00000240: ec52 cc3e d63a 263e be2a 3f3d 8be2 68be
00000250: ec05 8c3c 1d69 1d3e 7f87 ca3e d415 4cbe
00000260: f5b8 293e 7b33 4ebd da92 cbbd 5f3b 703e
00000270: 37a8 393d a9a0 943c c1a1 e43d fa50 7bbe
00000280: 78fa b0be eb2b 903e 8d6e 00be 31d0 013d
00000290: 7004 85be f610 61be de74 ba3d 9d45 503e
000002a0: 303f 1cbe cf70 9c3d aebc 8d3d 2fa5 b03d
000002b0: 549a 50be d689 983d 3b0f 5f3e a27b b9be
000002c0: 82ec 643e 62c5 06bd e8a7 24bb 3f9c 5abc
000002d0: 2b35 5b3e 23bd ac3e ba85 86bd 2956 4dbb
000002e0: 3801 57bd 8f2e f6bd 3ad6 d4bd 7fb1 cb3c
000002f0: fc78 06be 87b4 acbe 7786 12bd 3377 debd
00000300: 4430 c03d a721 08be 3c83 533d 0a87 3bbd
00000310: 1c33 b3bd 51a0 84bd a3d0 ae3d d401 37be
00000320: c7a0 03bd d905 f13d 6249 cb3e 1838 41bd
00000330: cf92 cc3e b68d 4b3b df68 723c 47ac 033e
00000340: d061 063e d083 9bbe 64c1 903c 8f62 f8bd
00000350: e758 263e ec47 3dbe 4533 99be 25ef cf3d
00000360: 82c5 40be 8a8e 703d a5f5 55be f006 56be
00000370: 55a9 0abe 529b 70be f3db 1f3c dde5 233e
00000380: a55e e5bc a668 39be 7de6 213d b624 82be
00000390: 1134 05be 1dde 50be ddbe debe 304a d23d
000003a0: d596 873d bb18 6dbd 5005 e4bd 48ea 053e
000003b0: 3c97 65be 6fe5 9bbd 581a 8ebe 1728 76be
000003c0: 4b0b ce3c 5fc8 be3c ea9c 9bbc ec8a 0bbe
000003d0: 1841 83be 1fbe 01bf e3e8 7c3c f5f2 02be
000003e0: 0871 2c3d 8dad b9bd 3410 e03d 5256 eabe
000003f0: 00cf 05be cf1e e73c a06a 73be c481 c9bd
-0.10147239 -0.049578633 0.18043646 0.028617665 0.1170848 0.2878116 -0.033911075 0.050040014
0.0815375 -0.11355163 -0.15236346 0.010828312 -0.13473351 -0.044128787 0.28927082 -0.0989098
0.059738807 0.23620687 -0.16342361 -0.31049797 -0.39361772 -0.25103962 0.19820991 0.12511379
0.26376936 -0.118041046 0.026415957 0.38887042 0.0406865 0.45797825 0.15999568 -0.5075353
0.2933709 -0.13321441 0.09557973 0.18760754 0.1343047 -0.2124937 -0.3697096 -0.06509776
0.4279752 0.14963865 0.27692905 -0.0026195499 -0.16307966 -0.27386922 0.22185892 -0.09424603
-0.03574617 0.18335427 0.019692054 -0.41365424 0.032414485 0.22484218 -0.1378598 -0.017102938
0.27294722 -0.020521417 0.03890098 -0.094897434 -0.21681476 -0.19448525 0.03382619 0.18447345
-0.043433428 -0.089478485 -0.053417996 0.36972088 -0.1193751 0.017258989 -0.06452673 -0.0031952253
-0.26881984 -0.048841733 -0.3613019 0.17608243 0.17689836 0.0658009 -0.11153177 0.18931513
-0.15471672 0.11521177 0.0324478 -0.046237297 0.092756264 0.05576844 0.15196158 -0.25008687
0.41525146 0.17053717 -0.35550585 0.09221036 -0.015825648 0.34515828 -0.20252596 0.080646746
-0.24192828 -0.11190767 0.10359429 -0.16241792 -0.035902306 0.09168381 -0.2931831 -0.07867269
-0.11525458 -0.184722 0.013233639 -0.21352267 0.44116646 -0.013441839 -0.28088027 0.023542926
-0.08998164 -0.03446668 0.2190023 0.18512578 0.0013006837 0.06465713 -0.50963247 0.001566451
0.002359283 -0.057796434 -0.14981021 -0.074824534 -0.09754004 0.08624495 -0.2815555 -0.13917424
0.010496169 -0.12478643 0.12905632 -0.008397545 -0.043282628 -0.32067555 -0.13458031 0.04562708
-0.20293 -0.15283544 -0.25226873 -0.029660376 0.019196209 0.06112336 0.055104703 -0.3221187
0.39907014 0.16233382 0.04667162 -0.2274267 0.017092668 0.15372129 0.395565 -0.19930202
0.16574462 -0.050342064 -0.09940119 0.23460148 0.045326438 0.018143015 0.111636646 -0.24542609
-0.34566092 0.28158507 -0.12542172 0.031692687 -0.25979948 -0.21979126 0.09104322 0.20339055
-0.15258479 0.07638704 0.069207534 0.08625256 -0.20371372 0.07448165 0.21783154 -0.36227137
0.22355846 -0.032903083 -0.0025124494 -0.013342916 0.21407 0.3373805 -0.06568475 -0.0031331873
-0.052491397 -0.12020599 -0.10392423 0.02486491 -0.1313209 -0.3373148 -0.035772767 -0.10862579
0.09384206 -0.13294087 0.051638827 -0.04578308 -0.08749983 -0.064758904 0.08535888 -0.17871791
-0.03213575 0.117686935 0.39704424 -0.047172636 0.39955756 0.0031059808 0.014795511 0.12858687
0.1312325 -0.30374002 0.01767034 -0.121281736 0.16244851 -0.18484467 -0.29921928 0.10153035
-0.18825343 0.058729686 -0.20894487 -0.20901084 -0.13541158 -0.2349675 0.00975703 0.16005655
-0.027999232 -0.18106326 0.03952645 -0.25418633 -0.13008143 -0.2039723 -0.43504992 0.102680564
0.06620566 -0.057884913 -0.11133826 0.13077652 -0.22420973 -0.0761212 -0.27754474 -0.2403873
0.02515187 0.023288904 -0.01899572 -0.13627213 -0.256356 -0.50680727 0.015436384 -0.12787993
0.042099983 -0.09066305 0.109405905 -0.45768982 -0.13067245 0.028212933 -0.23771143 -0.09839204

seq.4.bias f4 [100]
00000000: 0a46 9abd 7428 493d 5345 f6bd 36f7 673e
00000010: 9e37 5ebc 386a 0cbb 8e4f 1b3d 525c 3f3e
00000020: a59a 8cbe a597 9cbe bcf4 3ebe c139 54be
00000030: 5ab1 a9bb 56c4 ae3d 6582 5d3d fdd5 b0bd
00000040: c8cd 2ebe b475 fcbb 074b 95bd af42 1ebe
00000050: 7368 e73d 7b92 1f3c 5f84 9d3c d272 c2bd
00000060: ed2f 21be aa74 d9bd 4b6c e63c d2ed 2dbe
00000070: 49f1 123e 6cb0 143e 3549 c93c b3ab b7bd
00000080: a9ef 14be fcb4 29bd bfcd 99bd 3da9 69be
00000090: 9456 54bc 1d78 65be c195 f1bc 3131 823e
000000a0: 6827 34be 940c 12bd e28c fb3c 767e cfbc
000000b0: c50b f83d 7bd6 1ebe 3139 c0bc e00f 42bd
000000c0: 3c3d c53d 4d12 123e c0bc 18be e36a fcbd
000000d0: 3ebe b2bd f304 bfbe fffe 123d ab88 ebbd
000000e0: c6df 42be 97c9 5dbe aa3f 64bc 34ad 883d
000000f0: 0be1 56be b361 65bd 1133 bf3d 146d 08be
00000100: 97c1 84be d810 ddbd 2486 313d 30c7 6fbd
00000110: ed19 47bc 29e9 81be b475 87bd 7980 55bd
00000120: 0005 fbbd 5f62 67be 10cc d43d d8ef 0ebe
00000130: 290d 993d 274f 80be cee9 f8bd d822 1bbd
00000140: 7738 16be de86 1d3b a685 96bd afaf 2dbd
00000150: 7763 03be c624 65bd 6c5f 31be 8930 653c
00000160: 8f3a 9abe 05ad 1c3e 6521 b5bd f4e9 6b3d
00000170: 4a1d 3c3e 2e03 8ebd 4b64 2cbd ffef 2b3c
00000180: b04b 51be f019 b7bd c6e4 93be e6db 3ebe
-0.0753289 0.049110845 -0.12024941 0.22652897 -0.013563065 -0.0021425616 0.037917666 0.18687561
-0.27461734 -0.30584446 -0.18648046 -0.20725156 -0.0051786127 0.08533542 0.054079432 -0.08634565
-0.17070687 -0.007704461 -0.07289701 -0.15455125 0.11299219 0.0097395135 0.019228159 -0.094945565
-0.15740938 -0.10617955 0.02812781 -0.16985252 0.14349855 0.14520425 0.02457104 -0.08968296
-0.14544548 -0.041432366 -0.07509946 -0.22818466 -0.012960095 -0.22409101 -0.029490354 0.25428155
-0.17593157 -0.035656527 0.030706827 -0.025328856 0.1211162 -0.15511505 -0.023464771 -0.04737842
0.0963082 0.14264794 -0.14915752 -0.123250745 -0.08727692 -0.37308463 0.035887714 -0.11500677
-0.19030675 -0.21658932 -0.013931194 0.06673661 -0.20984285 -0.056001376 0.09335912 -0.1332286
-0.25928947 -0.10794228 0.043340817 -0.05853957 -0.012152177 -0.253732 -0.06614247 -0.052124474
-0.12256813 -0.2259612 0.10390484 -0.1395868 0.07473213 -0.25060388 -0.1215397 -0.037875026
-0.14669977 0.0024036686 -0.0734971 -0.042403873 -0.12830912 -0.055943273 -0.17321557 0.013988622
-0.30122802 0.15300377 -0.0884426 0.057596162 0.18370548 -0.069342 -0.042087834 0.010494231
-0.20439029 -0.08940494 -0.28885478 -0.18638572

seq.6.weight f4 [50, 100]
00000000: 8dd4 473d 11ae 67be e19b 5cbe 4abd 193c
00000010: 3a9a 333e 33ef 5cbe 0fdf f73d 4922 49bd
00000020: 02b4 ebbe 6249 c6be 68b8 2f3d 57d1 0dbe
00000030: ec93 043e 1309 1b3e 3eae 98bb bb32 ebbb
00000040: 1f2f 97bd b60b 04be 7daa 91bd bdd7 60bd
00000050: 2b27 12be d432 a3bb dba2 89bc 6bec b9bd
00000060: f2d1 c2bd 4525 8f3e f9c3 9e3c 219e aa3d
00000070: cb08 493d fbdf fbbe c742 31be 4bef 9fbc
00000080: 14b9 383d e164 acbd c39e 3fbd 854a 03be
00000090: 3258 c7be 4515 6d3e ecec 08be 9ffc d23d
000000a0: e07a 033e 2b1c b2bd be13 853e 0b22 aa3d
000000b0: 9695 b13d 5a51 d83d 5254 963e 8c18 eabe
000000c0: 3954 d6bd 2d7f f2be e896 0e3e de4a 663d
000000d0: 6b85 ab3d 7614 92be 0b0a 943e c646 1c3e
000000e0: 10fe 7e3e d00c 46be 07e6 4cbe ef7a cdbe
000000f0: 014d a73e 2836 96be bd30 25bf a2a3 24bd
00000100: 7cac aebe b9a1 98bd 792d 38be e411 1b3e
00000110: 6fff 91bd c4f6 963c f07e 9f3e 921c 813d
00000120: 7681 5e3e 8756 6c3e dbfc abbe f5b5 bbbd
00000130: 3888 05bf 7557 22bf 0360 b53c c1b3 d33e
00000140: 8bcc 403e af71 ffbd 9f16 da3c 28b9 9a3d
00000150: ea5a b23b 1c81 c5be 10dc cc3d 7b04 8e3c
00000160: fd3e 383d 7519 10bf c446 2c3d 33af 883e
00000170: 58c1 043c c19c 21be aa9e 433e bc8d 3e3e
00000180: 5fc8 0ebe 1aac a73c 4d51 8abd fffe 5d3e
00000190: 5bd2 063e f8bd 64ba eb78 403d 044f 3cbe
000001a0: 2ba5 59be 0349 c6bd 1bf0 0ebe 3701 a6be
000001b0: d280 07be 9b0c 37be f956 95bd 7202 34be
000001c0: abaa 0bbd 8613 18bd 0890 443e f36e 213d
000001d0: 19e1 12bf 0c05 99be 1d64 a03c 4075 843d
000001e0: bc9e 24bd 187a 6fbd 0a23 d7bd 1cf8 4fbd
000001f0: fe01 08be 0732 1bbe 8601 e6bd fc99 d63c
00000200: f96a b7bd 6c04 8ebe 431d 183e fa45 11be
00000210: d7e8 98be db28 05bc a07d b13b 02e2 fabe
00000220: 1bc7 8dbd 6a7e 1c3e 988a 97be 56ab 42bc
00000230: 67c5 29be 840c fbbd 5420 d93d 828b 80be
00000240: 5d22 09be 480f 943e 95c2 3dbc 8a1e 33be
00000250: 8d23 34be bc17 15bf dce6 cabd 201f 063b
00000260: 6d0c 263e 0486 163c 48f2 943d 720a 72be
00000270: a53a bcbc 02d6 84bd 8808 5fbe 1796 91bd
00000280: 24b3 fb3c 9d84 8bbe 5551 d0be d204 5dbe
00000290: f223 b5be 4b86 4bbe 162e 4bbd eba0 393e
000002a0: a0b7 e1bd cd74 a6bd 2af0 81bd 3004 413d
000002b0: be63 eb3c 9a56 8abd cae0 56be 34b5 01bd
000002c0: d7a4 84be 959d 9ebd 4dc6 26be 2d1e 843d
000002d0: c29b 013d dd56 79bd 1e1c 553e 27e0 52be
000002e0: 4ae5 04bc a4e2 26be 471a aabc 0dc7 4ebd
000002f0: b80f b3bc 8569 f1be 9a36 2bbd d009 f2bd
00000300: 14b4 b9bd b511 9bbb 03ad ac3d 7410 78be
00000310: 09bd a73d 9d49 843c 22fb 4e3e 119d 7a3e
00000320: 7c0a 91bd 686c f43e 1fd2 afbd 3758 dc3d
00000330: d8ef 9a3e 1d88 db3d dc02 abbd e962 cebd
00000340: 35f1 533e 9ce9 c73e 5a17 2cbe 59dc 1fbe
00000350: 358a 093c 19e1 553d 64f1 c4bd aa92 c23d
00000360: ffd3 85bc dcba c13e 4c6f 3e3e 3ded bf3d
00000370: b807 b8be cef5 c7bd 5ac1 38bd ea64 af3d
00000380: d25d 2cbe 5a6e 8b3e b714 20be b336 c0bb
00000390: 96ed ebbd bd78 c9bd 9a2b 88bd fb9a 29be
000003a0: 79e1 19bd da8d 5b3e 4f23 143e a879 483b
000003b0: 9704 d73c 4d57 88bc e24c 193d eba0 efbe
000003c0: 6d35 24bd aed3 a0bb 7fb7 8f3d 3bf5 3ebd
000003d0: 060c a53e d117 d33d e2b7 87bd 5f3a 7f3e
000003e0: 9402 d83d 23cd 0fbe a8be 05be 4dba 86bd
000003f0: d793 c13c ae0e 07bc 57c6 66be 0531 823e
0.04878669 -0.22624995 -0.21543838 0.009383509 0.17539302 -0.21575622 0.12103092 -0.049104962
-0.46035773 -0.38727862 0.042900473 -0.13849388 0.12947053 0.1514018 -0.004659443 -0.0071776784
-0.073820345 -0.12895092 -0.07112596 -0.054893244 -0.14272754 -0.0049804244 -0.016801288 -0.09078296
-0.095127 0.27958122 0.019380556 0.08330942 0.04908065 -0.4919432 -0.1731063 -0.019523283
0.04509838 -0.084176786 -0.046782266 -0.12821396 -0.38934475 0.23152645 -0.13371629 0.1030209
0.12839842 -0.08696779 0.25991625 0.083072744 0.086711094 0.105623916 0.29361206 -0.45721853
-0.10465283 -0.47362652 0.13924754 0.056223743 0.08375057 -0.28531235 0.28913912 0.15261373
0.24901605 -0.19340825 -0.20009623 -0.40132853 0.32675937 -0.29338193 -0.64527494 -0.040195115
-0.3411597 -0.07452721 -0.17986096 0.15143543 -0.07128798 0.018428214 0.31151533 0.063042775
0.21729073 0.23079883 -0.3359135 -0.09165565 -0.5216098 -0.634147 0.022140509 0.4134808
0.18828027 -0.12472855 0.026622115 0.07554847 0.0054429667 -0.38575065 0.10002911 0.01733612
0.044981945 -0.56288844 0.042059675 0.26696166 0.008102737 -0.15782453 0.19103494 0.18608755
-0.13943623 0.020467807 -0.06753788 0.21679305 0.13166182 -0.00087258173 0.046990316 -0.18389517
-0.21254413 -0.09681895 -0.1395878 -0.32422802 -0.13232735 -0.17875902 -0.07291979 -0.17579058
-0.03409831 -0.037127994 0.19195569 0.03941245 -0.5737472 -0.29886663 0.019578988 0.06467676
-0.040190443 -0.058466047 -0.1050473 -0.050773725 -0.1328201 -0.15155803 -0.11230759 0.026196472
-0.0895595 -0.2773775 0.14854912 -0.1418685 -0.29865143 -0.0081274165 0.005416587 -0.49000555
-0.06922742 0.15282598 -0.29597926 -0.01188167 -0.1657921 -0.122582465 0.10601869 -0.25106436
-0.13392015 0.2891791 -0.0115820365 -0.17492118 -0.17591687 -0.5823934 -0.09907314 0.002046533
0.16215678 0.009187225 0.07272774 -0.23636797 -0.022977183 -0.06486131 -0.21780598 -0.071087055
0.03072507 -0.27249613 -0.4068705 -0.2158387 -0.35378987 -0.19875447 -0.049604498 0.18127792
-0.11021352 -0.08127747 -0.06344636 0.047123134 0.028734084 -0.06754799 -0.20984188 -0.03166695
-0.25907013 -0.077449 -0.16286583 0.06451068 0.031642683 -0.060873855 0.20811507 -0.2059332
-0.008111307 -0.16297394 -0.020764483 -0.0504828 -0.021858081 -0.47150818 -0.04180012 -0.11818278
-0.0906755 -0.0047323355 0.08431437 -0.24225026 0.081903525 0.016148383 0.20212987 0.24473979
-0.07082078 0.47738957 -0.08584999 0.10759013 0.3026111 0.10719321 -0.08350155 -0.10077459
0.20697482 0.39045417 -0.16805783 -0.156114 0.0083947675 0.052216623 -0.09616354 0.0950063
-0.01633644 0.37837875 0.18597144 0.093714215 -0.3594339 -0.097636804 -0.04510627 0.0856417
-0.16832665 0.2723263 -0.15632902 -0.0058658957 -0.11519925 -0.09837482 -0.06648941 -0.16563027
-0.037568543 0.21440831 0.14466594 0.003059009 0.026247306 -0.01664319 0.037426837 -0.46802458
-0.040090013 -0.0049080467 0.07017421 -0.04662059 0.32235736 0.10307277 -0.0662687 0.2492461
0.10547367 -0.14043097 -0.13061011 -0.06578503 0.023630066 -0.008243246 -0.22536598 0.25428024

seq.6.bias f4 [50]
00000000: 63c8 3ebd 65f5 dfbd 795d b9bd 0a1e 013e
00000010: ea69 96be a44f 99bd 57ba 973d cfad 2dbd
00000020: 753d 72bd 62fa 6e3d 93e1 0a3e 8587 8c3d
00000030: d14f b4bd f361 03be 9855 80bc 0197 833e
00000040: 5e71 dfbd 3ca7 833c 9134 453e ecbb e43d
00000050: 3523 283e ecc9 823e def2 0dbe da25 fcbd
00000060: da27 5bbc 9e0a 9f3e 19fe e83c c22d 863e
00000070: b272 0dbe 23c1 183d 644e 79be d355 4a3e
00000080: 7ec0 21be 6fc5 303e ac86 03be 7e81 90be
00000090: d388 763d bbbd f9bb c3d6 023d c666 003d
000000a0: 8661 153e 8549 29bd 436c 0fbe e6e7 11be
000000b0: 1fc0 153b b166 b43d e4ad 043e 31a3 403e
000000c0: 1ab2 a03d 94f8 133d
-0.046577822 -0.10935477 -0.090510316 0.12609115 -0.2937768 -0.07485893 0.074085884 -0.042402085
-0.05914064 0.058344252 0.13562612 0.06861786 -0.08804286 -0.12830333 -0.015665814 0.25701144
-0.10910295 0.016070955 0.19258334 0.11168656 0.1641968 0.2554468 -0.13862178 -0.12311907
-0.013376201 0.31062788 0.028441476 0.26206785 -0.13813284 0.037293565 -0.2434631 0.19759302
-0.15796086 0.17262815 -0.12844342 -0.28223795 0.06018908 -0.0076214946 0.031943094 0.031348012
0.14587983 -0.04132988 -0.14006142 -0.14248618 0.0022850109 0.08808649 0.12956959 0.18812253
0.0784647 0.036125734

seq.8.weight f4 [20, 50]
00000000: 2b0b efbe 500a 1c3e 1a9f 783e 55ff 5dbe
00000010: bf95 07bf 166a 19be 1a68 5e3d cbcf 493e
00000020: 0ce5 973c 2eb2 8e3c 53ed a13d b758 393d
00000030: a9ad b33e 77b7 803d ecd2 88be 205c de3c
00000040: d39f fc3d 0f0f 373b 5bcc 18bf fc21 1bbf
00000050: 10a4 4e3e 40dc f03d c438 383e 3714 bcbd
00000060: 5063 6b3e c9ff 8b3e c05d a2bc 1032 e03d
00000070: 3edc 39bd 0734 64bd 554a fe3c 0f6e 24bf
00000080: 9d62 873e 237d 9abe 0604 f83c 99ac 8c3d
00000090: ff90 bfbc e87b f23d f016 643e 9d96 6b3d
000000a0: 4a53 d6be 87bc 78be 0950 f03e a9e8 083f
000000b0: 8486 1dbf 50c9 75be 0036 5b3e d2cc 0ebe
000000c0: a32c 9f3e c5d3 16be 73b9 edbb 5d6e 7bbe
000000d0: 841a a9be dd7f 09bf 8093 bebd ef2e cc3d
000000e0: 4296 963c 3350 d3be d96e b1be 0a1e 9e3e
000000f0: 5037 abbe cad7 c5be 0da1 33bf 2236 d1be
00000100: 5b15 be3e 564d c63e 9574 59bd 4eb5 3a3e
00000110: 4e5a 2e3e 6f6c 1b3e 43c0 94be 0265 24bd
00000120: f3de 5bbe e086 4abd 6985 84bd 53d9 9dbd
00000130: 9edf c7bd 019b 2bbe 7053 063e 5840 9b3d
00000140: f9e5 bd3d 6eae 943e 1956 b13e 17e2 403e
00000150: d26d 5e3d 1b72 05bf a170 c0be 3e0e 593e
00000160: cb85 dabe dd12 cdbe 150f 1f3e cdb4 98bd
00000170: 323f d5be 9afa e8be 992a 483d 1f96 b83c
00000180: fe4d 213d 2d26 593d d882 1bbe e5f7 033e
00000190: 2a8d 643e b98a e2bd f958 1a3e e244 023f
000001a0: 22a0 a8be 99f8 eabd 5bd2 c9bd 8979 59bd
000001b0: 5289 823c ccf2 b23e 026e 07be 2ec2 28be
000001c0: 9353 dc3b 0a6a debb cc75 26be 1412 603d
000001d0: a2c3 923d a812 b9bd 2382 4bbc fb60 2cbd
000001e0: bbc3 1e3d d03b fabe 5637 26bd ea64 07be
000001f0: a5f2 263e 1b32 7b3c 2823 ea3d a98f 49bf
00000200: cb49 d5bc 63da 16bf 1d2d adbd 3e78 a9be
00000210: e11b 1ebe fe7b b93e 01c9 2d3d c78d 7ebe
00000220: 97e8 1dbe 8e9d a2be ae3f 33bf 8699 5abe
00000230: 7c46 3b3d 7029 febd 6bdc 393c 3314 3a3e
00000240: c7da 983d 6ca4 fdbd 7ae4 24bf 182b a2bd
00000250: 509b 9ebe 4506 14bd 43e4 d4bc 2b1e db3c
00000260: 3155 c63c 2a06 f4bc 4656 5bbd 7079 56bd
00000270: 4ac0 d8bd 74b6 99bd 78e1 d3bd ec31 883d
00000280: 8b77 4b3d df47 913c b2e5 513d 28e1 bebc
00000290: da94 ecbd bd2f f7bd dcc9 703d 732d 2dbe
000002a0: 2788 823d dade 973b 42b3 bd3d e908 81bd
000002b0: fd37 393c 4de4 d63d 672b f3bd 7289 5cbd
000002c0: 0c14 23bd 6f79 df3d 62b9 eb3d 102c 8bbd
000002d0: f07d 1d3c 0976 e43d 103e 1a3d 1a9d 78bd
000002e0: 74c8 b93d b573 2ebd cb88 56bd b392 aebc
000002f0: 7da5 8e3c c15d be3d b58f 21be 0d1d 10be
00000300: ec73 843d 523b eb3c d94e f33d 1e84 23be
00000310: cc9b 283c 27e1 99bd fa65 b5bd a9c3 12be
00000320: c9d8 693e 7d32 bcbe b543 553e b390 6d3e
00000330: 3e25 f53d c84e d1bd 93b1 313e b273 113f
00000340: e592 573e 9cd9 8abe 2ad3 593f 8549 e6bc
00000350: fe43 c33e 5b63 063e 8260 64be b729 473e
00000360: fc4b 743d 4607 d7be b5ce 86bd b899 4e3e
00000370: e3f0 073f b365 543e ffea c33d c8b4 48bd
00000380: 3404 92be 5df9 713e b265 9e3d 6044 413e
00000390: 0e20 2dbd 59b9 9abd be2a d6be 0b94 d6be
000003a0: 036c 21be bc16 a53e a226 d3bd f3ef fc3e
000003b0: 1436 1b3e 66b7 94bd bc12 ef3e 1422 c03e
000003c0: 75e5 46bd 1337 1fbe abcc c43e 1824 673e
000003d0: e615 b53c 74ee 2c3d ac77 2bbd 932f 933e
000003e0: 8983 ff3e f754 cd3d 3212 e93e 2b24 77be
000003f0: 5bc3 ee3e 8331 f83d 5b13 eebe a7e5 a1be
-0.46688208 0.15238309 0.24279442 -0.21679433 -0.5296287 -0.14981875 0.054298498 0.19708173
0.018541835 0.017418947 0.07906594 0.04525062 0.3509343 0.06284993 -0.2672342 0.027143538
0.123351716 0.002793256 -0.5968682 -0.6059873 0.20179772 0.11760759 0.17990404 -0.09183543
0.22987103 0.27343586 -0.019820094 0.10947049 -0.045376055 -0.05571368 0.031041304 -0.64230436
0.26442423 -0.30173597 0.030275356 0.06868858 -0.02338457 0.118400395 0.22274375 0.057516683
-0.4186042 -0.24290667 0.46936062 0.5348001 -0.6153338 -0.24002576 0.21407318 -0.1394532
0.31088743 -0.14729221 -0.0072547733 -0.24553819 -0.33028042 -0.5371073 -0.09305477 0.099698894
0.018382195 -0.41272125 -0.34654883 0.30882293 -0.33440638 -0.38641196 -0.7016762 -0.40861613
0.37125668 0.38730878 -0.053089697 0.18233225 0.17026636 0.15178083 -0.29052934 -0.04013539
-0.21471767 -0.049445033 -0.064707585 -0.07707467 -0.097594485 -0.16758348 0.13117766 0.07580632
0.092723794 0.2903933 0.34636 0.18836246 0.05430395 -0.52127236 -0.3758593 0.21196839
-0.426802 -0.40053454 0.15533097 -0.0745636 -0.41649777 -0.45503694 0.04886875 0.02253252
0.03938102 0.053014923 -0.15186632 0.12887533 0.22319475 -0.110616155 0.15073003 0.50886357
-0.32934672 -0.114731975 -0.09854575 -0.05309442 0.01593462 0.34950864 -0.13225558 -0.16480324
0.00672383 -0.006787543 -0.16255873 0.05470474 0.0716622 -0.090367615 -0.012421164 -0.042084675
0.038760882 -0.48873758 -0.040580116 -0.1322209 0.16303499 0.01533177 0.11432487 -0.78734833
-0.026036164 -0.5892698 -0.0845587 -0.3309955 -0.15440322 0.3622741 0.04242802 -0.24858771
-0.15420757 -0.3176083 -0.7001904 -0.21347627 0.045721516 -0.12410247 0.011344056 0.18171768
0.074636035 -0.123848766 -0.6441113 -0.07918376 -0.3097787 -0.03613879 -0.02598775 0.026747784
0.024210544 -0.029788096 -0.053549074 -0.052361906 -0.10583551 -0.07505503 -0.10345739 0.06650147
0.049674552 0.017734466 0.051244445 -0.023300722 -0.11551829 -0.12069652 0.058786258 -0.16911869
0.06373625 0.0046347203 0.09262706 -0.063005276 0.011304853 0.10492764 -0.11873513 -0.053842016
-0.03981404 0.109118335 0.11509968 -0.06795514 0.009612545 0.11155326 0.037656844 -0.0606967
0.090714365 -0.042590816 -0.05237655 -0.021310186 0.017412895 0.09295226 -0.15777476 -0.14073582
0.06467423 0.02871481 0.11880273 -0.15968367 0.010291051 -0.075136475 -0.08857341 -0.14332451
0.22836603 -0.3675727 0.2082661 0.2319973 0.11969994 -0.102201045 0.17352895 0.5681716
0.2105213 -0.27119148 0.85087836 -0.028111229 0.3813781 0.13123839 -0.2230244 0.19449507
0.059642777 -0.41997737 -0.06582395 0.20175827 0.5310194 0.2074192 0.09566306 -0.04900053
-0.28518832 0.23630281 0.077342406 0.18873739 -0.042266898 -0.075548835 -0.41829485 -0.41909823
-0.1576386 0.32243907 -0.10310103 0.49401817 0.15157348 -0.07261543 0.4669398 0.37526
-0.04855867 -0.15548353 0.384374 0.22572362 0.022105169 0.042219594 -0.041862175 0.28747234
0.4990504 0.100259714 0.45521694 -0.2413489 0.4663342 0.121188186 -0.46499142 -0.31620523

seq.8.bias f4 [20]
00000000: 87da 2cbe fc60 933e 381a 5cbd dd78 aabd
00000010: 7f8b d3bd 0ad5 dc3d 47c3 20be 775e 413d
00000020: 9339 863e 0133 2a3e ce7f 6cbd 1b8e 873c
00000030: 114e 5c3b 5966 5e3e 5b3f 34be 625e af3d
00000040: 3eb9 aa3e 872d 8b3d e3f5 3dbe 63f4 02be
-0.16880237 0.2878493 -0.05373594 -0.08323834 -0.10329341 0.107828215 -0.15699492 0.04720923
0.262158 0.16621019 -0.05773907 0.016547253 0.0033615867 0.2171873 -0.17602293 0.08562924
0.33344454 0.06795793 -0.1855083 -0.12788539
