submission/checkpoint_Dueling.pth (torch, 721973 bytes, 15 tensors)

seq.0.weight f4 [265, 510]
-0.26544353 0.02362094 -0.10812096 -0.03258793 -0.016520914 -0.24431157 -0.0013345933 -0.0377379
-0.0039296523 0.003977248 -0.18862453 -0.061447315 -0.031349774 -0.029326346 -0.01747526 -0.14165187
-0.0010696664 -0.008571089 -0.030019736 -0.040255178 -0.2893625 -0.009103127 0.0007245956 0.0331358
-0.004290186 -0.2553024 0.009688684 0.020225793 -0.027876409 -0.033705864 -0.21633789 0.030661229
-0.051666893 -0.020383883 -0.03343923 -0.30802113 -0.06439583 0.05850518 0.01975888 -0.0030065097
-0.025090344 0.028639168 -0.09846656 -0.0413447 -0.04510654 -0.2201374 0.0907899 -0.04648404
-0.01963829 -0.023347786 -0.10411556 -0.047103547 0.055107914 0.0059820116 0.026138814 0.00027884354
-0.054204598 -0.028324906 -0.030690372 -0.059086572 0.07485177 -0.14894558 0.026798539 0.013377529
0.008440573 0.00021209616 0.1737404 -0.1412807 0.027470738 0.009388632 0.09182891 0.11084779
-0.109448634 0.036688782 0.04019627 0.030974703 -0.05519198 -0.08824237 0.004073497 -0.059626065
-0.048381824 -0.06684623 0.0074789943 -0.04417128 0.028416544 -0.15404096 0.0775983 -0.22492763
0.017028432 -0.03752373 -0.09583554 0.018300977 -0.0030296636 0.016557064 -0.027760696 -0.20768122
-0.32513854 0.08810205 -0.034542702 -0.044395793 0.122876525 -0.19266237 -0.028510975 -0.011144791
-0.030723918 -0.09879952 -0.2971937 -0.036162402 -0.0024398528 -0.014839008 0.051148243 -0.12058654
-0.048571024 0.04017902 0.041043874 -0.16285472 -0.15256849 0.0017902452 0.006460607 -0.03346203
0.16555075 -0.09551352 -0.0612591 0.020953164 -0.035407975 -0.22013529 -0.10765197 -0.030694336
-0.015490882 -0.09966457 0.1241317 -0.06008209 -0.09642707 -0.0022724606 0.033707645 -0.21027419
-0.061673544 -0.01930226 0.008961599 -0.029967109 -0.28270727 -0.038026053 0.0050969045 -0.003202457
-0.014543723 -0.16852906 0.055951454 -0.030187093 -0.022009583 -0.072494194 -0.25993106 -0.10818304
-0.051342104 0.024283826 0.04971794 -0.243387 -0.075993605 -0.05673459 -0.009361405 -0.043098904
-0.25216314 -0.050715867 -0.07481108 -0.038233675 0.02130898 -0.19764332 -0.017929165 -0.00948528
-0.039855257 -0.041847866 0.04603991 -0.073163554 -0.024750907 0.01603644 -0.020836383 -0.15282235
-0.016027959 -0.040267415 0.035409242 -0.06389861 -0.011937154 -0.07172291 0.009403169 0.012360729
0.013162766 -0.15694204 -0.012902395 -0.028932448 -0.03649094 -0.009834968 -0.21602565 -0.026033226
-0.028378516 0.001974918 -0.022976011 -0.20847528 -0.027797686 0.005512073 -0.02638748 -0.038942657
-0.23587327 -0.06053421 0.02808202 -0.030399274 -0.06790173 -0.20992784 0.022544866 0.04755705
0.016012251 -0.039896548 -0.15162425 -0.12163351 0.041736618 -0.010111272 -0.0021637578 -0.23411536
-0.022150518 -0.010856981 0.03575638 -0.07921523 0.0023262096 -0.053629838 -0.05837041 0.0012537241
0.004431986 -0.2121175 -0.0413364 0.012581655 -0.014856914 -0.046041753 0.011475866 -0.08942593
-0.067333154 0.039661944 0.04966231 -0.29073817 0.04055766 -0.0046152193 -0.018767294 -0.024275945
0.10095005 0.03076344 -0.16189119 7.088855e-05 0.041294426 -0.24129027 0.015001097 -0.030152068
0.0006102994 -0.039183762 -0.0052645337 -0.020610526 -0.115573 -0.012944128 0.0059169396 0.028763035
00000000: 37e8 87be b480 c13c 866e ddbd ec7a 05bd
00000010: de56 87bc d02c 7abe 85ed aeba 0e93 1abd
00000020: 50c4 80bb 9353 823b ca26 41be 2eb0 7bbd
00000030: 9f68 00bd ce3d f0bc 4728 8fbc 300d 11be
00000040: 0c34 8cba c16d 0cbc f3eb f5bc 9de2 24bd
00000050: 5227 94be 4825 15bc caf2 3d3a 68b9 073d
00000060: b094 8cbb ffb6 82be 49bd 1e3c 90b0 a53c
00000070: 115d e4bc 290f 0abd ae87 5dbe 422d fb3c
00000080: aaa0 53bd 1afc a6bc 93f7 08bd f2b4 9dbe
00000090: f6e1 83bd 21a3 6f3d 60dd a13c dd08 45bb
000000a0: 448a cdbc b09c ea3c d6a8 c9bd 0f59 29bd
000000b0: a3c1 38bd b36b 61be 0ef0 b93d 0c66 3ebd
000000c0: 7be0 a0bc db43 bfbc 8a3a d5bd a6ef 40bd
000000d0: d6b8 613d c004 c43b 1121 d63c bf31 9239
000000e0: a405 5ebd a209 e8bc 606a fbbc c304 72bd
000000f0: e34b 993d 3185 18be 9c88 db3c 6c2d 5b3c
00000100: 544a 0a3c 2166 5e39 01e9 313e e3ab 10be
00000110: 500a e13c c7d2 193c cc10 bc3d 2b04 e33d
00000120: 9b26 e0bd fa46 163d d8a4 243d a9be fd3c
00000130: fc10 62bd 6ab8 b4bd f87a 853b 763a 74bd
00000140: 052c 46bd ade6 88bd 5a12 f53b f2ec 34bd
00000150: d0c9 e83c eabc 1dbe dceb 9e3d 6e53 66be
00000160: 367f 8b3c 7cb2 19bd 6c45 c4bd eeeb 953c
00000170: 528d 46bb aea2 873c 666a e3bc 63aa 54be
00000180: 8f78 a6be d96e b43d a67c 0dbd 5dd8 35bd
00000190: b0a6 fb3d 4949 45be d98f e9bc a498 36bc
000001a0: bab0 fbbc 6757 cabd c629 98be 071f 14bd
000001b0: f0e5 1fbb 501f 73bc d280 513d 13f6 f6bd
000001c0: 69f2 46bd c292 243d 9f1d 283d 63c3 26be
000001d0: ea3a 1cbe a9a6 ea3a 80b3 d33b 7b0f 09bd
000001e0: 2386 293e 989c c3bd d2ea 7abd f8a5 ab3c
000001f0: f407 11bd 256b 61be a378 dcbd b072 fbbc
00000200: 78cd 7dbc f01c ccbd c338 fe3d a318 76bd
00000210: 8e7b c5bd 90ed 14bb 0711 0a3d 1e52 57be
00000220: 669d 7cbd c61f 9ebc acd3 123c 957d f5bc
00000230: 02bf 90be 35c1 1bbd ef03 a73b 50e0 51bb
00000240: cc48 6ebc e292 2cbe 5a2d 653d ec4a f7bc
00000250: 714d b4bc d677 94bd af15 85be 128f ddbd
00000260: 194c 52bd e0ee c63c 0aa5 4b3d 713a 79be
00000270: 89a2 9bbd 8862 68bd 9460 19bc 7a88 30bd
00000280: 871b 81be 71bb 4fbd 8d36 99bd ea9a 1cbd
00000290: 2c90 ae3c 0363 4abe 2fe0 92bc 2668 1bbc
000002a0: 443f 23bd ab68 2bbd 5894 3c3d c6d6 95bd
000002b0: 6ac2 cabc da5e 833c 10b1 aabc 767d 1cbe
000002c0: 114d 83bc 72ef 24bd 4809 113d 46dd 82bd
000002d0: 0e94 43bc 76e3 92bd c00f 1a3c a884 4a3c
000002e0: a4a8 573c 6ab5 20be 9164 53bc be03 edbc
000002f0: 8677 15bd d822 21bc d435 5dbe a243 d5bc
00000300: 107a e8bc a06d 013b 3038 bcbc 8b7a 55be
00000310: f9b7 e3bc 9f9e b43b 8e2a d8bc 5682 1fbd
00000320: c388 71be b8f2 77bd 440c e63c e607 f9bc
00000330: 1010 8bbd 53f7 56be 03b0 b83c 2ecb 423d
00000340: 202c 833c 906a 23bd 6343 1bbe fd1a f9bd
00000350: 04f4 2a3d c0a9 25bc d5cd 0dbb f0bb 6fbe
00000360: 0175 b5bc 7be1 31bc 4875 123d 983b a2bd
00000370: 5273 183b f6aa 5bbd d015 6fbd 0054 a43a
00000380: 313a 913b 5435 59be 5b50 29bd 4923 4e3c
00000390: 6a6a 73bc 4796 3cbd 4505 3c3c f124 b7bd
000003a0: f7e5 89bd 9074 223d b56a 4b3d a2db 94be
000003b0: ca1f 263d 443b 97bb debd 99bc 59de c6bc
000003c0: e6be ce3d 9c03 fc3c cec6 25be 00aa 9438
000003d0: 5824 293d cc14 77be 29c7 753c 7801 f7bc
000003e0: 80fc 1f3a 277f 20bd 1c82 acbb 68d7 a8bc
000003f0: 89b1 ecbd 9c13 54bc e3e2 c13b 75a0 eb3c

seq.0.bias f4 [265]
0.002627425 -0.059434548 -0.059558734 -0.061779235 -0.04601639 -0.042965997 0.015845884 -0.08540847
0.034065515 -0.05204473 -0.032657318 -0.045621485 -0.021097621 -0.028690707 -0.030529253 -0.008817827
-0.016169388 -0.058858793 0.017833794 -0.0020535148 -0.030413924 -0.027385907 -0.019103603 -0.035324387
-0.09624455 -0.12473536 0.045735855 -0.057246752 -0.043217123 -0.061443605 0.018221494 -0.021405397
-0.034500375 -0.14270107 0.07871062 0.022539558 0.018244954 0.022092702 -0.06070602 0.010492539
0.012505719 0.00391653 -0.033932276 -0.014116632 -0.06814 0.0033490537 -0.05916366 -0.018746207
-0.0071481396 -0.06261839 -0.072904035 -0.0024526275 -0.11371505 -0.013634141 -0.040836304 -0.09623918
-0.06117241 -0.080674455 -0.10521183 -0.062125206 -0.053830292 -0.05892982 -0.048678637 -0.054774467
-0.047959283 -0.05378798 0.0625913 -0.0036413004 -0.008807989 0.04780159 -0.005546278 -0.044187784
-0.04076564 -0.034588344 -0.005737787 -0.049611773 -0.045054182 -0.027172524 -0.0021484196 -0.070465125
-0.06887636 0.018251097 -0.025309227 -0.07996722 -0.050935306 0.00013479489 0.026591193 -0.00086836703
-0.028789459 -0.06643121 0.0017670179 0.006830635 -0.01592859 -0.01971004 0.030380817 -0.006403584
0.049067385 0.06458624 0.0005028813 -0.050260093 -0.049255528 -0.06272988 0.034413677 0.04062454
0.022243448 -0.008124002 0.010150715 -0.019368367 -0.023860293 -0.052821215 -0.048595984 -0.052830376
0.04067108 -0.0033183193 -0.092882775 -0.06393908 -0.08113479 -0.023842344 0.0077229915 0.04692971
-0.041881565 -0.043980956 -0.041720454 0.056320403 -0.0785058 -0.036797203 -0.044796027 -0.025311138
0.019782128 -0.1021701 -0.012471058 -0.059327558 -0.072992794 0.007387462 0.03170318 -0.027563017
0.06412947 -0.02536201 -0.07766693 -0.022521298 -0.0015833108 -0.04518143 -0.020561008 0.0025446177
0.0030965523 -0.017552836 0.044686515 -0.010675175 0.008733711 0.016253615 0.026713766 -0.049752
-0.061961003 -0.029830096 -0.017894832 -0.006578032 -0.059767608 -0.011840154 -0.012963399 -0.05224927
-0.0010273941 0.00437141 0.015271972 -0.09565036 -0.010703021 0.002197885 -0.03881249 -0.038426157
-0.09158481 0.042733938 0.062353496 0.0024698817 0.050553072 -0.026537905 -0.03757325 -0.010686709
-0.0799955 0.028710764 -0.10566235 -0.009096775 0.0066581145 -0.081490256 -0.103229664 0.0409188
-0.025660949 -0.024708033 -0.044476323 -0.03088867 -0.008824154 -0.057550415 -0.03510418 -0.011690892
0.0015758905 -0.039825004 -0.023734428 0.0098188855 -0.072198145 -0.03215375 -0.083039 -0.06064133
-0.03896012 -0.04271578 -0.025109278 0.032027762 -0.09478033 -0.0054957466 0.020888967 0.06976399
-0.0058404263 0.030017847 0.012448358 -0.09734908 0.01967766 -0.014946308 0.04103696 -0.029803116
-0.0066217035 -0.022880055 -0.014336964 -0.08725448 -0.10344561 -0.051802233 -0.03466745 -0.019258618
-0.03255789 -0.0852661 -0.04626615 -0.06843675 -0.03964171 -0.11345642 -0.018401688 -0.075854965
0.069760524 0.01286402 -0.04307187 -0.03714778 -0.014864658 -0.060761627 -0.026418326 -0.013093601
-0.019502949 0.044487007 -0.059775066 -0.02137951 -0.066495165 -0.04988919 0.04342401 -0.017208682
-0.0036014202 -0.09836069 -0.0169452 0.010554029 0.009333147 -0.04590847 -0.078900166 -0.061417233
00000000: e030 2c3b a471 73bd dcf3 73bd 390c 7dbd
00000010: af7b 3cbd 1dfd 2fbd 3acf 813c a3ea aebd
00000020: 4888 0b3d db2c 55bd aec3 05bd 98dd 3abd
00000030: ebd4 acbc c608 ebbc 7c18 fabc a678 10bc
00000040: aa75 84bc eb15 71bd 2d18 923c 4394 06bb
00000050: 9f26 f9bc 6958 e0bc 297f 9cbc 4eb0 10bd
00000060: dd1b c5bd 4175 ffbd 8555 3b3d 927b 6abd
00000070: 7004 31bd 4aac 7bbd 3e45 953c 5f5a afbc
00000080: 4450 0dbd 3b20 12be 0933 a13d e1a4 b83c
00000090: 7176 953c c1fb b43c e0a6 78bd e6e8 2b3c
000000a0: cae4 4c3c 3c56 803b 92fc 0abd 7249 67bc
000000b0: fc8c 8bbd cc7b 5b3b 9855 72bd a591 99bc
000000c0: f13a eabb 123e 80bd b64e 95bd 43bc 20bb
000000d0: 70e3 e8bd bb61 5fbc f843 27bd 0c19 c5bd
000000e0: ec8f 7abd a638 a5bd 4d79 d7bd 0077 7ebd
000000f0: 277d 5cbd 6560 71bd 4063 47bd 315b 60bd
00000100: f470 44bd c950 5cbd de2f 803d e2a2 6ebb
00000110: 624f 10bc 9acb 433d 8dbd b5bb 40fe 34bd
00000120: dff9 26bd 82ac 0dbd 0c04 bcbb b735 4bbd
00000130: bc8a 38bd ea98 debc 80cc 0cbb 0550 90bd
00000140: 0d0f 8dbd 5383 953c 4c55 cfbc dbc5 a3bd
00000150: 8aa1 50bd ba57 0d39 c6d5 d93c 20a3 63ba
00000160: dfd7 ebbc 160d 88bd 489b e73a 85d3 df3b
00000170: ad7c 82bc f376 a1bc 31e1 f83c 28d5 d1bb
00000180: e2fa 483d ca45 843d cbd3 033a 87dd 4dbd
00000190: 2ac0 49bd 8678 80bd 5bf5 0c3d eb65 263d
000001a0: e437 b63c 891a 05bc 2f4f 263c 69aa 9ebc
000001b0: a976 c3bc 0f5b 58bd 950c 47bd aa64 58bd
000001c0: b896 263d 2978 59bb 5339 bebd 7ef2 82bd
000001d0: ff29 a6bd 0551 c3bc 2611 fd3b 5e39 403d
000001e0: 018c 2bbd 6025 34bd 11e3 2abd 39b0 663d
000001f0: a6c7 a0bd aab8 16bd 0a7c 37bd 4e59 cfbc
00000200: 210e a23c 8f3e d1bd 6953 4cbc 7401 73bd
00000210: 3f7d 95bd 8612 f23b 32db 013d d6cb e1bc
00000220: 5056 833d fdc3 cfbc d70f 9fbd 967e b8bc
00000230: 1887 cfba 2a10 39bd 8f6f a8bc 9ac3 263b
00000240: 87ef 4a3b f7ca 8fbc 3509 373d eee6 2ebc
00000250: d717 0f3c 4d26 853c d4d6 da3c c1c8 4bbd
00000260: d2ca 7dbd 3f5e f4bc 2f98 92bc 888c d7bb
00000270: e1ce 74bd 35fd 41bc 7064 54bc 5503 56bd
00000280: a0a9 86ba 0b3e 8f3b 4b37 7a3c 56e4 c3bd
00000290: b95b 2fbc 640a 103b d8f9 1ebd bf64 1dbd
000002a0: d190 bbbd c809 2f3d 6166 7f3d bddd 213b
000002b0: bd10 4f3d 0566 d9bc 68e6 19bd 4e17 2fbc
000002c0: aed4 a3bd d632 eb3c 8165 d8bd a40a 15bc
000002d0: 502c da3b 5de4 a6bd 136a d3bd 799a 273d
000002e0: e936 d2bc 8068 cabc ce2c 36bd 3c0a fdbc
000002f0: 2f93 10bc fcb9 6bbd 67c9 0fbd 288b 3fbc
00000300: 1c8e ce3a 8b1f 23bd b46e c2bc 64df 203c
00000310: 9fdc 93bd a7b3 03bd 5a10 aabd 0b63 78bd
00000320: a694 1fbd bef6 2ebd f9b1 cdbc 8b2f 033d
00000330: 311c c2bd aa15 b4bb 571f ab3c 6ce0 8e3d
00000340: 0c61 bfbb fde7 f53c 33f4 4b3c f45e c7bd
00000350: 0b33 a13c 5ce1 74bc 5f16 283d aa25 f4bc
00000360: e0fa d8bb f46e bbbc 96e5 6abc 7ab2 b2bd
00000370: 4bdb d3bd 942e 54bd 75ff 0dbd 40c4 9dbc
00000380: 6c5b 05bd fe9f aebd 9381 3dbd 9128 8cbd
00000390: 595f 22bd d75b e8bd 23bf 96bc d959 9bbd
000003a0: 9bde 8e3d 9cc3 523c 216c 30bd 4528 18bd
000003b0: e58a 73bc 2fe1 78bd 3f6b d8bc 8b86 56bc
000003c0: a6c4 9fbc 0238 363d b3d6 74bd 1524 afbc
000003d0: 9e2e 88bd 9b58 4cbd 60dd 313d 39f9 8cbc
000003e0: ce05 6cbb 5471 c9bd a9d0 8abc ceea 2c3c
000003f0: 0eea 183c 850a 3cbd 6996 a1bd a390 7bbd

seq.2.weight f4 [100, 265]
0.10325597 0.16784838 -0.044503022 0.07034152 0.031194054 0.29293293 -0.031275403 -0.080540694
-0.19656776 0.01762019 0.036857247 -0.14275342 0.040724408 0.16219053 0.010537503 -0.07676953
-0.04019555 0.15853882 0.1627983 -0.030452073 0.29822734 -0.42319173 -0.05876615 0.11967716
0.20529673 -0.00049721607 -0.18262573 -0.049472585 -0.02399607 -0.0018237107 -0.06818808 -0.038811963
0.104402475 -0.03002387 0.35098344 -0.027375005 0.20459121 -0.032781128 0.12639853 -0.04501058
0.03186291 -0.034780152 -0.36230972 0.17313702 0.047497787 -0.013952896 -0.12268199 0.015987001
-0.007267989 -0.013328591 0.10314296 0.053941667 -0.32379374 -0.030431164 0.06328414 -0.21507426
0.019382007 0.04991388 0.058069225 0.24415264 -0.025370907 -0.014258151 -0.27640262 -0.037934992
0.048435826 -0.06559404 0.24387956 -0.13551092 0.073550604 -0.17515232 -0.011225425 0.039621964
0.056792654 0.054047517 -0.02677842 0.056887414 0.015893288 -0.1493308 -0.09732729 0.16741654
-0.3205892 0.25147533 0.0017161701 0.043955747 -0.3495039 -0.2971525 0.14132543 -0.180556
-0.039358124 -0.07702079 0.2108251 -0.22532219 0.061291542 0.1592541 0.06829333 -0.0675326
0.0119788265 0.09800105 0.005857504 -0.09997996 0.003884228 -0.10137981 -0.11244594 -0.024776014
0.049553093 0.15421234 0.08125792 0.0016454734 0.12520641 0.0048484574 0.043411836 -0.016772171
-0.122396834 -0.021826863 -0.15559976 0.09110711 -0.22704096 0.33507636 0.01610203 0.2178747
-0.25087693 -0.003349956 -0.3452979 -0.076454915 -0.23718369 0.050345544 0.024341943 -0.16386116
0.10773377 -0.011489272 0.04133802 -0.038989186 -0.11156868 -0.011232851 -0.11434562 0.06369826
0.018330714 -0.32513314 -0.017580092 -0.0660362 -0.09979033 0.0020871928 0.07201025 0.018982459
0.03369754 0.065680385 -0.36972556 -0.1492639 0.005192623 -0.10156059 -0.07803115 -0.03379594
-0.21540411 0.0013029409 0.00042625263 0.018220806 0.048487034 0.022642963 -0.22011 0.29016146
-0.04915331 0.04877077 0.014770075 0.09574084 0.08928791 -0.52053654 -0.02175536 0.086573586
0.019940756 -0.024460768 -0.040707096 -0.011575978 0.056411386 0.041720156 0.0105505595 -0.023165498
-0.057893172 -0.5451345 0.06692965 -0.32846677 0.12299208 0.38958764 0.21834344 0.07122693
0.035221078 0.15771806 0.040489633 -0.0070612794 -0.026261229 0.012846966 0.047905024 0.1585014
-0.108506 0.09337099 0.14722838 0.014216574 0.18329409 0.00969562 0.09510773 0.055929266
0.27229965 0.09151446 0.08683447 -0.0380407 -0.32729977 -0.037866134 0.26899233 -0.004702431
-0.4339016 0.058668543 0.08662448 0.18548982 0.17598076 0.23988809 0.10413004 -0.034275826
-0.027507314 -0.046012647 0.0014509796 -0.27494574 -0.040957976 0.019385124 -0.25801206 -0.114303
0.15633734 0.15997757 -0.009482194 -0.05174112 -0.016277919 0.044479903 0.10619048 0.07072526
-0.19052184 -0.0046142405 0.0033165745 -0.009258792 -0.28548008 0.018675262 0.014836866 0.0019271697
-0.042376485 -0.14605029 -0.08641592 -0.23357756 0.0035594278 -0.020048723 -0.33554524 0.05812762
-0.09387468 -0.033120383 0.02317423 0.023872528 -0.2736608 -0.021867871 0.19530088 -0.024982793
00000000: de77 d33d 72e0 2b3e cd48 36bd 370f 903d
00000010: ac8a ff3c 4efb 953e a31a 00bd 85f2 a4bd
00000020: 0f49 49be 3758 903c a0f7 163d f42d 12be
00000030: a3ce 263d 4615 263e 7ea5 2c3c 5839 9dbd
00000040: 17a4 24bd 0058 223e 99b4 263e a076 f9bc
00000050: 41b1 983e 96ac d8be c6b4 70bd 4d19 f53d
00000060: 4e39 523e 9b57 02ba 3d02 3bbe c4a3 4abd
00000070: 6893 c4bc 9409 efba 31a6 8bbd 4bf9 1ebd
00000080: f7d0 d53d 9ef4 f5bc 1ab4 b33e 8c41 e0bc
00000090: 5c80 513e 8145 06bd 9e6e 013e 045d 38bd
000000a0: af82 023d a275 0ebd a980 b9be d54a 313e
000000b0: 0a8d 423d b09a 64bc b240 fbbd 2cf7 823c
000000c0: 5028 eebb 2a60 5abc 9e3c d33d f0f1 5c3d
000000d0: 4bc8 a5be c74a f9bc 1d9b 813d 6d3c 5cbe
000000e0: 04c7 9e3c 7f72 4c3d ffd9 6d3d 2603 7a3e
000000f0: a6d6 cfbc 059b 69bc a584 8dbe b961 1bbd
00000100: a564 463d 2b56 86bd 90bb 793e 60c3 0abe
00000110: b3a1 963d 215b 33be d8ea 37bc a44a 223d
00000120: 6a9f 683d ee60 5d3d 6b5e dbbc c702 693d
00000130: a432 823c 2cea 18be 8853 c7bd 3e6f 2b3e
00000140: 4524 a4be 60c1 803e 1df1 e03a f10a 343d
00000150: 2df2 b2be 5f24 98be 9db7 103e ace3 38be
00000160: fc35 21bd 13bd 9dbd 89e2 573e dcba 66be
00000170: d70c 7b3d 8213 233e 60dd 8b3d 884e 8abd
00000180: d742 443c c6b4 c83d 4ef0 bf3b 4bc2 ccbd
00000190: 888e 7e3b 38a0 cfbd 0f4a e6bd 11f7 cabc
000001a0: 2ff8 4a3d d7e9 1d3e 8d6a a63d edac d73a
000001b0: 1c36 003e cfdf 9e3b 9cd0 313d cb65 89bc
000001c0: 31ab fabd 40ce b2bc 8b55 1fbe 5d96 ba3d
000001d0: 6d7d 68be 218f ab3e 68e8 833c 8c1a 5f3e
000001e0: f172 80be ef8a 5bbb e3ca b0be 6594 9cbd
000001f0: 48e0 72be 2137 4e3d c168 c73c 38cb 27be
00000200: 86a3 dc3d 803d 3cbc 0e52 293d 20b3 1fbd
00000210: 1f7e e4bd fe09 38bc 092e eabd 3c74 823d
00000220: 4b2a 963c da77 a6be 2004 90bc fd3d 87bd
00000230: df5e ccbd 49c9 083b 1c7a 933d 1a81 9b3c
00000240: 6f06 0a3d 7083 863d ab4c bdbe a3d8 18be
00000250: e126 aa3b 00ff cfbd ccce 9fbd 9d6d 0abd
00000260: e592 5cbe 71c7 aa3a a97a df39 cd43 953c
00000270: 579a 463d bc7d b93c 8464 61be 0b90 943e
00000280: fb54 49bd dcc3 473d 2ffe 713c c613 c43d
00000290: 94dc b63d e241 05bf 4c38 b2bc 7e4d b13d
000002a0: cc5a a33c f361 c8bc 7cbc 26bd 2ca9 3dbc
000002b0: a00f 673d c1e2 2a3d 41dc 2c3c 92c5 bdbc
000002c0: 6421 6dbd ef8d 0bbf 6a12 893d cc2c a8be
000002d0: 46e3 fb3d 0878 c73e 6c95 5f3e 6ddf 913d
000002e0: fa43 103d d880 213e 75d8 253d 4e62 e7bb
000002f0: ca21 d7bc 157c 523c 0f38 443d 314e 223e
00000300: 6538 debd 4a39 bf3d 09c3 163e a2ec 683c
00000310: 72b1 3b3e 61da 1e3c d7c7 c23d 1616 653d
00000320: dc6a 8b3e ef6b bb3d 45d6 b13d 91d0 1bbd
00000330: d693 a7be 8519 1bbd 5db9 893e da16 9abb
00000340: 5a28 debe 6d4e 703d 2d68 b13d 0bf1 3d3e
00000350: 4d34 343e 39a5 753e 2142 d53d cf64 0cbd
00000360: 0557 e1bc c277 3cbd cc2e be3a b0c5 8cbe
00000370: 8dc3 27bd 8dcd 9e3c 281a 84be b117 eabd
00000380: e516 203e 29d1 233e 345b 1bbc 7fee 53bd
00000390: 4559 85bc 8f30 363d 657a d93d 68d8 903d
000003a0: 2818 43be 0e33 97bb e35a 593b 30b2 17bc
000003b0: 722a 92be ddfc 983c 5416 733c 1699 fc3a
000003c0: f792 2dbd 358e 15be d4fa b0bd f52e 6fbe
000003d0: 4a45 693b 383d a4bc 96cc abbe 3a17 6e3d
000003e0: 5e41 c0bd 3da9 07bd e2d7 bd3c 5290 c33c
000003f0: 451d 8cbe 4024 b3bc f4fc 473e b7a8 ccbc

seq.2.bias f4 [100]
-0.15818368 -0.15637398 -0.0525988 0.01690709 0.40932065 0.0014905833 -0.14781818 -0.048167277
-0.1467322 -0.25337136 -0.20547159 -0.12334595 -0.24057941 -0.07433377 -0.025547935 -0.2582133
-0.06687681 0.22793795 -0.11066901 -0.0873273 -0.0895296 -0.29354516 0.11035184 -0.10794494
-0.13746066 -0.22210461 -0.1320991 -0.16146 -0.09824998 -0.1490602 -0.08071822 -0.19902836
-0.09910469 -0.14010577 -0.0051047015 -0.1940205 0.020056825 -0.25492284 -0.14151666 0.27705598
-0.21243583 -0.09516684 -0.108718514 -0.136519 0.0541197 -0.20555258 -0.1617883 -0.18983983
-0.0706213 -0.14323948 -0.13541467 -0.093547046 -0.22084218 -0.21985973 -0.065923996 -0.14395013
-0.11220048 0.076981656 -0.088328235 -0.18783793 0.422473 -0.035133004 0.21025404 0.3605963
-0.043214735 -0.058008213 -0.19479302 -0.15890536 -0.24038759 -0.19864744 -0.16784227 -0.20549199
0.34092104 -0.040151045 -0.2261274 -0.07282306 -0.15949936 -0.20216627 -0.21510422 -0.2312996
-0.14116883 0.16497384 -0.07903476 0.07416586 -0.111106895 -0.12080767 0.041815553 -0.17014526
-0.1663662 -0.14200358 -0.08343608 -0.1631443 -0.1494136 -0.15933566 0.029211124 -0.14843568
-0.1868877 -0.20025352 -0.085818894 -0.047342237
00000000: e7fa 21be 8020 20be d771 57bd bd80 8a3c
00000010: 7a92 d13e ad5f c33a a65d 17be 0d4b 45bd
00000020: f740 16be e4b9 81be 2567 52be cd9c fcbd
00000030: 735a 76be 4e3c 98bd e749 d1bc 8934 84be
00000040: b5f6 88bd 9168 693e 6fa6 e2bd a8d8 b2bd
00000050: 4c5b b7bd 8d4b 96be 2500 e23d 3d12 ddbd
00000060: 7dc2 0cbe 646f 63be fd44 07be c555 25be
00000070: 4937 c9bd 3da3 18be 984f a5bd 17ce 4bbe
00000080: 66f7 cabd e377 0fbe 5745 a7bb 4fad 46be
00000090: 364e a43c 3f85 82be bee9 10be 48da 8d3e
000000a0: c788 59be d5e6 c2bd d0a7 debd a3cb 0bbe
000000b0: 9eac 5d3d 607c 52be d5ab 25be 5f65 42be
000000c0: e6a1 90bd 5fad 12be 25aa 0abe 9895 bfbd
000000d0: 7424 62be e922 61be 2903 87bd aa67 13be
000000e0: 5ec9 e5bd 8fa8 9d3d 6fe5 b4bd 9658 40be
000000f0: 624e d83e a0e7 0fbd d64c 573e 14a0 b83e
00000100: ef01 31bd 059a 6dbd d277 47be 16b8 22be
00000110: 2a28 76be 3c6a 4bbe d8de 2bbe 7e6c 52be
00000120: 348d ae3e 6c75 24bd f18d 67be 4224 95bd
00000130: cd53 23be ad04 4fbe 4844 5cbe cdd9 6cbe
00000140: 908e 10be e7ee 283e fadc a1bd 45e4 973d
00000150: 038c e3bd 036a f7bd c946 2b3d 8f3a 2ebe
00000160: e75b 2abe 6369 11be 89e0 aabd 4d0f 27be
00000170: e1ff 18be e328 23be 2b4c ef3c 86ff 17be
00000180: 7d5f 3fbe 420f 4dbe d1c1 afbd efe9 41bd

seq.4.weight f4 [100, 100]
0.027313571 -0.011922772 0.060145434 -0.24900548 -0.1712145 0.22418793 -0.058383383 -0.1629092
-0.2091364 0.0011077682 -0.22086062 -0.3905493 0.060956363 0.011583246 0.015489479 0.06734759
0.19333398 -0.06547581 0.2505257 -0.14475715 -0.17515278 -0.5380066 0.11895178 -0.045624528
-0.044761643 0.1917686 0.08168405 -0.15736656 -0.13736472 -0.14728415 -0.0051892563 -0.0475964
-0.02568004 0.02844062 -0.044132844 0.090814605 0.13560708 -0.25867972 0.19706602 -0.028397525
-0.02111401 -0.067431085 0.011143192 -0.046342794 0.06108672 -0.1896221 -0.096383296 -0.26162332
-0.31280705 -0.1353242 -0.04827971 -0.026788455 -0.2620959 0.15436494 0.00845218 -0.3209784
0.03454825 0.06326043 0.2251774 -0.11674479 -0.13968752 0.1668393 -0.098848954 -0.082377076
0.34662864 -0.27800345 -0.30784622 0.2156119 -0.064197734 -0.028972596 0.17262405 -0.15122259
-0.16875009 0.31353095 -0.0024644118 -0.058205303 -0.15014112 0.23924913 0.12527958 -0.24953249
0.1767571 0.029480243 -0.07327524 -0.14349172 0.0050951666 0.26617852 -0.010074174 0.06353281
-0.052361477 -0.005851637 -0.32588387 -0.03184722 0.08311577 0.10942076 -0.4073397 0.016788978
0.15612918 -0.18398683 0.071031295 0.6405745 -0.072181635 0.16277978 0.072888315 0.08114832
0.03604918 -0.1485828 -0.015031477 0.12355028 -0.2396597 0.05721416 -0.012413729 -0.31616735
0.09721117 -0.30490202 0.17715797 -0.0727774 -0.09948605 -0.5538944 0.15426856 -0.03378638
0.2469732 0.1313902 -0.15892726 0.03400971 -0.3229163 -0.096506886 -0.15309109 -0.08150135
-0.06683284 -0.17776082 -0.28901652 -0.14975934 -0.17811084 -0.05441922 -0.23437433 -0.12108205
-0.37482506 -0.40493342 -0.06775875 0.012853665 0.09922454 -0.15854473 0.22295861 0.3941011
-0.6437411 -0.07861586 0.18526338 -0.2267722 -0.11692842 0.22366321 0.044330567 -0.08129919
0.10466857 -0.14236352 0.049376007 -0.23679103 -0.109978884 -0.12149318 0.24376774 -0.043616902
-0.42439988 -0.30245253 -0.03039193 -0.35954508 -0.1366938 -0.39498416 -0.046022907 -0.13638295
-0.03136711 0.16200721 0.20172735 -0.21920215 -0.1908495 -0.04947514 0.1227676 -0.09581644
0.20300113 -0.11621516 -0.018542454 0.073342636 0.1409464 -0.22168458 -0.1404153 0.15278237
0.106051676 -0.2432637 0.16381794 0.05387101 -0.28695682 0.005464724 -0.3785689 0.022256982
0.027896978 -0.23819722 0.2411168 -0.22212455 0.17105222 -0.2830908 0.14029741 -0.22957349
-0.09775059 -0.0030990108 0.08344994 0.054245643 -0.041613214 -0.002960154 0.026570968 0.015856927
0.067193344 -0.047028303 0.025235618 0.00053584913 0.014547356 -0.029592203 -0.021076057 -0.020105975
-0.06775287 0.014520706 -0.09477275 -0.0806071 -0.025776211 -0.13052703 -0.018111743 0.086888246
0.05515706 -0.12338452 0.07669221 0.01752238 0.005411819 -0.020957097 -0.072472975 0.08924245
-0.09647485 -0.07291349 0.019002922 -0.08201038 -0.046950173 -0.007852094 -0.031366523 -0.07575428
-0.048804536 -0.030711187 -0.028629415 -0.07748712 -0.091461174 -0.10447343 -0.0023257157 -0.020358823
0.0865041 -0.055461667 0.0699543 -0.087278895 0.038810395 -0.1014096 -0.0072999424 -0.06621112
00000000: b6c0 df3c bb57 43bc 0f5b 763d 4bfb 7ebe
00000010: db52 2fbe 8591 653e 6a23 6fbd abd1 26be
00000020: da27 56be 8832 913a 4929 62be 14f6 c7be
00000030: 61ad 793d a8c7 3d3c 95c7 7d3c 89ed 893d
00000040: 58f9 453e 2e18 86bd e844 803e 383b 14be
00000050: 405b 33be cdba 09bf fe9c f33d c9e0 3abd
00000060: fc57 37bd fd5e 443e f849 a73d b324 21be
00000070: 56a9 0cbe a8d1 16be a30a aabb 71f4 42bd
00000080: f25e d2bc 4efc e83c a4c4 34bd 02fd b93d
00000090: 95dc 0a3e ab71 84be adcb 493e eda1 e8bc
000000a0: 4af7 acbc 4f19 8abd ef91 363c f1d1 3dbd
000000b0: 1236 7a3d 4c2c 42be 9b64 c5bd 7ef3 85be
000000c0: 3f28 a0be 6d92 0abe f2c0 45bd 7673 dbbc
000000d0: 6f31 86be d811 1e3e 037b 0a3c 4857 a4be
000000e0: 7782 0d3d af8e 813d e894 663e e417 efbd
000000f0: 3f0a 0fbe ecd7 2a3e 5271 cabd 50b5 a8bd
00000100: 4f79 b13e 7856 8ebe 059e 9dbe 5ec9 5c3e
00000110: 1a7a 83bd f057 edbc 5cc4 303e 18da 1abe
00000120: d3cc 2cbe 2187 a03e f881 21bb af68 6ebd
00000130: 98be 19be b9fd 743e 4a49 003e 7285 7fbe
00000140: d0ff 343e 8d80 f13c 5411 96bd 7eef 12be
00000150: 5bf5 a63b 8d48 883e 260e 25bc 7d1d 823d
00000160: fd78 56bd 17bf bfbb 40da a6be 3b72 02bd
00000170: 9a38 aa3d fe17 e03d d48e d0be 0a89 893c
00000180: 54e0 1f3e 0b67 3cbe db78 913d b1fc 233f
00000190: f7d3 93bd beaf 263e 7846 953d 1731 a63d
000001a0: 4ea8 133d 1726 18be 9646 76bc ee07 fd3d
000001b0: 5a69 75be 6559 6a3d f462 4bbc b0e0 a1be
000001c0: a616 c73d 1e1c 9cbe e668 353e 510c 95bd
000001d0: 58bf cbbd 06cc 0dbf 94f8 1d3e 9663 0abd
000001e0: 8be6 7c3e 278b 063e d4bd 22be c44d 0b3d
000001f0: 4955 a5be 67a5 c5bd e9c3 1cbe 2eea a6bd
00000200: a8df 88bd ef06 36be f9f9 93be 835a 19be
00000210: b062 36be b0e6 5ebd d3ff 6fbe def9 f7bd
00000220: 12e9 bfbe 6f53 cfbe 19c5 8abd 2e98 523c
00000230: 3c36 cb3d 8d59 22be 434f 643e 9fc7 c93e
00000240: 37cc 24bf 5a01 a1bd afb5 3d3e f936 68be
00000250: 2b78 efbd f807 653e f893 353d 3180 a6bd
00000260: 7a5c d63d bec7 11be 7f3e 4a3d 5979 72be
00000270: 9c3c e1bd 6bd1 f8bd 409e 793e a3a7 32bd
00000280: f14a d9be 0fdb 9abe 7ff8 f8bc 4b16 b8be
00000290: 76f9 0bbe 5d3b cabe 8482 3cbd f9a7 0bbe
000002a0: cc7a 00bd 38e5 253e 9d91 4e3e 8776 60be
000002b0: 0d6e 43be 72a6 4abd 946d fb3d 693b c4bd
000002c0: 87df 4f3e 3702 eebd 58e6 97bc aa34 963d
000002d0: 4154 103e 4801 63be 07c9 0fbe fb72 1c3e
000002e0: 9f31 d93d 1f1a 79be e4bf 273e d9a7 5c3d
000002f0: 01ec 92be 6d11 b33b c8d3 c1be 4654 b63c
00000300: 3488 e43c f9e9 73be 53e7 763e 9e74 63be
00000310: 5028 2f3e 47f1 90be 20aa 0f3e 5015 6bbe
00000320: 7631 c8bd c618 4bbb cde7 aa3d ae30 5e3d
00000330: 9e72 2abd 25ff 41bb 5cab d93c 63e6 813c
00000340: aa9c 893d c0a0 40bd edba ce3c 3a78 0c3a
00000350: 0958 6e3c 596b f2bc b2a7 acbc 49b5 a4bc
00000360: 04c2 8abd 41e8 6d3c 3718 c2bd 5615 a5bd
00000370: a228 d3bc e1a8 05be 145f 94bc 77f2 b13d
00000380: 5fec 613d 06b1 fcbd ce10 9d3d 188b 8f3c
00000390: a155 b13b 38ae abbc b66c 94bd bfc4 b63d
000003a0: 9b94 c5bd ab53 95bd 04ac 9b3c 0ff5 a7bd
000003b0: d34e 40bd 12a6 00bc 2f7a 00bd 0f25 9bbd
000003c0: 44e7 47bd 0796 fbbc 3c88 eabc 91b1 9ebd
000003d0: ff4f bbbd 2af6 d5bd 096b 18bb 8cc7 a6bc
000003e0: 1029 b13d c62b 63bd 3344 8f3d 47bf b2bd
000003f0: a6f7 1e3d d6af cfbd 5b34 efbb b299 87bd

seq.4.bias f4 [100]
0.016686374 -0.036014944 -0.17895027 0.23120533 -0.018105183 -0.09598658 -0.10009872 0.20239489
-0.1748713 -0.1526235 0.02885825 -0.24752255 0.18304764 -0.07587145 -0.01673289 0.07047211
-0.14512874 0.06867871 0.16379619 -0.14173801 0.31794736 0.00049448165 -0.026421558 -0.29750556
0.40102854 0.28582373 -0.1966268 -0.07741744 -0.06244641 -0.027085925 0.005337772 -0.13066934
-0.17746155 0.09999639 0.2930549 -0.036730263 -0.18964688 -0.22743453 -0.08449211 0.035002775
-0.076383874 0.012235163 -0.1657553 -0.030535026 -0.13695872 0.27207062 -0.047507938 0.12612651
-0.04945655 -0.030255402 -0.030074293 -0.0138692325 -0.12045481 -0.10724569 -0.2080141 -0.0010153668
-0.07457793 -0.06531552 -0.20779638 0.017875262 -0.09324475 -0.10239874 -0.17353782 -0.0064147525
-0.14562444 -0.15185657 -0.09835186 -0.04623141 -0.03023573 -0.26817027 -0.1260377 -0.22321196
0.09404639 -0.11989707 0.074553505 0.10771982 -0.12910432 -0.01993176 0.003647388 0.06052295
-0.04774807 -0.1533469 -0.1967729 -0.10293016 0.036304783 0.1577614 -0.23694713 0.09530553
-0.23208153 0.066605546 -0.17173392 -0.03951783 0.45334744 -0.1033142 -0.011894515 -0.29141822
-0.14419247 -0.107181914 -0.094638646 0.27004036
00000000: ddb1 883c 6884 13bd bd3e 37be 17c1 6c3e
00000010: 5251 94bc 9d94 c4bd 8f00 cdbd 9b40 4f3e
00000020: 7611 33be 5649 1cbe 2368 ec3c 8d76 7dbe
00000030: d770 3b3e 7e62 9bbd 6a13 89bc ae53 903d
00000040: a19c 14be 6ca7 8c3d 30ba 273e c523 11be
00000050: ffc9 a23e 1aa0 013a 0672 d8bc a652 98be
00000060: 9d53 cd3e 7d57 923e 8958 49be 098d 9ebd
00000070: cfc7 7fbd 4de3 ddbc 7ae8 ae3b 2fce 05be
00000080: 7bb8 35be e8ca cc3d 4b0b 963e 7972 16bd
00000090: cb32 42be 99e4 68be 330a adbd 125f 0f3d
000000a0: 266f 9cbd fe75 483c c2bb 29be 9724 fabc
000000b0: e83e 0cbe d74c 8b3e af97 42bd 4f27 013e
000000c0: f492 4abd 2dda f7bc 5d5e f6bc c73b 63bc
000000d0: 03b1 f6bd a1a3 dbbd a601 55be 0e16 85ba
000000e0: 50bc 98bd 25c4 85bd 93c8 54be 246f 923c
000000f0: 1af7 bebd 6eb6 d1bd e6b3 31be d832 d2bb
00000100: 931e 15be 4a80 1bbe b36c c9bd 265d 3dbd
00000110: ecb0 f7bc 9d4d 89be 0710 01be ad91 64be
00000120: 659b c03d 988c f5bd 82af 983d 369c dc3d
00000130: ec33 04be ee47 a3bc 0409 6f3b eae6 773d
00000140: 7b93 43bd f806 1dbe d67e 49be 0ccd d2bd
00000150: 53b4 143d 348c 213e 45a2 72be 8c2f c33d
00000160: c8a6 6dbe 7d68 883d 04db 2fbe 73dd 21bd
00000170: 281d e83e 6596 d3bd 36e1 42bc c534 95be
00000180: 31a7 13be 3182 dbbd e8d1 c1bd bb42 8a3e

seq.6.weight f4 [50, 100]
-0.114825346 0.14489119 0.08189323 -0.07101139 0.2283288 -0.10582855 -0.09532637 0.19458912
-0.024628986 -0.030061603 0.1414014 -0.13444658 0.0014758247 0.10373692 -0.04087993 0.13935919
0.032458823 0.019726157 -0.44099534 -0.060192425 -0.6294358 0.13655822 0.1475883 -0.11213097
-0.31770316 0.03579959 -0.059083674 0.094239786 0.043260373 0.025707863 -0.057234395 -0.114754766
-0.009601034 0.14398743 -0.044963717 0.02987639 0.15781197 0.05090852 0.05587795 -0.02954261
-0.0077285017 0.031827297 -0.084256195 -0.059477583 -0.15436049 -0.06697501 0.11261988 -0.16679598
-0.069255464 -0.028670108 0.23517804 -0.20473193 -0.05450489 -0.05880643 0.0843223 -0.32698405
0.019803464 -0.048617937 -0.0029960896 -0.10065925 0.23690087 -0.005528707 0.19843921 -0.11585607
-0.01994431 0.014243924 -0.102526195 -0.22165972 0.075467244 -0.013726723 0.09628342 -0.013903279
0.044898376 -0.10108666 0.11713112 -0.052854154 0.07706386 0.01624693 -0.3721684 0.013360221
-0.09549504 0.14330824 0.07629633 -0.018261153 0.058182918 0.07766259 0.14515698 -0.11998219
0.05458151 -0.047474194 -0.0361867 -0.14986499 0.043230597 -0.08906729 0.0879627 0.18532842
-0.0653653 -0.06445292 0.045746524 -0.26425424 0.10873042 0.050402634 0.05706059 -0.11184865
0.019057358 0.0023115822 -0.0030284626 -0.037833285 -0.05202348 0.012469437 -0.09452293 -0.32024476
-0.06489884 0.052069854 0.111294694 -0.07947879 -0.021548465 -0.022554286 -0.23400947 0.14821488
-0.18777288 0.110626474 -0.15477549 0.0045333514 -0.20109361 -0.09242614 -0.21229012 0.05169855
-0.15287617 0.117032945 0.06502051 -0.15318726 -0.022576902 0.6847873 -0.02788894 -0.39025283
-0.019133702 -0.026093503 -0.007974333 0.056336723 0.124560356 0.070242785 0.014328585 0.14211775
0.018139204 0.105593614 0.014267457 0.14424953 -0.062091973 -0.12466152 -0.05121423 0.005414216
0.06711118 0.03725263 -0.0032046363 -0.7812897 -0.070546135 0.070915006 -0.21068487 -0.026408033
0.12805188 -0.03885658 0.027291019 -0.15845366 0.0778292 -0.012794737 0.030399742 0.39670497
-0.073802315 0.13860121 0.068792745 0.07439173 -0.20617373 -0.122993775 0.2339741 -0.15311496
-0.078063264 0.026373586 -0.11134231 -0.042276546 -0.15404998 -0.20752493 0.096075445 -0.010967849
0.120652765 0.09001254 -0.023985405 0.068717346 0.18294178 -0.13092868 0.04756736 -0.61001784
0.072493695 -0.2722206 -0.11611839 0.014241845 0.058916777 0.012350465 0.16381763 0.14413123
-0.05096196 0.08579036 0.023746569 -0.19095874 0.047118604 -0.03132449 -0.23764358 -0.027074134
-0.01984777 0.080588266 -0.011887736 -0.19334972 -0.08903095 -0.10797585 -0.05318971 0.03886098
-0.011604796 0.0024335992 -0.4766882 -0.055161532 -0.46294457 0.10322841 -0.08207942 -0.0021472133
-0.21386729 -0.01950564 -0.3121552 -0.107862286 -0.08198669 -0.028327364 -0.13913709 -0.19556418
0.064571664 0.47590032 -0.25556952 -0.23234409 0.0763562 -0.14693934 -0.103528164 0.08105505
-0.05039581 0.011769914 0.10559998 0.05642205 0.061002694 0.05275896 -0.10419605 -0.055487446
-0.10827869 0.11904924 -0.04313579 0.011605612 0.0045428313 -0.19984676 -0.11112382 -0.21617115
00000000: 8d29 ebbd 5b5e 143e a3b7 a73d 6b6e 91bd
00000010: 06cf 693e a4bc d8bd 793a c3bd 5f42 473e
00000020: bac2 c9bc c043 f6bc 87cb 103e 5dac 09be
00000030: 7670 c13a 0674 d43d b771 27bd 2db4 0e3e
00000040: 8bf3 043d c098 a13c 24ca e1be 558c 76bd
00000050: b422 21bf ebd5 0b3e 6321 173e eca4 e5bd
00000060: fda9 a2be 97a2 123d b901 72bd ca00 c13d
00000070: ca31 313d 4c99 d23c 9d6e 6abd 8c04 ebbd
00000080: a84d 1dbc 7171 133e e02b 38bd 55bf f43c
00000090: 7699 213e 7485 503d 47e0 643d 5803 f2bc
000000a0: 5f3f fdbb 575d 023d 838e acbd c49e 73bd
000000b0: ad10 1ebe 322a 89bd 40a5 e63d 91cc 2abe
000000c0: cfd5 8dbd 93dd eabc 83d2 703e 3fa5 51be
000000d0: 8540 5fbd 03df 70bd 2cb1 ac3d 746a a7be
000000e0: e03a a23c 9a23 47bd 0b5a 44bb 7026 cebd
000000f0: 2496 723e 282a b5bb a633 4b3e f245 edbd
00000100: 4062 a3bc 595f 693c 41f9 d1bd c4fa 62be
00000110: 928e 9a3d 0de6 60bc 3e30 c53d 94ca 63bc
00000120: 5ce7 373d 8606 cfbd 71e2 ef3d 997d 58bd
00000130: a8d3 9d3d 4818 853c db8c bebe d4e4 5a3c
00000140: e792 c3bd 65bf 123e 4041 9c3d 6a98 95bc
00000150: 3651 6e3d 900d 9f3d 08a4 143e 39b9 f5bd
00000160: dd90 5f3d 4d74 42bd 8138 14bd 3576 19be
00000170: 9112 313d e968 b6bd ca25 b43d bcc6 3d3e
00000180: 3ede 85bd e4ff 83bd b560 3b3d 554c 87be
00000190: 0eae de3d fe72 4e3d 5db8 693d e810 e5bd
000001a0: 2d1e 9c3c ea7d 173b 2c79 46bb 13f7 1abd
000001b0: 9316 55bd 9c4c 4c3c 3d95 c1bd 1ff7 a3be
000001c0: afe9 84bd 3347 553d 79ee e33d c7c5 a2bd
000001d0: 6886 b0bc c4c3 b8bc 2ea0 6fbe a4c5 173e
000001e0: 8947 40be 2290 e23d 777d 1ebe 828c 943b
000001f0: 7ceb 4dbe eb49 bdbd 9562 59be dcc1 533d
00000200: 928b 1cbe f8ae ef3d 7929 853d 1fdd 1cbe
00000210: 32f3 b8bc 384e 2f3f 5977 e4bc 38cf c7be
00000220: 48be 9cbc 0bc2 d5bc c7a6 02bc 56c1 663d
00000230: 8019 ff3d 73db 8f3d 71c2 6a3c 5187 113e
00000240: ab98 943c 7741 d83d 0dc2 693c 26b6 133e
00000250: 2754 7ebd 8a4e ffbd 03c6 51bd bc69 b13b
00000260: 9671 893d 3796 183d e004 52bb 9a02 48bf
00000270: 7e7a 90bd e33b 913d c6bd 57be a955 d8bc
00000280: 0820 033e 1428 1fbd 6a91 df3c ad41 22be
00000290: ea64 9f3d 04a1 51bc e108 f93c ea1c cb3e
000002a0: ab25 97bd 7aed 0d3e 36e3 8c3d b15a 983d
000002b0: 351f 53be 29e4 fbbd e896 6f3e 2bca 1cbe
000002c0: a2df 9fbd 6b0d d83c 7007 e4bd 2c2a 2dbd
000002d0: 47bf 1dbe 6a81 54be 34c3 c43d 7eb2 33bc
000002e0: cc18 f73d 7f58 b83d 0a7d c4bc aebb 8c3d
000002f0: 1755 3b3e 2b12 06be fed5 423d 212a 1cbf
00000300: 9377 943d 8060 8bbe 7acf edbd a156 693c
00000310: b852 713d 9b59 4a3c cfbf 273e 2397 133e
00000320: 7dbd 50bd dbb2 af3d 2a88 c23c b08a 43be
00000330: 70ff 403d 1c4e 00bd d758 73be 93ca ddbc
00000340: ca97 a2bc 760b a53d c7c4 42bc 78fd 45be
00000350: dc55 b6bd 7122 ddbd 74dd 59bd b12c 1f3d
00000360: 0b22 3ebc 057d 1f3b 7a10 f4be 0ff1 61bd
00000370: 1207 edbe 6b69 d33d 4119 a8bd 43b8 0cbb
00000380: 0700 5bbe 4bca 9fbc ced2 9fbe e7e6 dcbd
00000390: a3e8 a7bd ca0e e8bc f479 0ebe fa41 48be
000003a0: 263e 843d 35a9 f33e 02da 82be 9ceb 6dbe
000003b0: a460 9c3d 4477 16be 9306 d4bd 3100 a63d
000003c0: d66b 4ebd 99d6 403c cd44 d83d cf1a 673d
000003d0: f6dd 793d c719 583d bd64 d5bd ce46 63bd
000003e0: 38c1 ddbd 17d0 f33d 27af 30bd 7725 3e3c
000003f0: 08dc 943b a1a4 4cbe e394 e3bd f85b 5dbe

seq.6.bias f4 [50]
0.10293993 0.107787095 0.16331695 0.09192271 -0.44920176 -0.08817493 0.20320678 0.2554164
-0.1007291 -0.043597855 0.26300266 0.015697679 0.09624164 -0.025616458 -0.043841634 0.22086813
-0.0050379424 -0.013190791 0.06044436 0.19889437 -0.046579964 0.23432767 -0.109315254 0.24292618
0.28536126 0.041878548 0.46657547 0.36626482 -0.123269215 0.19807537 -0.15432723 0.36273864
-0.029510913 0.010442151 -0.14821966 -0.15280873 0.088789515 -0.05459843 0.078877255 0.35498825
0.3074583 0.0146791255 0.07434956 -0.005787742 0.37038252 0.16699052 0.10715017 -0.041392386
0.093865365 0.037919544
00000000: 2cd2 d23d 7bbf dc3d 8f3c 273e f941 bc3d
00000010: c6fd e5be 0f95 b4bd 7015 503e f0c5 823e
00000020: 0f4b cebd aa93 32bd 49a8 863e 6b98 803c
00000030: 561a c53d 9bd9 d1bc 4993 33bd 412b 623e
00000040: 5315 a5bb 301e 58bc 8194 773d f7aa 4b3e
00000050: a2ca 3ebd 98f3 6f3e ade0 dfbd a4c1 783e
00000060: df1a 923e d788 2b3d fbe2 ee3e 1087 bb3e
00000070: 9274 fcbd 45d4 4a3e f507 1ebe e1b8 b93e
00000080: dfc0 f1bc 8e15 2b3c e5c6 17be e479 1cbe
00000090: 47d7 b53d 9aa2 5fbd 668a a13d 05c1 b53e
000000a0: 2d6b 9d3e b780 703c 9544 983d 19a7 bdbb
000000b0: c7a2 bd3e 90ff 2a3e 8c71 db3d 108b 29bd
000000c0: 7c3c c03d 8651 1b3d

adv_1.0.weight f4 [20, 50]
0.034065556 -0.03860119 0.09658252 0.14091028 0.3328396 0.06573415 -0.09595254 -0.09508286
0.20153213 0.08242312 0.0489496 0.0198922 0.37650937 0.15677509 0.02432017 0.11073271
0.24636947 0.0039168447 0.06430988 0.021369152 0.22743234 -0.13600072 0.045172274 -0.2976124
0.032041233 0.13832763 -0.16699034 -0.13584042 -0.045376055 0.03614489 0.19977708 -0.016680107
0.16860615 0.2046073 0.30651537 0.1524412 0.08886127 -0.23584755 0.22687139 -0.5061009
0.10262286 0.15859976 0.0831846 0.06779104 -0.3912284 -0.116112895 -0.12464488 0.08062796
0.06281069 -0.0069109956 0.28826824 -0.0034069826 -0.005556023 -0.23162284 -0.0017080767 0.10238782
0.06808811 -0.374297 0.16076784 -0.08817729 0.06829767 0.1770808 0.08602348 -0.10108807
-0.10147898 0.36521813 -0.033815276 -0.12703519 -0.054298848 0.23581518 -0.0020037557 -0.08358617
-0.07208665 0.30406627 -0.17296956 0.09406723 0.23172879 -0.11651692 0.15321946 0.20084175
-0.30232412 -0.072897464 0.049260795 0.08145809 -0.16779155 -0.14487885 -0.235949 0.17494339
-0.16165553 0.03897075 0.5367639 -0.04730646 0.03263213 0.1584319 0.01545803 -0.439057
-0.13722493 0.32813075 -0.05437327 0.06904107 0.23590633 0.058634937 -0.052718073 0.028149918
-0.6042196 -0.009570215 0.08630672 -0.2236247 0.026854135 -0.26127174 0.005033705 0.12250827
0.0059257764 -0.19640562 -0.16093896 -0.08436033 -0.13425338 0.09777393 -0.14792551 -0.031435438
-0.32930952 -0.36521193 -0.11291657 0.04083476 -0.07869706 0.25038338 0.24393003 -0.2884664
-0.016627407 -0.25438395 0.12861186 -0.7655156 -0.48904026 0.18611479 0.11792641 0.06619846
-0.12930226 -0.46460408 -0.6993078 -0.3927428 0.17842779 -0.18042146 -0.110233404 0.07286494
-0.2706922 -0.18716253 -0.78082544 0.14538391 -0.1567959 0.06070806 -0.040040363 -0.012245542
0.0137202535 -0.034541458 -0.08156988 -0.054100268 -0.12186855 -0.11708861 -0.14276555 0.06650147
0.0268004 -0.018178767 0.01346113 -0.022641107 -0.1268123 -0.15220013 0.020187173 -0.12945193
0.028235577 -0.013549256 0.077324 -0.09595974 0.025234312 0.077917725 -0.12592673 -0.062296852
-0.06495691 0.07302213 0.11509968 -0.10212467 0.006373323 0.06874906 0.045409877 -0.05764616
0.08749625 -0.02109772 -0.045609467 -0.03978421 0.015491581 0.05418965 -0.16712539 -0.1742782
0.032033723 0.0086026145 0.08370708 -0.16364375 -0.013240918 -0.09934078 -0.08857341 -0.13652179
0.06661219 -0.106297836 0.06402865 -0.06419324 0.13654633 0.01501438 -0.14887063 -0.0404464
-0.08150911 -0.15602982 0.08125394 0.099894 -0.046425093 0.062626936 -0.1321578 -0.039431132
-0.022528956 -0.08677563 -0.15485604 0.038085047 -0.13987653 0.021977615 0.10178895 -0.0048027635
-0.12802358 0.03417352 0.004538772 0.06753644 -0.02598738 -0.11980332 -0.14430925 -0.11609588
0.061526835 -0.010435015 -0.09463541 0.032795876 -0.088820025 -0.12242073 -0.10981364 0.025352944
-0.07107798 0.021627175 -0.035687093 0.112298876 -0.079203576 -0.045322552 -0.083838016 0.044015475
0.13470192 -0.0424902 0.19108102 0.12773167 0.1585952 0.2940753 -0.82116723 0.07800018
00000000: 5388 0b3d 481c 1ebd 0ecd c53d c94a 103e
00000010: f469 aa3e a09f 863d c482 c4bd cdba c2bd
00000020: 705e 4e3e 74cd a83d 607f 483d f8f4 a23c
00000030: d6c5 c03e a689 203e 183b c73c d5c7 e23d
00000040: 4748 7c3e e058 803b e6b4 833d 5c0e af3c
00000050: 06e4 683e c643 0bbe 9006 393d a760 98be
00000060: ab3d 033d c2a5 0d3e 84ff 2abe c019 0bbe
00000070: 3edc 39bd aa0c 143d 5d92 4c3e b8a4 88bc
00000080: 17a7 2c3e 9384 513e 95ef 9c3e 8c19 1c3e
00000090: e6fc b53d 0582 71be f950 683e d48f 01bf
000000a0: ef2b d23d fa67 223e b05c aa3d 07d6 8a3d
000000b0: 174f c8be 99cc edbd d145 ffbd 4620 a53d
000000c0: e4a2 803d a275 e2bb e597 933e af47 5fbb
000000d0: 4d0f b6bb 8a2e 6dbe 8be1 dfba b5b0 d13d
000000e0: c771 8b3d dba3 bfbe 53a0 243e 4c96 b4bd
000000f0: a6df 8b3d ab54 353e 142d b03d 4307 cfbd
00000100: 36d4 cfbd dffd ba3e e381 0abd 8315 02be
00000110: 7868 5ebd 8979 713e 7151 03bb 3a2f abbd
00000120: 2aa2 93bd 93ae 9b3e ef1e 31be 52a6 c03d
00000130: 504a 6d3e 6ca0 eebd 90e5 1c3e 76a9 4d3e
00000140: 3aca 9abe 444b 95bd b0c5 493d 80d3 a63d
00000150: 8cd1 2bbe 1f5b 14be 9d9c 71be 5c24 333e
00000160: 0789 25be cb9f 1f3d 5c69 093f 6bc4 41bd
00000170: 45a9 053d f93b 223e ad43 7d3c 14cc e0be
00000180: b184 0cbe c100 a83e 82b6 5ebd 6865 8d3d
00000190: 6e91 713e 302b 703d e8ee 57bd a89a e63c
000001a0: 23ae 1abf 64cc 1cbc 94c1 b03d e0fd 64be
000001b0: 34fd db3c 69c5 85be c7f1 a43b 9ee5 fa3d
000001c0: 042d c23b 8e1e 49be 2fcd 24be 1cc5 acbd
000001d0: b879 09be b33d c83d c979 17be 72c2 00bd
000001e0: 429b a8be 0ffd babe cd40 e7bd 5942 273d
000001f0: ed2b a1bd 4032 803e cbc8 793e deb1 93be
00000200: 3336 88bc 9d3e 82be d4b2 033e d5f8 43bf
00000210: 7c63 fabe e094 3e3e 6783 f13d 0f93 873d
00000220: d067 04be 96e0 edbe d605 33bf 9615 c9be
00000230: c6b5 363e 67c0 38be 0dc2 e1bd 373a 953d
00000240: 2b98 8abe 89a7 3fbe 2de4 47bf 85df 143e
00000250: 1b8f 20be 04a9 783d 5d01 24bd 87a1 48bc
00000260: eaca 603c 587b 0dbd 1c0e a7bd 3e98 5dbd
00000270: 3896 f9bd 27cc efbd 2231 12be ec31 883d
00000280: 838c db3c a3eb 94bc 128c 5c3c d879 b9bc
00000290: 15db 01be 5ada 1bbe 925f a53c 0c8f 04be
000002a0: 4c4e e73c b3fd 5dbc 0c5c 9e3d 8a86 c4bd
000002b0: 30b8 ce3c 5493 9f3d f0f2 00be fc2a 7fbd
000002c0: 2108 85bd a08c 953d 62b9 eb3d bd26 d1bd
000002d0: 4fd7 d03b 4fcc 8c3d b5ff 393d 611e 6cbd
000002e0: 3c31 b33d 20d5 acbc fed0 3abd c5f4 22bd
000002f0: 66d0 7d3c f7f5 5d3d eb22 2bbe fc75 32be
00000300: cb35 033d fbf1 0c3c 9e6e ab3d 3a92 27be
00000310: 6ff0 58bc 2e73 cbbd fa65 b5bd 5ecc 0bbe
00000320: f96b 883d aeb2 d9bd 7421 833d bf77 83bd
00000330: cdd2 0b3e e0fe 753c 8b71 18be 20ab 25bd
00000340: 40ee a6bd 48c6 1fbe 7768 a63d 3a95 cc3d
00000350: 3d28 3ebd 8d42 803d 6054 07be 8a82 21bd
00000360: a58e b8bc 6cb7 b1bd 9592 1ebe 11ff 1b3d
00000370: cb3b 0fbe 660a b43c ba76 d03d 8060 9dbb
00000380: 9d18 03be 88f9 0b3d fbb9 943b 8c50 8a3d
00000390: 7ce3 d4bc 715b f5bd cec5 13be adc3 edbd
000003a0: 9003 7c3d a0f7 2abc 36d0 c1bd f854 063d
000003b0: 46e7 b5bd b8b7 fabd f9e5 e0bd fab0 cf3c
000003c0: 5591 91bd 792b b13c a12c 12bd f4fc e53d
000003d0: 7c35 a2bd 24a4 39bd 44b3 abbd 9249 343d
000003e0: 4def 093e 340a 2ebd beaa 433e 17cc 023e
000003f0: c866 223e 0a91 963e 0438 52bf 8fbe 9f3d

adv_1.0.bias f4 [20]
-0.52640086 0.56991565 0.29331267 -0.12598078 -0.116704084 0.51121026 0.31984597 -0.17110214
0.25585455 0.49588266 -0.10696096 -0.13907908 0.3471893 0.3511446 -0.0917254 0.18394105
0.34783363 0.45156384 0.17960043 0.19789784
00000000: 35c2 06bf fee5 113f 142d 963e 1b01 01be
00000010: 8d02 efbd adde 023f dac2 a33e 6635 2fbe
00000020: 5eff 823e 55e4 fd3e 590e dbbd bf6a 0ebe
00000030: ccc2 b13e 3ac9 b33e 87da bbbd 0b5b 3c3e
00000040: 4017 b23e 6033 e73e 2de9 373e bba5 4a3e
