submission/checkpoint_vanilla.pth (torch, 716737 bytes, 12 tensors)

seq.0.weight f4 [265, 510]
000000 bd ae 35 3d f8 46 35 3d 1d 13 ec bc ec 7a 05 bd
       0.044356097 0.044257134 -0.028817708 -0.03258793
000010 c8 f4 46 bd e5 da 83 3d 4c b0 15 3c 36 99 32 3d
       -0.048573285 0.06438235 0.009136271 0.043603145
000020 50 c4 80 bb d0 b1 9f bc 74 37 da bc be dd 86 3b
       -0.0039296523 -0.019493967 -0.02663777 0.004115789
000030 61 7d 0b bd ce 3d f0 bc 78 c6 2f bd 0f 2f 23 bd
       -0.034055118 -0.029326346 -0.042913884 -0.0398398
000040 a9 39 f2 3c 60 95 36 3d f3 eb f5 bc 99 8b 43 bd
       0.02956851 0.04457605 -0.030019736 -0.047740553
000050 43 39 2b bc fe ac 4b 3d 77 81 1a 3c 68 b9 07 3d
       -0.010450664 0.049725525 0.009430281 0.0331358
000060 fd 3a ed bc 1e 76 ef 3c 97 67 20 3d af 5e e9 bc
       -0.028958792 0.029231127 0.03916129 -0.028487531
000070 11 5d e4 bc 40 4f 26 bd 83 57 0c bd 1b 27 25 3d
       -0.027876409 -0.040602922 -0.034263145 0.040320497
000080 67 eb 4a bc 1a fc a6 bc e7 4c 46 bd 37 a7 bb bc
       -0.012385226 -0.020383883 -0.048413184 -0.022906883
000090 9e d6 e3 bc 43 3a 55 3d 60 dd a1 3c 0c f1 f7 bb
       -0.027812298 0.052057516 0.01975888 -0.007566577
0000a0 07 b9 23 bd fe 48 92 bc 30 64 ca 3c 0f 59 29 bd
       -0.039971378 -0.017857071 0.024705976 -0.0413447
0000b0 c0 ba 7e bd a0 2f be bc 32 54 d5 3c 4e 74 1c 3d
       -0.062189817 -0.023216069 0.026041124 0.038196854
0000c0 7b e0 a0 bc f8 83 eb bc 6d c8 2c 3c 37 40 41 3d
       -0.01963829 -0.028749451 0.010545832 0.04718038
0000d0 90 65 89 3c c0 04 c4 3b 19 03 3b 3b 06 61 20 bd
       0.016772062 0.0059820116 0.0028535782 -0.03915503
0000e0 2c 7c 07 3b 3b 85 d2 bc 60 6a fb bc 46 93 45 bd
       0.0020673377 -0.025698295 -0.030690372 -0.048236154
0000f0 47 ea 89 3c 99 1c c6 3c 4d c1 d8 bc 6c 2d 5b 3c
       0.016835345 0.024183558 -0.02645936 0.013377529
000100 ae 62 95 bb b5 78 f5 3c 88 f8 f6 bc cb e3 13 bc
       -0.0045588827 0.029964784 -0.030147806 -0.009026478
000110 50 0a e1 3c cc 1d 88 3c 94 a8 a0 bd 90 ca b9 bc
       0.027470738 0.01661577 -0.07844654 -0.022679597
000120 07 7b ce 3c fa 46 16 3d 2d a7 79 3c 35 fb 15 3d
       0.025205148 0.036688782 0.015237612 0.036616523
000130 c9 fd d6 bc f5 a5 45 bd f8 7a 85 3b 3c 02 50 bd
       -0.026244061 -0.048253972 0.004073497 -0.05078338
000140 6e 9b 36 bd ce ab 89 3c 0f 70 2a 3d f2 ec 34 bd
       -0.044581823 0.016805556 0.041610774 -0.04417128
000150 39 cf a8 bc 81 86 89 bc e6 b8 d0 bc f8 df e4 bc
       -0.020606624 -0.01678777 -0.025478791 -0.027938828
000160 36 7f 8b 3c 87 61 58 bd 58 c6 0a 3b 0d e5 2e bb
       0.017028432 -0.052827384 0.002117535 -0.0026686818
000170 38 aa 1b 3d ae a2 87 3c 67 b3 94 bd e8 14 c5 3b
       0.03800413 0.016557064 -0.07260781 0.006014455
000180 25 1f 19 3c 7a 70 07 3b a6 7c 0d bd eb 06 53 bd
       0.009345804 0.0020666406 -0.034542702 -0.05152027
000190 52 2f 14 bc 3a 03 08 bc be bb c4 bc a4 98 36 bc
       -0.009044485 -0.0083015505 -0.024015304 -0.011144791
0001a0 75 91 8d bd 09 4b 7b 3c 13 a5 2e bd 07 d0 38 bd
       -0.06912509 0.015337714 -0.042637896 -0.045120265
0001b0 f0 e5 1f bb a7 0f a1 bc 04 f0 4c bd e8 b0 31 bc
       -0.0024398528 -0.019660784 -0.050033584 -0.0108454
0001c0 2e a3 6e bd c2 92 24 3d c0 5d 2e 3b 5d 46 b9 bd
       -0.05826109 0.04017902 0.0026606172 -0.09046624
0001d0 65 c3 7e bc 11 0b 3e 3c 80 b3 d3 3b 4c c6 65 bc
       -0.015549515 0.011599318 0.006460607 -0.014024328
0001e0 eb 09 80 bc 31 01 49 bd 7c d9 09 bd f8 a5 ab 3c
       -0.01562973 -0.0490734 -0.033654675 0.020953164
0001f0 f9 75 89 bd f8 10 35 bd 73 78 d0 bc 9d 36 32 bc
       -0.067119546 -0.044205636 -0.02544806 -0.010877279
000200 78 cd 7d bc cc c5 7d bd bc 66 39 bd 33 ad 1b bd
       -0.015490882 -0.061956212 -0.04526399 -0.038006973
000210 fc 97 38 bd 90 ed 14 bb 25 71 96 3a 4c 4c 2c bd
       -0.04506682 -0.0022724606 0.0011477811 -0.04206495
000220 1a 84 91 bc 92 79 37 3b ac d3 12 3c af a4 4c 3b
       -0.017763186 0.0027996046 0.008961599 0.0031226089
000230 ae 84 cc 3d 63 01 ce bc 6d 48 15 3c 50 e0 51 bb
       0.09986244 -0.025147146 0.009111506 -0.003202457
000240 a5 c6 15 bd d9 e4 3e bd 20 b1 94 3c 2e 43 4b bb
       -0.036566395 -0.046604965 0.018150866 -0.0031015384
000250 71 4d b4 bc 62 b1 70 bd 48 e0 41 bd 6e 3a 5d bd
       -0.022009583 -0.058762915 -0.047333032 -0.0540108
000260 f1 10 36 bd e0 ee c6 3c 9d da e8 3c 96 ca aa bd
       -0.04444975 0.024283826 0.028424555 -0.083394215
000270 f4 50 80 3b 65 94 72 bd 94 60 19 bc 0a 5a da bc
       0.0039159004 -0.05922355 -0.009361405 -0.026654262
000280 37 b5 07 bd cc 14 ca bc 80 53 88 bd ea 9a 1c bd
       -0.033131804 -0.02466812 -0.06656551 -0.038233675
000290 65 4e 80 bb cb d7 7e bc 42 c3 31 bd c0 ac 1e 3c
       -0.0039155954 -0.015554379 -0.043399103 0.0096847415
0002a0 44 3f 23 bd e5 c5 a1 bc a6 59 c1 bc 52 48 fe bc
       -0.039855257 -0.019747684 -0.023602318 -0.031040344
0002b0 67 88 b3 3c da 5e 83 3c 76 85 13 bd 64 85 9f 3b
       0.021915628 0.01603644 -0.03601595 0.0048681963
0002c0 8b 4d a1 bc ad 7d 21 bd 48 09 11 3d 11 d9 63 bd
       -0.019690296 -0.039426494 0.035409242 -0.055626933
0002d0 a4 a7 69 bd 9c d1 b8 bc 80 21 5f 3c a8 84 4a 3c
       -0.05704464 -0.022560887 0.013618827 0.012360729
0002e0 3f fc d1 3c e9 96 2e bd df 2a cb bc 0f 59 e0 bc
       0.025632976 -0.042624388 -0.024800716 -0.027386216
0002f0 86 77 15 bd 0e f7 28 3b e5 ed 32 bd bb c0 0d 3c
       -0.03649094 0.0025782022 -0.043683905 0.008651908
000300 7c 2b 6c bd a0 6d 01 3b e3 80 db bc 46 d8 57 bd
       -0.057658657 0.001974918 -0.026794856 -0.05269649
000310 68 e8 08 bd 7c ce 14 ba 8e 2a d8 bc f1 72 c2 bc
       -0.033424765 -0.00056765205 -0.02638748 -0.023736449
000320 44 e1 91 bd 82 e5 0b 3c 62 f4 63 bd e6 07 f9 bc
       -0.07123044 0.008538606 -0.055652983 -0.030399274
000330 5e a9 d2 bc 8a 6e 2d bd 99 cd c0 bc 53 f3 a1 3c
       -0.025715526 -0.042341746 -0.023535537 0.019769346
000340 20 2c 83 3c 3a 48 7e bc 42 47 be bd 80 74 03 bd
       0.016012251 -0.01552015 -0.09290935 -0.032093525
000350 67 83 6e 3a c0 a9 25 bc 57 b8 ba ba be 35 e7 bd
       0.000909856 -0.010111272 -0.0014245611 -0.112895474
000360 b3 7f 43 bd 92 11 26 bd 48 75 12 3d 49 3e 59 bd
       -0.047729205 -0.0405441 0.03575638 -0.053037915
000370 07 74 98 bd ff 96 89 3c 8d e7 ae 3c 00 54 a4 3a
       -0.074440055 0.016795633 0.021350646 0.0012537241
000380 5b 3a 27 bd 36 d7 d0 bd 9b 85 37 bd 03 9f 63 bc
       -0.040827136 -0.10197298 -0.04480515 -0.013892892
000390 6a 6a 73 bc 55 8a bd bc 99 5c 59 bd 98 64 2b 3c
       -0.014856914 -0.02313725 -0.053066824 0.010460995
0003a0 13 e6 17 3c 90 74 22 3d 56 43 ba 3c e1 f3 f0 bd
       0.009271163 0.039661944 0.022737186 -0.11765266
0003b0 be 5d b7 bb cd f5 07 bd de bd 99 bc 93 b8 ab bb
       -0.0055958917 -0.0331934 -0.018767294 -0.005240509
0003c0 df 42 f3 bc c0 b9 6d 3c 38 5a 64 bc 00 aa 94 38
       -0.029694973 0.014509618 -0.013937525 7.088855e-05
0003d0 26 c1 0d 3c 37 24 0c bd 88 50 15 3c ec a1 26 bd
       0.008652007 -0.034214225 0.009113438 -0.040681764
0003e0 80 fc 1f 3a 53 d7 c9 bc 43 2d 82 bd 8c 33 53 bc
       0.0006102994 -0.024638807 -0.06356289 -0.012890708
0003f0 b1 70 15 3d 9c 13 54 bc 99 06 2b bd ac 9b 04 bd
       0.036484424 -0.012944128 -0.04175434 -0.032375023

seq.0.bias f4 [265]
000000 f7 40 d7 3c 2f 03 58 bc 67 5c 42 bd 61 a1 21 bd
       0.026276095 -0.013184353 -0.047451403 -0.039460544
000010 dc 4e 4d bd 40 df f4 bc c1 36 e9 3c 20 b1 73 bd
       -0.050124034 -0.02989161 0.028468492 -0.05949509
000020 ee 37 55 bd 17 f8 9b bd 40 99 46 3b eb d3 d2 bc
       -0.05205529 -0.07615679 0.0030303746 -0.025735816
000030 85 16 b0 bc 7c fa 86 3c 51 ed a7 3c 61 04 85 bc
       -0.021495113 0.016476862 0.020498903 -0.01623744
000040 fe c2 2f bd b5 63 9c ba ce 4e f4 bc 02 6e 14 3c
       -0.04291057 -0.001193157 -0.029822733 0.009059431
000050 9f 22 97 bc fe e6 10 bd de 87 f6 3c a2 f2 0b bd
       -0.018449126 -0.03537654 0.030094083 -0.03416694
000060 0c 7a 86 bc 4d 27 3f bd 2d 47 4b 3b 80 24 5e bc
       -0.016415618 -0.04666834 0.0031017766 -0.013558507
000070 f1 86 24 bb 0a 88 0b bd 68 b5 73 3b 16 ec a3 bd
       -0.0025104845 -0.034065284 0.0037186984 -0.08004014
000080 2e 89 84 bc 76 4b 82 bd 0d 78 3f 3d a1 16 31 3d
       -0.016178694 -0.06362049 0.04674535 0.04323447
000090 6d 5c 11 3d 41 1e cd 3c 2c f6 4e bd dc 0f 57 bd
       0.035488535 0.02503884 -0.050527737 -0.05250536
0000a0 b8 f0 cd bb 16 e1 05 bb e7 47 1d bd 03 3d 87 3c
       -0.0062847994 -0.002042835 -0.03839865 0.016508585
0000b0 80 f2 31 bd ab ee d3 3b db 46 23 bd d3 f5 3a bd
       -0.043444157 0.0064676604 -0.039862495 -0.045644592
0000c0 41 d4 0d bd 9e e7 b6 bd 79 e4 ac bc 96 1b a8 3d
       -0.03462625 -0.08930896 -0.021105038 0.082083866
0000d0 3c 83 5c bd 6a 60 70 3d 3d 48 69 bb 47 21 1c bd
       -0.053836092 0.058685698 -0.0035596036 -0.038117673
0000e0 b9 88 89 bc 60 86 35 3b 92 77 6c bd 7c e2 b6 bc
       -0.016788827 0.0027698502 -0.05773122 -0.022324793
0000f0 9d d9 38 bd 3a fc 1b bd c0 98 45 bd 05 df 54 bd
       -0.045129407 -0.03808234 -0.048241377 -0.0519705
000100 f5 90 59 3d 63 fd 8c bd 67 7f 09 bd 7e d8 26 3d
       0.053116757 -0.06884267 -0.033568766 0.040733807
000110 bb 7c 1c bd 74 35 86 bc 31 10 7a bc 6c 8d 93 bc
       -0.03820489 -0.01638291 -0.015262649 -0.018011771
000120 e5 59 30 bd d8 12 0b bd e4 03 27 3d d1 03 1e 3d
       -0.04305448 -0.033953518 0.040775195 0.03857786
000130 b1 5d 1e bd e5 17 44 bd 21 c4 a5 3c b7 d2 44 bd
       -0.03866357 -0.04787435 0.020235123 -0.048052516
000140 3e 7d 77 bd 8b df d1 bc 94 b4 b9 bc 33 c9 80 3b
       -0.060422175 -0.025619289 -0.022669114 0.003930235
000150 ee 27 11 bd 85 a4 21 3d af 65 55 bd 63 bd 31 3d
       -0.03543847 0.03946354 -0.052098926 0.043393504
000160 fd fb 91 bc 17 ec 94 bc 54 65 4e b9 97 37 2b 3c
       -0.017820353 -0.018178983 -0.00019683439 0.010450265
000170 4e 8e 3e bb aa bf e3 3c 23 01 9e 3c 5b 62 bf 3b
       -0.002907652 0.027801353 0.019287651 0.0058405823
000180 0e dd 3d 3a da fd fd 3b fe 09 2f 3d 45 a3 6e bd
       0.00072427175 0.0077512087 0.04273414 -0.058261175
000190 c4 3e c3 bd 11 41 b5 bc 26 2e 82 bc 1e 13 1d bc
       -0.09533456 -0.022125753 -0.015891146 -0.009587077
0001a0 a1 09 c9 3c 9b 44 2a 3c f1 0d 6b bd f3 8f 95 bc
       0.024540724 0.010392333 -0.057386342 -0.018257117
0001b0 25 6e bd bc 1e 68 d8 3b de fb 94 bd 73 79 37 bc
       -0.02312381 0.0066042086 -0.07274602 -0.011198389
0001c0 9e 12 2d 3b fe 0c 14 3a 2b 96 5f bc e9 7e b1 3b
       0.0026408802 0.0005647688 -0.013646643 0.00541674
0001d0 8d 4a 84 bd 0f 2c 17 bd a5 d3 32 3b 4d 2d ba bc
       -0.06459532 -0.036907252 0.0027286795 -0.02272668
0001e0 51 eb d3 bc 4f 03 91 bd fb d3 32 bd 40 16 02 3d
       -0.025869044 -0.07080709 -0.04365919 0.0317595
0001f0 4b 08 55 bd 49 72 51 bd 67 f4 3c bd 63 2c 3a 3c
       -0.052009862 -0.05113438 -0.046131518 0.011363122
000200 50 a5 98 3c 28 a3 02 bc 82 d0 86 3b a4 63 fe bc
       0.018633515 -0.00797347 0.0041142115 -0.031053372
000210 65 2c 81 bd 05 a5 b5 bc e2 72 e4 bc dd d5 ce bc
       -0.06307296 -0.022173414 -0.027886812 -0.025248462
000220 fa 79 01 3d e9 80 de bc fc e3 f7 bc 7e 11 61 3c
       0.031610467 -0.027161079 -0.030260079 0.013737081
000230 85 08 80 bc 02 2e 3f bd c0 72 3f bc 88 12 a2 3c
       -0.015629062 -0.046674736 -0.011685073 0.019784227
000240 54 a2 76 3c 71 57 a5 bc 6a 8e 71 3c a4 01 0e bd
       0.0150533505 -0.020183297 0.014743427 -0.034669533
000250 d6 32 b0 3c 09 5a 65 3c 69 f9 bc bc e3 02 41 bd
       0.021508615 0.013998517 -0.023068147 -0.047121894
000260 49 16 92 bb 1a be f8 bc e5 ee e4 bc de 37 b8 39
       -0.004458223 -0.030364085 -0.027945945 0.0003513684
000270 2e 91 0a ba 97 7c 10 3d 7b 85 a9 3b d4 0b 75 bd
       -0.00052859157 0.035275068 0.005173383 -0.059825733
000280 01 a2 d3 bc 65 89 83 3a de cd b5 bc 84 e0 46 bd
       -0.025834085 0.0010035454 -0.022192892 -0.04855396
000290 c0 f7 19 3c 3c 74 63 bd b0 ff bf bc 0a 84 b8 bc
       0.009397447 -0.05553077 -0.023437351 -0.022523899
0002a0 2a 5c 1d bb d6 c3 b8 bc 71 94 8c bc 09 bd 7a bc
       -0.0024011233 -0.02255432 -0.017160626 -0.015303859
0002b0 14 a7 82 3d d1 28 e8 bc 09 b7 5c bd 10 98 30 bc
       0.06379524 -0.028339775 -0.053885493 -0.010778442
0002c0 89 e5 45 bd f6 1c 5d 3c 0a 12 84 bd b0 00 aa 3c
       -0.048314605 0.013495674 -0.06448753 0.020752281
0002d0 cb 18 9e bb 0a 90 5d bd a9 27 64 bd 44 06 03 bc
       -0.004824733 -0.054092444 -0.055701885 -0.007997099
0002e0 67 35 71 bd 26 bc 79 bd 8c 86 38 bd be 56 62 ba
       -0.05888882 -0.060970448 -0.04505019 -0.00086341414
0002f0 8c 85 e1 bc c0 fd 8c 3b 87 00 e6 bc 32 f5 a0 bc
       -0.0275295 0.0043027103 -0.028076423 -0.019648168
000300 a5 62 27 bd d8 d7 f6 3c 31 b3 0a bd 83 7e d0 3b
       -0.04086556 0.03013222 -0.033862296 0.0063627376
000310 d9 9a 2a bd f5 90 a4 bc e1 0f b3 bc 99 05 d6 bc
       -0.04165158 -0.020088652 -0.021858158 -0.026125716
000320 cf 35 88 bc c4 02 bd bc e0 0e 42 3c b8 94 95 bc
       -0.01662722 -0.023072608 0.011844367 -0.018259391
000330 32 94 24 bc 38 5e bc bb 38 6a d1 3c 18 db b2 bc
       -0.010045098 -0.0057485364 0.025563344 -0.021832988
000340 20 0d 40 3c 2a 88 0d 3d 2a a4 58 3d c3 b9 ad bd
       0.011721879 0.034553684 0.052890934 -0.08482697
000350 f2 a2 2c bd 42 ee 9b bd 74 d5 40 3d a8 ae 31 bc
       -0.042147584 -0.076138034 0.047078565 -0.010844864
000360 b4 db b0 bc 51 a6 7a 3b 7e a7 43 bd 16 a8 85 bc
       -0.021589138 0.0038246105 -0.047767155 -0.016315501
000370 2b 3a da bc 02 e8 a2 bc 26 10 80 bc 6c 19 77 bd
       -0.026639065 -0.01988602 -0.0156327 -0.06032698
000380 aa eb 6a bb bf 37 ed bc 9e 18 a8 bc 36 fe c7 3b
       -0.0035846033 -0.028957246 -0.02051955 0.0061033024
000390 5b be 0a bd 68 61 52 bd d7 ca 6d 3c 8f 3c 63 bd
       -0.033872943 -0.051362425 0.014513693 -0.055477675
0003a0 26 c2 e5 3c 99 f9 89 bc cd b5 77 3d a8 b0 43 bd
       0.028046679 -0.01684265 0.060476113 -0.047775894
0003b0 b7 36 68 3d 45 52 ae bd e0 e1 43 3c 00 ce 22 3c
       0.056692805 -0.085117854 0.011955708 0.00993681
0003c0 43 42 30 3c 78 38 11 bd e4 a0 64 bd 83 77 11 3c
       0.0107579855 -0.035454243 -0.0558175 0.0088785915
0003d0 de b5 79 bd fd de 88 bd b4 b2 64 3c 8f 63 4f bc
       -0.060964458 -0.06683157 0.013958622 -0.012658014
0003e0 0a 5d 6b 3d 83 6e 75 bd e3 ab d5 bc 25 23 24 bd
       0.057461776 -0.059919845 -0.026082939 -0.04007258
0003f0 b4 d0 58 3d d9 8b f4 bc 1e 14 c8 3b 86 00 c9 bc
       0.05293341 -0.02985184 0.006105914 -0.024536382

seq.2.weight f4 [100, 265]
000000 96 24 c4 3c 35 01 80 be fc 48 c6 bc 92 b4 a1 bd
       0.023943227 -0.2500092 -0.024204724 -0.07895769
000010 dc fa 12 3d d3 4e c1 3c 65 e9 2c be cf 68 88 bc
       0.03588377 0.023597157 -0.16885908 -0.01665154
000020 1d 30 c0 3c bf a9 02 bd 9b ed 65 bd 44 be 4f bd
       0.023460442 -0.031900164 -0.0561348 -0.05071856
000030 69 cf 33 3d ec 85 0a 3e f3 d7 c8 3d b4 81 e0 3d
       0.043898974 0.1352765 0.09806814 0.10962239
000040 16 e0 2f be f3 3e 7f 3c 57 ec d8 bc 22 71 a5 bc
       -0.17175326 0.015578973 -0.026479883 -0.020195547
000050 a7 06 2b 3e 03 e0 8b bd 54 b8 49 be 89 67 b2 bd
       0.16701756 -0.06829836 -0.19699222 -0.08711154
000060 8d 0b d7 bd e7 3e 2e 3d 18 4f 58 bd 25 c7 27 bd
       -0.1050025 0.042540457 -0.052809805 -0.040961403
000070 cc fb 39 bd 1c c0 6b bd 86 1b 34 bd aa 70 74 bc
       -0.045406148 -0.057556257 -0.04397156 -0.014919439
000080 c2 be aa bc b6 ab 66 bd 07 ea 22 3c b7 10 a3 be
       -0.020842914 -0.0563161 0.009943492 -0.3184869
000090 77 cf b2 bd 17 c8 48 bd 32 c5 34 3e 75 87 74 3d
       -0.08730977 -0.049018946 0.17653349 0.059699494
0000a0 1a 85 3c 3c 74 64 e1 bc a0 b1 9d bc 58 aa 8e 3e
       0.011506343 -0.02751372 -0.019249737 0.27864337
0000b0 18 4d 77 bd de 2f 94 be d0 b4 90 bc ff 36 2f bd
       -0.060376257 -0.2894277 -0.017664343 -0.042777058
0000c0 b5 69 b1 bd 29 b6 d1 bd 7f 4c d1 be 04 4e 7e bd
       -0.0866274 -0.102398224 -0.40878674 -0.06208612
0000d0 56 16 18 bb f1 a0 7a 3d b9 42 6f be 85 c1 fc 3c
       -0.0023206673 0.061188642 -0.23365296 0.030853996
0000e0 6f fc dd bd 51 55 1e be f3 cb b3 3c 31 d5 dd bc
       -0.108391635 -0.15462233 0.021947837 -0.027079197
0000f0 40 0a 73 bd d2 20 9c bc a5 47 19 bd f3 d0 a9 bd
       -0.059335947 -0.019058619 -0.03742184 -0.08291807
000100 b6 e6 51 be 60 7e d8 3c 04 16 31 bd 6a 9c 2b 3d
       -0.20498165 0.026427448 -0.043233886 0.041897215
000110 38 d9 0e 3c e5 0a c9 bd dd 63 1e bd ab 29 3f be
       0.008718781 -0.09816531 -0.038669456 -0.18668239
000120 91 c9 77 3d 45 30 9a be e7 1f 51 3d ea d4 3f bc
       0.060494963 -0.30114952 0.051055815 -0.0117084775
000130 31 7f 8e bd 3d 4a 5d bd 84 fa 61 be e2 be 3e be
       -0.069578536 -0.054025877 -0.2206822 -0.18627504
000140 b8 25 74 bc 1e cc ec 3c 08 71 21 be 8f c3 1c 3e
       -0.014901571 0.028905924 -0.15765774 0.15308975
000150 67 c4 79 3d 7c b7 7e bd 0a 13 88 be 70 a9 c7 bd
       0.06097832 -0.062186703 -0.26577026 -0.097491145
000160 92 df 1c 3c 0a a4 18 be 8a 5c d5 bc 5d 8c cb bd
       0.009574788 -0.14906326 -0.026045103 -0.099388815
000170 85 ff 39 3d be 09 a8 bd fb 0a 1a be 5b eb d7 bc
       0.045409698 -0.08204983 -0.15043251 -0.026357343
000180 80 f2 d4 bd ad d3 ae 3c 99 ba cd 3c f5 bd 6c be
       -0.10397816 0.02134117 0.02511339 -0.23119338
000190 9b c5 6c 3c 04 0a 77 3e 1f 55 01 be 21 d6 9c be
       0.01445141 0.24124914 -0.12630127 -0.30632117
0001a0 a6 49 df 3c ba 4e 0c bc 3f ed 22 3d 58 b9 95 3b
       0.027256798 -0.008563692 0.039777037 0.004569214
0001b0 3d 50 22 3d 18 21 a1 bc 33 eb d9 3c 31 b8 f3 3d
       0.039627302 -0.0196691 0.02660141 0.11900366
0001c0 3a 65 be 3c eb 2c a1 be de b7 59 bd 47 02 ae 3e
       0.023241628 -0.31479582 -0.053153865 0.33986112
0001d0 88 9d df b9 48 62 40 3e 17 31 5f 3c 86 23 3b 3d
       -0.00042651244 0.18787491 0.013622544 0.045688175
0001e0 43 35 b3 be 1c d5 6a be c1 fe d0 bc d6 77 94 bc
       -0.35001573 -0.22932857 -0.025512101 -0.018123548
0001f0 10 08 ff 3d 9e d9 cf bd 30 ab 3e be f9 72 6d be
       0.1245271 -0.10148929 -0.1861999 -0.2318839
000200 5e 30 16 3c 86 b1 f4 bd 7e ec b8 bd b2 47 e8 bd
       0.009166805 -0.119479224 -0.09029482 -0.113418
000210 87 82 82 3d 11 fe 92 3d 06 f9 02 bc 81 a3 62 3d
       0.06372552 0.071773656 -0.007993942 0.05533171
000220 65 a9 35 bd 6d 6d 0f bd 3f cf ca be 37 4f 20 3e
       -0.044351 -0.035016466 -0.3961124 0.15655218
000230 c8 70 0d 3d 81 c7 83 bd ff 63 65 bc ae 6a 01 bd
       0.034531385 -0.06434537 -0.014000892 -0.03159588
000240 9b 24 15 bd d5 6f cf bd d7 e7 c6 bc 80 00 ff 3b
       -0.036411863 -0.10128752 -0.024280472 0.007782042
000250 11 97 35 be 31 b2 c4 bc 79 cd f0 3d 98 40 10 bd
       -0.17733409 -0.02401075 0.11757941 -0.03521785
000260 e4 29 4b bd 0f fc c2 3d 07 b7 3c be a8 5a 34 3d
       -0.049600497 0.095207326 -0.18429194 0.04403177
000270 98 af ea 3d 46 cf bb bd 42 c4 88 3c 34 5f 7b 3e
       0.11459273 -0.09170394 0.016695146 0.24548036
000280 8b 91 3e bd d6 a3 84 be 3c 1d 37 3c de 2c 82 bd
       -0.04652552 -0.25906247 0.011176404 -0.06356214
000290 97 78 09 3e d7 b5 4d bd d3 43 9f bd 61 fb 14 3d
       0.13424908 -0.050222244 -0.07776608 0.036372546
0002a0 87 92 1e bd 0a 50 03 bd 32 15 9c be f5 81 4e 3d
       -0.038713958 -0.032058753 -0.3048492 0.050416905
0002b0 5e 69 6b be 0d 7b aa 3c e9 0b c9 bc be d0 0a be
       -0.22989413 0.020810628 -0.024541812 -0.13556191
0002c0 e7 3b 42 bd e8 2e 86 bd 91 bf 4c 3d cc fb 50 bd
       -0.04742041 -0.065519154 0.04998738 -0.051021382
0002d0 cf d0 fe bd 5e 3e dd bc 15 3e 14 3d 22 e0 fe bc
       -0.12442171 -0.027007278 0.03619202 -0.031112734
0002e0 65 7c e7 bd 0d ab 9f 3d 5b a0 80 3d 10 4f e2 3d
       -0.11303023 0.07796297 0.062805854 0.11050236
0002f0 be 41 c0 bb e6 c6 8a bd 86 c3 0d be e3 7a 51 3d
       -0.005867212 -0.06776218 -0.13844118 0.051142585
000300 eb 5f b5 bd 64 56 ee 3d 1e 4b be bd 27 59 6b 3c
       -0.088561855 0.116375715 -0.09291671 0.014364517
000310 fe a3 7b 3d 0e 92 87 3b 17 53 33 3e 9f 65 f9 bc
       0.061435692 0.004137284 0.17512165 -0.030443965
000320 a5 4c d1 ba 63 1d 8c be bf 50 1d bd 4a e3 fb bd
       -0.0015968276 -0.2736617 -0.038407084 -0.12299211
000330 b7 98 3a be 2f fe b3 bd 10 b1 61 bd 4a e7 3b 3e
       -0.18222319 -0.08788716 -0.0551005 0.18349949
000340 f5 2f 15 bc 67 ea 41 be b4 3b 2e bc 4c 87 20 3e
       -0.009105672 -0.18937074 -0.0106343515 0.15676612
000350 96 1e c6 3c 95 0f b0 bb 64 79 dd be 0c 6f a8 be
       0.024184506 -0.0053729513 -0.43256676 -0.32897222
000360 52 d4 45 bd 57 0c 1a bd 44 67 7b bd e7 94 c3 3d
       -0.048298188 -0.037609424 -0.06137778 0.09549885
000370 d5 c2 f2 bc 96 da ce 3d 28 12 3e bd 9b f6 8f be
       -0.029633919 0.10100286 -0.046404034 -0.28117833
000380 05 02 8a bd 93 7d 0f 3e 0a 2f 92 3c 35 ae 44 3d
       -0.067386664 0.14012747 0.017844696 0.0480177
000390 29 62 80 3d b8 2f 0d bb 65 07 d7 3c 34 dd a5 3c
       0.062687226 -0.0021543335 0.026248643 0.02024708
0003a0 fc a4 50 bd 0c 9c 04 3d bf 31 04 3e 2a f5 a4 be
       -0.05093859 0.03237538 0.12909602 -0.32218295
0003b0 c4 60 49 be 04 2b 1b 3e fe 1c 29 be c2 b0 ab be
       -0.1966582 0.15153128 -0.16514966 -0.33533293
0003c0 64 5f d6 bd 19 39 2c 3d 8d b6 a5 3d e2 40 e2 3c
       -0.10467413 0.04204664 0.080914594 0.02761883
0003d0 ab 2f 96 bd 98 d5 0a be 0b 5e 12 bd 20 1d a8 be
       -0.07333311 -0.13558042 -0.035734218 -0.3283472
0003e0 0e 3a e0 bc 4a 03 24 bd 1b 8d d2 3c 10 03 9c bd
       -0.027371433 -0.0400422 0.02570205 -0.076177716
0003f0 01 7e c4 bd b0 4c e4 3d 81 37 52 3e 00 83 1b bd
       -0.09594346 0.111474395 0.20528986 -0.03796673

seq.2.bias f4 [100]
000000 4c 51 2f bd 1c a2 6d bd 50 7e 64 3d b9 5f 6b 3d
       -0.04280214 -0.058015928 0.055784523 0.057464335
000010 2d 43 80 bb e1 e6 8d 3e 7f 34 ef bd b8 a0 5d bd
       -0.003914258 0.2771521 -0.11679935 -0.05410835
000020 b8 b4 59 3e ff 01 0a 3e 51 96 d5 bd f6 3a 04 bd
       0.21260345 0.13477324 -0.10429061 -0.032282792
000030 9e a0 cb bd 17 77 89 3e e1 b4 68 bc bf da 2d 3e
       -0.09942745 0.2684867 -0.014203281 0.16977976
000040 aa af 13 bd 4f b5 25 be b8 4e 07 3e 70 65 e6 bd
       -0.0360562 -0.16182445 0.13213623 -0.112498164
000050 b2 fa 97 3c 90 96 69 3b 67 30 ec 3d 84 f6 29 bd
       0.018552158 0.003564272 0.115326695 -0.04149486
000060 80 5c 2d be ef 56 2a bd db fb 00 bd 01 89 89 bd
       -0.16929817 -0.041586813 -0.031490188 -0.067155845
000070 94 d7 0b 3b 8b c5 30 be 11 35 cf bc 1b 05 a7 bc
       0.0021338211 -0.17262857 -0.025293859 -0.020388177
000080 76 45 4f 3d 36 db 0e bb e7 d1 e5 bc 15 1e 09 be
       0.050603352 -0.002179814 -0.02805419 -0.13390382
000090 86 f1 a1 bd 3c 35 58 be 14 ca b8 bb 6c 69 a7 bd
       -0.07907395 -0.21114057 -0.005639324 -0.081744045
0000a0 1f b2 f8 3d a9 ca 74 bb 84 7d 64 bd 70 da d3 bc
       0.12143349 -0.003735224 -0.055783764 -0.025860995
0000b0 23 35 22 3d ec 96 a3 bc c9 ca 51 be 6b 19 6d 3c
       0.039601456 -0.019969426 -0.20487513 0.014471392
0000c0 ca 57 05 be d8 6c 56 bb 49 6c db bd 8d 6b d3 bd
       -0.1302177 -0.0032718685 -0.10714013 -0.10323248
0000d0 8f 66 57 be 28 0b 1f 3c ee 9b ad 3d d1 b8 8c 3c
       -0.21035217 0.00970725 0.08477007 0.017177971
0000e0 71 6e 88 3d 7d 4f 33 bd 5f 32 4d bc f9 1d 5a 3d
       0.0666169 -0.043776978 -0.012524216 0.05325124
0000f0 6b e4 00 bc 7e 01 54 bd a6 f0 04 bc 4d 0e 04 bd
       -0.007866959 -0.051759236 -0.008114016 -0.0322402
000100 26 10 ee 3c 91 8c 36 bd 44 b4 6a be 9d 6a 38 3e
       0.029060435 -0.04456765 -0.22920328 0.1800942
000110 ec 4e fb bb f3 54 12 3e 0d 2e 08 be cc 43 83 bd
       -0.0076693203 0.14290218 -0.13298817 -0.064094156
000120 12 f7 68 bd d9 8d 7e 3d 6c be f6 bd 13 5e 92 3d
       -0.05687625 0.062146995 -0.12048039 0.071468495
000130 a9 e0 bb 3d a5 c0 b0 bd df 0f 84 bd b2 f2 4f 3d
       0.0917371 -0.08630494 -0.0644834 0.05076856
000140 65 0a b6 3d 1e 59 90 bd ef 33 4e 3a 71 ac 41 3e
       0.08888701 -0.07048248 0.0007866015 0.18913437
000150 38 67 fc bd 58 93 12 be aa 40 00 be 9b c1 f7 3d
       -0.12324375 -0.1431402 -0.12524667 0.12097474
000160 1e 1f aa 3d 46 f0 7a be 91 9e 26 bd 81 05 8d bd
       0.083067164 -0.2450572 -0.040678564 -0.068858154
000170 d8 db 13 be 32 4b 1b 3b bd b3 58 3d 6f 53 83 bd
       -0.14439332 0.0023695943 0.052905787 -0.06412398
000180 cd 43 b2 bd 18 9c 2a be 13 6c 72 bd ee 9c d8 3d
       -0.08704338 -0.16661108 -0.0591851 0.10576807

seq.4.weight f4 [100, 100]
000000 91 bf b8 3b ff 7a 22 be 22 bd 83 bd a5 8d 23 be
       0.005638071 -0.15867232 -0.064325586 -0.15972002
000010 5a 5a 9b 3e 7a 21 4f bd 7f 19 40 bd 7e 89 c2 3d
       0.3034237 -0.050569035 -0.046899315 0.09498881
000020 14 46 21 bc 21 4b 00 be c7 72 66 be 20 87 c1 3c
       -0.009843368 -0.1252866 -0.22504722 0.023624003
000030 3a 1c a2 bd 9e 94 ac be a4 ca df 3d 8e 42 b4 3d
       -0.0791554 -0.33707136 0.109273225 0.08801757
000040 73 26 21 3e 7c cb 15 3d 3a ce d8 bd 09 24 02 3e
       0.15737323 0.03657101 -0.105862096 0.12709059
000050 c1 e6 15 be 9c 08 9a bc fa 02 c0 3d 04 18 d3 3d
       -0.14638807 -0.018802933 0.09375568 0.10307315
000060 13 5e 1a 3e 93 d3 9c 3d 73 e1 90 3d 7d 54 7e 3d
       0.15074949 0.07657542 0.07074251 0.062092293
000070 27 5c 86 3e 71 2d 65 be c7 15 e7 bd 9e 93 19 be
       0.26242182 -0.22380616 -0.112834506 -0.14997718
000080 e4 73 c8 bd 4e a5 b5 bd 39 bb bb 3c 61 c0 99 bd
       -0.097877294 -0.0886942 0.022916423 -0.075073965
000090 44 9a 64 3c b7 0d 32 be 77 c3 72 3d 2f 85 91 bd
       0.013952795 -0.17388044 0.05926844 -0.07105481
0000a0 ca 26 d7 3d ad 87 40 be a6 79 ce bd 63 b2 6d 3e
       0.10505445 -0.18801756 -0.10081796 0.2321258
0000b0 78 23 9a 3e 15 28 08 be a1 94 ad 3c 7e eb f2 bd
       0.30105186 -0.1329654 0.021189036 -0.11861323
0000c0 19 07 ad 3d f3 ba 34 be 77 69 b5 3d 25 9e 22 be
       0.084486194 -0.1764944 0.088580064 -0.1588064
0000d0 fd a7 e5 3d 96 0e e5 bd 7b 99 41 be 7a db 33 3d
       0.11213682 -0.11184423 -0.18906204 0.04391048
0000e0 53 e7 df bc 55 13 be bd 5d 9f 82 3d 33 6f 1f 3a
       -0.027331984 -0.09281031 0.063780524 0.00060819386
0000f0 c5 63 bf bd 7a 9d 03 be 17 b4 92 3d 3e a8 9a 3d
       -0.093452014 -0.12853041 0.07163256 0.07551621
000100 72 1e e6 bd 90 e3 70 be 77 02 3f 3d 59 7d 59 be
       -0.11236276 -0.23524308 0.04663321 -0.21239223
000110 ca 03 89 be 93 e0 6b 3d 62 f9 d3 bd dc fa fc bd
       -0.26760703 0.057587218 -0.103503 -0.12352535
000120 e5 12 01 3d 57 3c b6 bd d2 84 15 be 06 c7 99 bd
       0.03151216 -0.08898228 -0.14601448 -0.07508664
000130 ad fc 79 bd 54 54 3f 3e b5 e5 39 bd 51 10 f8 3c
       -0.061031986 0.18684512 -0.04538508 0.030281218
000140 a4 8e 81 bd 2d 0c 4c 3b 90 24 41 3e 14 d0 24 be
       -0.06326035 0.0031135187 0.18861604 -0.16095
000150 5c ed c4 3c d6 18 a6 3d 87 e2 a7 bc cf 62 a8 bc
       0.024038963 0.08110206 -0.020493759 -0.020554928
000160 c6 1e 60 bd 44 24 00 3c 22 7b fa bc 22 41 3c 3e
       -0.054716848 0.007821146 -0.030576292 0.18384221
000170 b6 5d 8a be 75 59 1c 3e 12 83 a5 bd 7b f1 b9 3d
       -0.2702462 0.152685 -0.0808164 0.09079262
000180 d1 f5 02 be ec bd e4 3c c1 3f 3a 3e 9f b2 02 be
       -0.12789084 0.027922593 0.18188383 -0.12763451
000190 1c 0e b3 3d 46 5e df bc 1b 08 db 3d 24 26 b4 3e
       0.087429255 -0.027266633 0.10694905 0.3518535
0001a0 e4 e0 46 3e 08 13 2e be e5 36 b2 be de 43 38 3e
       0.19421726 -0.16999447 -0.34807506 0.1799464
0001b0 ec 9c ad 3d 40 73 b4 bd ab b7 c0 be d2 fc 41 3e
       0.08477196 -0.08811045 -0.37640128 0.189441
0001c0 36 96 ee 3e ed 14 86 3d 93 2c 10 bc f6 32 b2 bb
       0.46598977 0.0654696 -0.00879969 -0.005438204
0001d0 5c 10 09 3e ed b6 e9 be e7 c1 04 be f4 e2 4e 3e
       0.13385147 -0.45647374 -0.12964593 0.20203763
0001e0 7c 5c 93 3e 9a c3 49 3d a4 57 fa be 05 db a4 be
       0.28781497 0.049258806 -0.4889499 -0.3219835
0001f0 81 d8 e5 bc 2e b4 b2 3d 9c 8b 1a bd 0d 42 09 bd
       -0.028057339 0.08725773 -0.037730798 -0.033510257
000200 16 f6 b9 3d 0b cc 28 3d e7 55 8b bc f1 60 df be
       0.0908014 0.041210216 -0.017008735 -0.43628648
000210 43 ca a9 3d 41 fa ef be 4f ff b6 bd 72 a8 31 be
       0.082905315 -0.46870616 -0.08935415 -0.17349413
000220 a3 9f 46 be 8d 6f 0f be d4 99 44 be e9 7f b8 be
       -0.19396834 -0.14007397 -0.19199306 -0.36035088
000230 bd e1 c7 bd 00 2a df 3d f0 9a a0 3d 12 d1 21 bc
       -0.09759853 0.10896683 0.07842052 -0.009876506
000240 96 70 11 bf e3 39 f2 bd be 46 f9 3d e2 b6 36 be
       -0.5681242 -0.11827447 0.12171696 -0.17843202
000250 37 75 07 bf 1f a5 43 3c 03 e1 e5 3d 3d 49 f6 3d
       -0.5291323 0.011941223 0.11224558 0.12025688
000260 f6 83 e5 bc 6b ba 8a 3e bb e4 93 3c 6a 31 3f be
       -0.028017025 0.2709535 0.018053403 -0.18671194
000270 39 fd f7 3c 18 89 2f 3d be 90 71 be 12 97 5c 3e
       0.030272113 0.042855352 -0.23590371 0.21542004
000280 63 d8 2b bd c2 12 81 3d 86 ad 70 be 2d 07 d7 bc
       -0.04195441 0.06302406 -0.23503694 -0.026248539
000290 1d 4a e3 bd 09 98 02 3e 93 1f 58 be fd d7 93 bd
       -0.1109812 0.1275331 -0.21105795 -0.07218931
0002a0 03 be a9 3c 09 fd a7 3d 1a 7b 3f 3e 85 99 85 be
       0.020720487 0.082025595 0.18699303 -0.2609369
0002b0 f0 cd c3 3d ea 8c 17 3d 81 0a 2c be 0e 1b ff bd
       0.09560764 0.03699962 -0.16800882 -0.12456332
0002c0 1c d1 85 be 4f a8 ba 3d 35 df 04 3e b6 6c 35 be
       -0.261361 0.091141336 0.12975772 -0.17717251
0002d0 65 77 de 3d ac b6 4b be 42 95 a8 bd 01 88 e5 3d
       0.108626164 -0.19893903 -0.08231594 0.11207581
0002e0 b6 0b d0 3d cd 64 34 be 79 e3 1a 3c 73 a0 ad bd
       0.10158484 -0.17616577 0.009453648 -0.08477869
0002f0 17 80 15 3d b5 33 53 be 81 4c 9b bd 6c 0b c5 3d
       0.03649911 -0.20625193 -0.07582951 0.09621319
000300 93 8f 55 bd 06 c5 c9 3c e1 8c da bd be 6b 67 bd
       -0.052138876 0.02463008 -0.10671402 -0.056499235
000310 36 37 87 be 89 4c c0 3e 73 ba ce bd 76 d2 0b bc
       -0.2640931 0.37558392 -0.10094156 -0.0085340645
000320 ac fd c3 3c ae ab 22 3e 3b 41 bb 3d 8d bd eb 3d
       0.023924671 0.15885803 0.09143301 0.11510763
000330 e6 f9 cb bd 50 cb ad bd 09 02 bd bd ea 09 f9 3d
       -0.09959774 -0.084860444 -0.09228904 0.12160094
000340 d0 6c b8 3d 6c 50 83 bd 00 6a 4a 3c 91 70 e3 3c
       0.09005129 -0.06411824 0.012354374 0.027763637
000350 ff ee f5 3d df 8f 20 bd 6c 2b 8d bd 79 18 e0 be
       0.120084755 -0.039199706 -0.06893048 -0.4376867
000360 9e 94 bc bd e9 1d 91 bd 51 ae 96 bb c4 b3 9f bc
       -0.09208034 -0.07085783 -0.004598417 -0.019494899
000370 b4 ce d0 be 82 a9 b8 bc 85 7f 37 be a6 5a 97 3e
       -0.40782702 -0.022541765 -0.17919739 0.29561347
000380 88 90 7e 3e 5a 62 98 be c8 89 37 bc b6 c3 b5 be
       0.24859822 -0.29762536 -0.011202283 -0.35500878
000390 fb d2 ea 3d d6 1e f0 3c e6 8b 75 3d 38 83 58 3e
       0.114660226 0.029311579 0.05994787 0.21143806
0003a0 fa 32 a6 be b7 27 8c be bd ba 2e 3e 0d d6 1e 3e
       -0.32460767 -0.2737405 0.17063423 0.15511341
0003b0 be 8a f2 bc 56 55 31 3d e5 91 b6 bc 95 f5 09 3e
       -0.029607173 0.043294273 -0.022286365 0.13472588
0003c0 8f a4 cf be 02 8d a0 bd 7b 40 38 3d 6f 9d 72 be
       -0.40555236 -0.07839395 0.04498337 -0.23692869
0003d0 43 0f 5a 3d dd 89 c3 ba 23 e9 36 3e a4 37 e2 3d
       0.05323721 -0.0014918406 0.17862372 0.11045769
0003e0 03 d8 37 3d 11 ab 3e be 43 c7 58 3e 59 a1 d4 bd
       0.04488374 -0.18619944 0.21169762 -0.10382337
0003f0 72 91 49 3e cc 8c 00 3c c3 ef 85 bc ce 73 fb 3d
       0.19684389 0.007846069 -0.016349679 0.12277947

seq.4.bias f4 [100]
000000 04 f5 fd bd 43 3f fe 3d 74 12 53 be 42 82 5f 3e
       -0.12400249 0.1241441 -0.20612508 0.21827033
000010 d9 ee 97 3e 83 4e c0 bb bb 31 d2 bd f6 b1 5c bd
       0.29674414 -0.0058687343 -0.102633916 -0.053880654
000020 27 28 d8 bd be 02 04 be 8d a5 1f 3e ce 21 83 be
       -0.105545335 -0.12891671 0.15590496 -0.25611728
000030 91 4f d4 3c 74 bf 1c 3c d0 9c ec bc cb 38 9b 3d
       0.025916846 0.00956713 -0.028883368 0.07579192
000040 65 eb ca bd 39 b9 49 bc c4 a8 eb bd b1 57 0b be
       -0.09908179 -0.012312227 -0.11506799 -0.1360767
000050 7c 6c c3 3b f5 9e 66 3e 45 21 5c 3d bf c1 05 be
       0.00596386 0.22521575 0.053742666 -0.1306219
000060 47 ce 82 bd 7d cd ed 3c 19 cd df bd f9 9c 6e bd
       -0.063870005 0.029028649 -0.10927791 -0.05825517
000070 4d ee d2 3d 81 41 0c 3e de 85 1d 3d 8a e7 0d bd
       0.102993585 0.13696863 0.038457744 -0.03464464
000080 0e ec 16 be 58 5f 0c 3c 99 78 12 3e 32 8d f9 3c
       -0.14738485 0.008567654 0.14303817 0.030462835
000090 9c 62 e2 bd 0e 49 b5 bc 7a f3 bc 3d 3f bb 1c 3e
       -0.110539645 -0.022129562 0.09226127 0.15305804
0000a0 0e 11 ce bd 88 f7 b6 3c 0e e3 14 bc e8 ec 61 3e
       -0.10061847 0.022334829 -0.009087337 0.22063029
0000b0 02 ee 6f 3d 8e f4 98 3d 2c d8 95 bc 57 50 c6 3d
       0.05857659 0.0746852 -0.018291555 0.09683292
0000c0 92 a5 4c 3e 65 79 35 3e 75 70 6a 3d 89 b7 50 3c
       0.19985035 0.1772209 0.057236154 0.012739071
0000d0 24 e5 61 3d 96 52 1a be 41 65 dc bd 4c a3 01 3e
       0.055150166 -0.15070567 -0.107615 0.12659949
0000e0 b6 c9 a4 bc fb 37 3b be 6e de cc bc a3 9c 53 bd
       -0.020115715 -0.18283074 -0.025008406 -0.051663052
0000f0 ad 33 57 3d 52 7f da bd 51 7d 67 3e be 14 9e 3c
       0.052539516 -0.10668816 0.22606398 0.019297
000100 57 41 a4 bc 72 4b 1c be 3a cf a8 3d d3 a5 f4 bc
       -0.020050688 -0.15263155 0.0824265 -0.029864227
000110 3f df 84 bd 6a 24 bc bc 4f 89 c6 3d 23 1a 05 bd
       -0.06487893 -0.022966582 0.09694158 -0.03249563
000120 4e 7c 86 be 7f e2 97 3b 6a aa 4a bc d7 53 24 3d
       -0.26266712 0.0046351547 -0.012369731 0.04011902
000130 a2 03 ca 3d 68 24 22 bc 74 cd 1b be 9e ac 19 3a
       0.09863974 -0.009896375 -0.15215093 0.0005862209
000140 17 3a 4c bc eb e6 08 3e 49 67 09 be b5 0e 22 be
       -0.012465022 0.13369338 -0.13418306 -0.15825923
000150 75 e0 d3 bc 3c f5 8b be 23 7b 87 3b 8f 2e 78 bd
       -0.025863865 -0.27335536 0.004134552 -0.060591277
000160 2f 02 80 be 11 17 c4 3d bb bf 03 be 68 cb 9c bc
       -0.25001666 0.09574712 -0.12866108 -0.01913996
000170 9d 63 82 3e 0e c5 0f be 98 46 ec bd a7 6e 0f bd
       0.25466624 -0.14040014 -0.11536902 -0.035017636
000180 2e 01 b9 bd 76 88 4b bd 03 1f 7b be 44 4a e4 3c
       -0.09033428 -0.049690686 -0.24523549 0.027867444

seq.6.weight f4 [50, 100]
000000 a3 f5 47 bd d8 7c d5 bd ea 9c e5 bc 23 75 b0 3d
       -0.04881824 -0.10424203 -0.028028924 0.08616092
000010 80 57 1a bd ee 3a df bd c8 12 f4 bc d8 29 b9 bc
       -0.037681103 -0.10899912 -0.029794112 -0.02260296
000020 25 24 8a 3c 9d ae e2 3d a4 b2 7e be 6a b9 29 bd
       0.016862938 0.11068461 -0.24872833 -0.04143659
000030 4d d3 c7 3d 84 2e 57 3d e0 bb c8 bd 6d 77 c5 bc
       0.09757099 0.052534595 -0.09801459 -0.024104798
000040 af 1f d4 bc 09 2a b8 bd 18 49 5b be 57 7f c1 bb
       -0.025894014 -0.089923926 -0.21414602 -0.0059050727
000050 70 99 7e be c4 2a 37 be 59 47 73 3e 45 b8 2c bd
       -0.2486322 -0.17887408 0.23757686 -0.04216792
000060 f8 38 68 3d 37 bd a2 bc d3 69 8f bd 38 e9 f7 3c
       0.056694955 -0.019865615 -0.07002606 0.030262575
000070 cb ab 04 3e e0 8c 32 bd 5e 31 01 3d 1e e9 30 3d
       0.12956159 -0.04359138 0.03154122 0.043191068
000080 82 a1 7d 3d 80 bd f4 bd 9d 36 41 3d bb 7d b8 be
       0.061921604 -0.11950207 0.047171224 -0.36033425
000090 e7 33 96 3c 12 42 a6 bd 64 da 5f be 93 b8 72 bd
       0.018335296 -0.08118071 -0.21860653 -0.059258055
0000a0 04 f5 94 3d c7 ed 63 3b 2f 46 0e be 0d dc 07 be
       0.072732955 0.0034779178 -0.1389396 -0.13267536
0000b0 29 73 97 3c 60 7b 27 3e ce 89 10 3d f6 72 9b 3b
       0.01848753 0.16355658 0.03528767 0.004743929
0000c0 78 4e 4c bb aa 8f a9 be c2 04 48 be 54 a4 4f be
       -0.00311747 -0.3311742 -0.19533065 -0.2027753
0000d0 51 50 9b 3c 1c 76 bb bd cd 1f d6 3d 37 eb c9 be
       0.018959196 -0.09153387 0.10455284 -0.39437267
0000e0 36 2f 69 bc 69 07 02 be 4c 51 67 bd 84 ef 03 be
       -0.014232447 -0.12698139 -0.056474015 -0.12884337
0000f0 b0 bf 9e 3d c6 2f a2 bd 7b 20 e8 bd 1e 80 61 be
       0.07751405 -0.07919268 -0.1133432 -0.22021529
000100 22 d8 cf 3d 8b 98 8d bd 4e 33 f8 bd f6 39 07 bc
       0.10148646 -0.06913861 -0.121191606 -0.008253565
000110 80 8e 75 bd ba 06 2e be 50 cd c3 bd 88 3d 1b be
       -0.05995035 -0.16994753 -0.095606446 -0.15160191
000120 11 d9 88 3b 00 d5 70 be ae ba b7 bd 68 64 8c bd
       0.004176267 -0.23518753 -0.08971153 -0.068550885
000130 1f 86 1c be 6f a1 53 be e1 b9 d4 bd 27 51 19 3c
       -0.15285538 -0.20667051 -0.10387016 0.009357727
000140 9c 1d c1 3d 43 92 0f be 3f 65 0a 3e 42 2b dc ba
       0.09429476 -0.14020638 0.13515185 -0.001679756
000150 a8 5e 24 bd 51 58 3b 3d eb 70 94 3d 17 17 a7 bd
       -0.040129334 0.045738522 0.072481 -0.08158701
000160 a1 5e 03 3d 61 75 bb bd b5 d1 cd bd 28 73 92 ba
       0.032072667 -0.091532476 -0.10049764 -0.0011173235
000170 61 25 68 bd 6d b4 cc bd db 6c 96 38 53 20 c6 bd
       -0.056676272 -0.09995351 7.172833e-05 -0.09674134
000180 f2 f5 78 bd 56 52 cf bd 81 55 5c be 25 3c 9b bd
       -0.060781427 -0.10123126 -0.21516992 -0.07579831
000190 a2 58 19 bc 5b 26 6c bd 2f b1 3c 3e ea 06 85 bd
       -0.009359511 -0.057653766 0.18426965 -0.064954594
0001a0 eb 30 79 be eb 94 5f bc b9 27 14 3d 08 6f e2 3d
       -0.24335067 -0.013646345 0.036170695 0.11056334
0001b0 6b 4f b3 3c d1 88 33 3e 82 88 36 be fe ac 9f 3d
       0.021888455 0.1753266 -0.17825511 0.077966675
0001c0 a3 db 45 3e f8 b9 32 3e dc d2 3e bc 28 71 54 3e
       0.19322066 0.17453754 -0.0116469525 0.2074629
0001d0 48 57 1a be d4 07 db 3d d0 3f 45 be 03 6b 71 bb
       -0.15072358 0.106948525 -0.19262624 -0.0036837466
0001e0 c3 34 ab bc 87 48 18 3e 1b 47 5e 3e 4b 84 32 3d
       -0.020899182 0.14871417 0.21706812 0.043583196
0001f0 24 df 58 3c d0 16 87 3d f6 71 c0 3d c3 f3 8c 3e
       0.013236795 0.06596148 0.09396736 0.27529725
000200 cb bd 47 be d5 68 99 bd e7 fb 26 3e 58 e4 5c bc
       -0.19505994 -0.07490698 0.1630703 -0.013482176
000210 a5 5d 8d bd bc 1c 86 bc 3f ed bb 3c 4e 7d 05 be
       -0.06902627 -0.016371123 0.022940276 -0.13036081
000220 87 7b fe 3d 88 e6 3f bd 9d d9 32 be c2 92 1d 3e
       0.12425905 -0.04685071 -0.17465825 0.15388015
000230 fb 08 23 3d f6 46 1b bd 8e 9b d6 bc 8c 69 37 3d
       0.039803486 -0.03790947 -0.026197221 0.04477839
000240 3f 1f 38 3e 39 ce 8f 3d 85 5a 38 be 9f 4d 80 3e
       0.1798067 0.07021756 -0.1800328 0.2505922
000250 7f e8 c0 3d cd 6d 85 be 99 42 1f bc d8 08 18 3e
       0.09419345 -0.26060334 -0.009720468 0.14847124
000260 3d c8 17 3e 49 97 60 3e fa 49 87 3e 80 dd 50 be
       0.14822479 0.2193271 0.26423627 -0.20396996
000270 09 31 58 be d4 2e e4 3d 2d 4b a4 bd d3 07 fc 3c
       -0.21112455 0.11141744 -0.08022151 0.03076545
000280 a3 c8 1c 3e 15 b4 d4 3d 29 56 2c bc 24 c8 18 bc
       0.15310912 0.103859104 -0.010518589 -0.009325061
000290 e7 21 7e 3d ae bc 17 be b8 81 1c bb c2 ce 32 3e
       0.06204405 -0.1481807 -0.002388103 0.17461684
0002a0 39 fb 22 3e 5d dd da 3d ff 69 b9 3d 33 6a 0f 3e
       0.15916146 0.10686753 0.0905342 0.14005356
0002b0 a7 b5 f5 bc 4a 82 3e 3e 43 93 8c 3e 18 22 21 3e
       -0.029993845 0.18604389 0.27456102 0.15735662
0002c0 b4 ef d0 bd cb 09 41 3e 75 d0 d5 bc 94 e0 e4 bd
       -0.1020197 0.18851392 -0.026100377 -0.111756474
0002d0 f2 e3 0e be 6e c5 51 bd 28 1a 60 3d 54 67 e5 3d
       -0.13954142 -0.051213674 0.054712445 0.11201349
0002e0 61 a2 34 3e 05 c7 d2 bd 14 9e f3 3d ab a4 33 3e
       0.17640068 -0.10291866 0.118953854 0.17543285
0002f0 bf 32 84 3e 13 b3 af 3d 98 d3 1a 3e c5 18 c2 bc
       0.25819966 0.085790776 0.15119779 -0.023693452
000300 eb de 0f bd bd 0a 68 3e aa e2 9d 3d e9 82 33 be
       -0.0351247 0.22660346 0.07709248 -0.17530407
000310 99 bc c7 3d 8a 47 92 3c 4d 67 23 3d 72 09 2c 3e
       0.09752769 0.017856378 0.039893437 0.16800478
000320 45 a8 c9 bc 1b d5 2c be 5f e7 03 3d 05 16 bb 3d
       -0.02461637 -0.16878168 0.032203075 0.09135059
000330 75 5a b2 bd 3b e6 00 be aa 23 0d bd c3 47 db bc
       -0.087086596 -0.12587826 -0.03445784 -0.026767617
000340 e3 75 93 3e 66 bc 55 3e 0b 78 e2 be 39 4a 1b be
       0.28800878 0.2087265 -0.4423221 -0.15165032
000350 b5 9e 8a 3e 1c d1 43 3d 2c c9 38 3e 26 81 a0 3e
       0.2707421 0.047806844 0.18045491 0.31348532
000360 6c 40 cd 3d 43 ee 1d be 4d 7b 85 be 8c 04 9b 3d
       0.10022053 -0.15422921 -0.26070634 0.075692266
000370 3d bc 40 3e 7c 1d 98 be ac 89 90 3d 41 aa 3c bd
       0.18821807 -0.29709995 0.07057509 -0.046060804
000380 17 b4 cc bd a6 75 17 39 97 83 72 be 93 bd e1 bd
       -0.09995287 0.0001444431 -0.2368301 -0.110224865
000390 a7 00 d6 3d c6 e4 24 be d8 49 3e bd 5d 51 84 bb
       0.10449343 -0.16102895 -0.04645714 -0.0040380196
0003a0 92 50 69 bd 64 8d 8c bd b4 1e 28 be b9 aa 9f be
       -0.056961603 -0.068629056 -0.16417962 -0.3118494
0003b0 b5 7f f2 3c f2 74 86 be ec 38 46 be 17 6e 32 bd
       0.029601911 -0.26261097 -0.19357651 -0.04356202
0003c0 8d e4 9b be 11 87 39 3e 58 00 a2 bd b5 38 1b 3e
       -0.30447808 0.1811793 -0.07910222 0.15158351
0003d0 78 f7 97 bd c5 84 e7 3d 4f 59 3d be 55 28 b4 bd
       -0.07420248 0.11304621 -0.184911 -0.08796755
0003e0 22 54 40 3d b5 03 86 be 00 b3 00 bf ec 4e 67 3e
       0.046955235 -0.26174703 -0.5027313 0.225887
0003f0 95 f2 44 3e e7 58 37 3e 82 df 9d be b2 bf 39 be
       0.19233163 0.17905007 -0.30834585 -0.18139532

seq.6.bias f4 [50]
000000 4f 85 7d bd dc a4 ea 3d 9e 6f dd 3d 84 2e 33 3e
       -0.06189471 0.11457226 0.10812305 0.17498213
000010 d5 d3 fa be c9 d5 96 bd 87 98 86 3e 58 36 05 be
       -0.4898974 -0.07364995 0.26288244 -0.13009012
000020 e6 8f 70 3c 81 8c cb bd 50 65 0b 3d 2a 7f b3 3d
       0.014682746 -0.09938908 0.034032166 0.08764489
000030 67 53 99 bd 02 75 c0 bd 7b 05 f4 bd 1a 83 08 3e
       -0.07486611 -0.093973175 -0.11915108 0.13331261
000040 df 68 ae 3b 24 f6 c1 ba 53 cb 12 3e b4 55 a5 bc
       0.00532256 -0.0014798087 0.14335375 -0.020182468
000050 f3 3f 36 3e 1c 6c 20 bd 9f 4d c3 bd 48 0f 6a bc
       0.17797832 -0.0391656 -0.095362894 -0.01428587
000060 c8 78 14 3e a7 ac 5c 3e b3 a8 bc bd 5f 8f 5f 3e
       0.144992 0.21550237 -0.09211864 0.21832035
000070 81 db ff bd bc 85 8a bd 4c d0 a5 3c fa ba 16 bc
       -0.12493039 -0.06763789 0.020240925 -0.009199852
000080 06 78 ca 3c 33 f7 8a 3e 56 b2 b1 bd 47 7a 0e be
       0.024715435 0.27141723 -0.08676593 -0.13913833
000090 5a 5f 73 3e 73 05 97 3c 10 ea 5e bd b0 c1 43 bd
       0.23766842 0.018435216 -0.05442244 -0.047792137
0000a0 97 7e 83 3e c9 99 d3 3c fd 9f 5f bd a9 c7 84 bd
       0.25682518 0.025830166 -0.054595936 -0.06483395
0000b0 3b 0c 79 3e 77 3e 4d 3e 1d d3 b4 3d a4 7a ae 3c
       0.24321072 0.2004336 0.08829329 0.021298714
0000c0 31 67 e2 3c 16 4a d5 3d
       0.027637096 0.104145214

seq.8.weight f4 [20, 50]
000000 48 a3 01 be 68 b0 5c 3c ff 2b 08 bc 78 20 f0 ba
       -0.12659943 0.013469793 -0.008311271 -0.0018320223
000010 75 90 c4 bd 53 8e 9f bd 98 3a 6d be 99 d4 02 be
       -0.095978655 -0.07790818 -0.23166883 -0.12776412
000020 7f 47 62 3d 78 1a 98 3c b3 3e 99 3d 22 13 37 be
       0.055243965 0.018567309 0.07482662 -0.17878392
000030 be 4d 21 3d e0 d6 90 bd 23 ae 87 bd d6 14 40 3d
       0.03938078 -0.07072234 -0.06625011 0.04689487
000040 9c d4 8a 3d aa b1 58 bd 3f 2f d6 bd 99 81 e1 bd
       0.06778833 -0.05290381 -0.1045823 -0.11011047
000050 49 56 1a 3d 47 01 05 3c 9d 17 3a 3d 13 6b fc bd
       0.037679944 0.00811798 0.045432676 -0.1232511
000060 e7 ce 9a 3d 5e 80 98 3c 41 d3 ac bd 41 6a af bd
       0.07558995 0.018615898 -0.08438731 -0.08565188
000070 3e dc 39 bd 15 2a d3 3d fc 0b e0 bb a6 f5 9e bd
       -0.045376055 0.10310761 -0.006837366 -0.077616975
000080 3e 09 9e 3d 71 2d 71 3d 8c 3f 86 3d 9a 72 fc 3d
       0.077166066 0.058881227 0.06555089 0.12326546
000090 8d 9d 10 3d 87 61 a4 bd 39 a6 6c bd e7 49 ea bc
       0.035306502 -0.08026414 -0.05777571 -0.028599693
0000a0 06 7d 46 bd bc 63 8d 3d 61 ec 9a 3d b5 c3 08 3c
       -0.048459075 0.069037884 0.07564617 0.008347441
0000b0 a8 8f 2a be dc 84 23 be 2d 04 40 be ba e0 36 be
       -0.16656363 -0.1596865 -0.18751593 -0.17859164
0000c0 15 1b 8a 3d ca 4b f1 bc d6 2b 06 3e c6 86 21 be
       0.06743447 -0.029455084 0.1310266 -0.15774068
0000d0 42 09 80 bd 67 66 a6 be 41 04 26 3d 8d 21 13 3d
       -0.06251766 -0.32500002 0.0405314 0.03592067
0000e0 75 a3 5a bd 53 4e 88 3e 4a d9 87 3e 2a f6 02 bd
       -0.05337854 0.26622257 0.26532966 -0.03197304
0000f0 9a d7 64 3e e2 43 9d 3e af 94 1d 3e 66 05 9e bd
       0.2234787 0.30715853 0.1538875 -0.077158734
000100 72 47 99 3c 15 06 52 3e c9 63 95 be e3 ad 45 be
       0.018710826 0.20510133 -0.29177693 -0.19304614
000110 3c 43 a6 3e c3 8f a7 3e f7 fa 41 3e 71 4e cb 3d
       0.3247317 0.3272687 0.18943392 0.09927071
000120 b7 73 d1 bd 5e a9 cd 3d 64 ca e8 3c b4 e2 91 be
       -0.10227149 0.1004207 0.02841682 -0.28493273
000130 3f 55 65 3d ae 1c 0a bf d9 ea d9 3d 3d 7d bc 3e
       0.0559895 -0.5395001 0.10640497 0.368143
000140 ea 6d f7 3c 74 1e 06 be cd 11 ef 3d c2 cc 4a be
       0.030203778 -0.13097554 0.11673317 -0.19804671
000150 53 d9 89 3d 54 3b 10 be de 7c 11 bf d5 af 82 3d
       0.067309044 -0.14085132 -0.5683116 0.063811935
000160 16 b2 1e be 27 fe c7 3e b6 ec 2d bf 26 37 a9 3e
       -0.15497622 0.3906109 -0.6793932 0.33049887
000170 39 05 f3 3e 12 85 80 3d cf c4 a3 3d 9f 08 55 be
       0.47464922 0.06275381 0.07996523 -0.2080407
000180 5b 98 0b be 55 c7 48 3e 01 50 83 3e 8e 5d 6f 3e
       -0.13632338 0.19607289 0.25646976 0.23375532
000190 70 33 cf 3b 3d db 0f be 79 d8 b3 bd b6 37 9c 3d
       0.0063232705 -0.14048477 -0.08781523 0.076278135
0001a0 9f 9d 00 bf 09 ce 7c 3d 6d da 69 3e 8a 82 90 3e
       -0.5024051 0.061719928 0.22837229 0.28224593
0001b0 d6 2a 23 3d 3d 87 d8 bd 23 88 c8 bd 2f 0b 0b 3d
       0.039835773 -0.1057267 -0.09791591 0.033946212
0001c0 32 8b c2 3d 18 f0 53 bd 32 3b 0e be bc c5 47 be
       0.09499206 -0.051742643 -0.13889769 -0.19509023
0001d0 a3 87 4a 3e f4 7e 96 3e 25 e3 2a be 15 91 f3 bd
       0.19778304 0.29393733 -0.16688211 -0.118929066
0001e0 55 46 9a be 2f 8d fe 3d 92 01 37 bd 33 b3 2c be
       -0.30131784 0.124292724 -0.044679232 -0.16865234
0001f0 c0 1b f6 bd 08 9b f0 3d 79 52 f4 3d 41 ae e4 3c
       -0.12017012 0.1174832 0.11929793 0.027915122
000200 69 c1 6a bd f2 f4 3f be 8d 35 24 3e 59 29 f0 bd
       -0.057313357 -0.18745783 0.16036053 -0.117266364
000210 c4 a1 9b bd f8 cd 30 3e 50 ab cc 3d d7 bd 03 3e
       -0.07599214 0.17266071 0.09993613 0.12865387
000220 69 23 89 3c d2 ee 9f bd 82 17 0f be cd 62 cb bd
       0.016740518 -0.07809223 -0.13973811 -0.09930954
000230 c6 72 71 3e 14 24 28 bd c0 7d 44 be a8 7d 75 3e
       0.23578939 -0.04105003 -0.19188595 0.23973715
000240 a2 0d 6c 3e 00 2d a0 3d 26 47 f8 bc 09 ab d6 3d
       0.23052076 0.07821083 -0.030307364 0.10481841
000250 78 b1 60 bb 4b 0d c2 3d da 99 57 bd bd 68 a1 bc
       -0.0034285467 0.09475192 -0.05263696 -0.019703263
000260 ac 69 25 bc 20 bc b3 bb 46 56 5b bd 3e 98 5d bd
       -0.010095995 -0.0054850727 -0.053549074 -0.054100268
000270 34 a6 fa bd 40 fe 8c bd a4 81 cf bd ec 31 88 3d
       -0.12238732 -0.06884432 -0.10132149 0.06650147
000280 67 96 bd 3c d5 07 57 3b d0 3a 17 3d f8 7b a0 bc
       0.023143006 0.0032811065 0.036921322 -0.019590363
000290 2b 1a d5 bd 25 fb 22 be dc c9 70 3d 7b 68 1e be
       -0.10405382 -0.15916117 0.058786258 -0.15469544
0002a0 3b fc 36 3d 20 b9 67 3c 42 b3 bd 3d ef 36 81 bd
       0.04467414 0.014143258 0.09262706 -0.06309306
0002b0 30 b8 ce 3c fe e4 8e 3d f4 f4 c7 bd 80 38 1d bd
       0.025234312 0.069772705 -0.09763518 -0.03838396
0002c0 00 5d 7c bd 27 43 ab 3d 62 b9 eb 3d d8 44 3a bd
       -0.06161213 0.08362418 0.11509968 -0.04547581
0002d0 f0 7d 1d 3c 1e 9e f2 3d c2 d3 c7 3d 8a bc 31 bd
       0.009612545 0.11846565 0.097571865 -0.043392695
0002e0 74 c8 b9 3d 20 d5 ac bc a2 3a 92 bd 20 78 c4 bc
       0.090714365 -0.02109772 -0.071400896 -0.023983061
0002f0 4c 09 b4 3b 4f d1 81 3d 71 fc 26 be 89 54 15 be
       0.0054942723 0.063387506 -0.16307236 -0.14583029
000300 dd d4 1a 3d 86 d9 68 bc 33 86 b8 3d 51 cb 0d be
       0.03780066 -0.014212018 0.090099715 -0.1384709
000310 b5 93 2b 3b a6 60 5f bd ac 50 df bd 58 34 0b be
       0.002618057 -0.05453553 -0.10904059 -0.13594186
000320 d9 3a 81 3d 9a 73 e1 bd d3 32 c8 3c 86 16 db bd
       0.063100524 -0.110083774 0.024438297 -0.106976554
000330 cb fc 34 3e e0 fe 75 3c 2b 74 06 be 3a 88 89 bd
       0.17674558 0.01501438 -0.13130252 -0.06715436
000340 f2 30 9a bd 9c 8d 0f be 4a e8 90 3d 54 69 10 3d
       -0.07528867 -0.14018863 0.070755556 0.0352567
000350 2c ed 63 bd d8 a4 7d 3d a8 bc 2d be 15 91 5b bd
       -0.055646107 0.061924785 -0.16966498 -0.053605158
000360 22 85 b8 3c 2a d3 9d bd c4 5b f5 bd 82 a4 ab 3d
       0.02252442 -0.07706292 -0.119803935 0.08380987
000370 81 f0 1e be 6b 68 88 3b ba 76 d0 3d e3 cc 30 bc
       -0.15521432 0.004162838 0.10178895 -0.010791036
000380 ba 03 11 be dd 25 89 3d 60 2e 64 3d 70 97 5e 3d
       -0.14161578 0.06696675 0.05570829 0.05434364
000390 7c e3 d4 bc 68 e6 e7 bc 8f 08 9d bd 61 e2 ef bd
       -0.02598738 -0.028308108 -0.07667648 -0.117131
0003a0 5b ce b4 3d aa 1b d5 bc 98 e5 06 be f8 54 06 3d
       0.08828422 -0.026014168 -0.1317352 0.032795876
0003b0 20 eb 03 be d4 03 e1 bd cf f4 0f be 77 ac 7b 3d
       -0.12882662 -0.10987058 -0.14058231 0.061443772
0003c0 58 ea a7 bd b1 41 7b ba 96 2d 8d bd 40 b5 c0 3d
       -0.081989944 -0.0009584679 -0.068934605 0.09409571
0003d0 10 5e c7 bd 0a 27 40 bd 2f d7 d6 bd af 8a bc 3d
       -0.09734738 -0.04691223 -0.10490262 0.09206139
0003e0 55 dd ec 3d a3 ef 0a bd a0 f0 d0 bc 99 87 5c be
       0.11565653 -0.03391994 -0.025505364 -0.21536101
0003f0 f5 20 de 3e 33 dd 0c 3e 74 2c 75 be d2 f9 14 3c
       0.4338452 0.13756256 -0.23942739 0.009092765

seq.8.bias f4 [20]
000000 96 54 45 be 19 27 09 3e 96 be 3b 3e ea b6 e8 bd
       -0.19270548 0.13393821 0.18334422 -0.11363013
000010 cd 64 bf bd f4 9f bf bd 93 24 86 3c 8f cd b5 3d
       -0.09345398 -0.093566805 0.016374862 0.08877098
000020 1f 4d 6b 3e 07 55 2a 3e 06 8b f3 bc e7 71 0d 3e
       0.22978638 0.16633998 -0.029729377 0.13812982
000030 32 fc b9 3d df 60 86 bc 54 b5 a3 bd 1c ac 69 3e
       0.090813056 -0.016403614 -0.0799357 0.22819561
000040 fc a1 f7 3d d2 6c 23 3e 21 45 e2 bd 90 85 25 3e
       0.12091443 0.1595948 -0.110483415 0.16164231
